Result/BLKD/resnet14_0.01_0.01_3_Acc _ 88.36_2CH_31_128 # 1_best.pth.tar (torch_old, 721102 bytes, 77 tensors)

conv1.weight f4 [16, 3, 3, 3]
0.043119624 -0.08383517 -0.44773567 0.02289191 0.41228914 0.41683525 0.13799524 0.40032366
0.338862 -0.039761644 -0.08964398 0.006480762 -0.24620643 -0.07073183 0.10727858 -0.020918375
-0.12040155 -0.07221903 0.4039424 0.13597828 0.122219265 0.20070694 -0.27568844 -0.1226886
0.47358075 -0.42904544 -0.6350362 -0.18524452 0.08295616 -0.33458838 -0.7156077 -0.50248176
0.2091819 0.5193534 0.22672327 0.5577896 0.1063997 0.58764356 0.21833402 -0.53470033
-0.3736821 0.4779231 0.090010636 -0.21182466 -0.07961817 0.36653623 0.61619353 0.14117372
-0.20575643 -0.53070766 -0.005991864 0.2214881 -0.5244909 -0.2844957 -0.09482503 0.41365436
0.3410497 0.5047974 -0.1779602 0.8788085 -0.10504199 -0.9143998 -0.23776524 -0.10770294
-0.15047655 0.1539466 0.66295254 -0.49641523 0.27480572 0.029016515 -0.53759104 -0.12617908
-0.27867213 0.01843274 -0.17175274 0.4111382 -0.16750044 0.0068761148 0.16711244 -0.15494062
-0.068554014 -0.07826249 -0.59180015 -0.14170146 -0.18773982 -0.8252492 -0.43675014 0.21821147
-0.14550786 0.124791496 0.19181708 -0.056429997 0.1534918 -0.065026455 -0.17221513 -0.17336816
0.19561513 -0.028280549 -0.04620542 0.03555665 0.3522182 0.31164318 0.22475734 0.48585695
0.24113534 0.24591891 0.26464128 0.06158837 0.015442053 0.045172732 -0.16567156 0.42011485
-0.9673445 0.7051128 -0.19922367 -0.14461026 0.34731632 0.13354495 -0.057528507 -0.08249817
0.17242168 -1.2174908 0.94546956 -0.1349485 -0.36911142 0.49485564 0.15674104 0.2088765
-0.035848577 0.28324157 -0.9919241 0.63326347 -0.13757618 -0.17814139 0.19086586 -0.003802315
0.37841058 0.76027054 -0.5003157 0.1843876 0.2972407 -0.6959723 -0.66939545 0.30896038
0.23709114 -0.32393643 -0.271822 -0.075858906 0.15056328 -0.34367898 0.25157812 0.061726723
0.06487815 0.112222865 -0.1798455 -0.428592 0.08422342 0.3447695 -0.41747352 0.44199935
0.1287935 -0.052230913 0.24500217 1.0609683 -0.2884519 0.27233133 0.54117507 -0.31681025
-0.26607686 -0.39800888 -0.076878354 -0.15911593 0.16550255 -0.6087717 -0.17202705 -0.23831093
-0.17484514 0.09113455 -0.3622021 0.48910055 -0.15635605 0.4543549 -0.72305804 0.23282476
0.32909036 -0.48518375 0.37818822 0.18179208 0.27033108 -0.13649932 -0.3744161 -0.3715883
0.48302606 0.09842771 -0.29126847 0.11291775 0.06953385 0.24524948 -0.09280626 -0.3223443
-0.2781383 0.47522503 0.023147942 -0.30040482 -0.22994483 -0.13007918 0.1912196 0.14927639
-0.22785397 0.11200247 0.04693238 -0.020110833 -0.11069099 -0.11285422 -0.20441912 0.08569596
-0.054877855 0.31774256 0.5731542 -0.14413625 0.2079204 -0.06551369 -0.085701436 -0.22216655
-0.20459585 -0.49649408 0.06891148 0.6015663 -0.237047 -0.15755425 -0.07530222 -0.012119525
-0.0890166 0.1458104 -0.47224846 0.04158657 0.32115123 -0.37441155 0.13402058 0.20548761
-0.1240225 0.029791594 0.49438787 0.29181427 -0.022934146 -0.094488524 0.10110237 -0.009216149
0.24630015 -0.111540854 -0.45667037 -0.11114242 0.30288473 -0.10179674 -0.20216022 0.12012783
00000000: 349e 303d c6b1 abbd 9c3d e5be d187 bb3c
00000010: 9017 d33e 6e6b d53e a04e 0d3e 39f7 cc3e
00000020: 527f ad3e 1bdd 22bd 4397 b7bd 925c d43b
00000030: 8a1d 7cbe dadb 90bd dfb4 db3d 035d abbc
00000040: 1695 f6bd 92e7 93bd 8ad1 ce3e e43d 0b3e
00000050: 184e fa3d 1f86 4d3e 0927 8dbe 2944 fbbd
00000060: 2d79 f23e d8ab dbbe bb91 22bf bdb0 3dbe
00000070: ebe4 a93d 2b4f abbe 1132 37bf a5a2 00bf
00000080: c833 563e 58f4 043f 252a 683e 4dcb 0e3f
00000090: 16e8 d93d cf6f 163f f492 5f3e 1fe2 08bf
000000a0: 4353 bfbe 56b2 f43e 7f57 b83d 90e8 58be
000000b0: da0e a3bd a3aa bb3e dcbe 1d3f d88f 103e
000000c0: d0b1 52be 75dc 07bf 6657 c4bb c7cd 623e
000000d0: 0945 06bf 6ca9 91be a033 c2bd 81ca d33e
000000e0: 119e ae3e 673a 013f 333b 36be 98f9 603f
000000f0: 4120 d7bd 1b16 6abf bb78 73be 5c93 dcbd
00000100: 8616 1abe 2da4 1d3e 42b7 293f 232a febe
00000110: 56b3 8c3e 0bb4 ed3c 919f 09bf 1735 01be
00000120: 1dae 8ebe 4200 973c f3df 2fbe b580 d23e
00000130: 3c85 2bbe 0851 e13b 861f 2b3e c1a8 1ebe
00000140: 0c66 8cbd 1648 a0bd 3780 17bf 301a 11be
00000150: de3e 40be 8843 53bf b79d dfbe d472 5f3e
00000160: 0300 15be af92 ff3d b26b 443e 2423 67bd
00000170: f42c 1d3e 972c 85bd 2a59 30be 6c87 31be
00000180: 554f 483e 9cac e7bc e541 3dbd daa3 113d
00000190: f255 b43e b28f 9f3e ca26 663e 3ec2 f83e
000001a0: 2fec 763e 2bd2 7b3e 107f 873e 1644 7c3d
000001b0: aa00 7d3c 0b07 393d cea5 29be 4b19 d73e
000001c0: e4a3 77bf 4682 343f 4a01 4cbe b614 14be
000001d0: 72d3 b13e 02c0 083e 03a3 6bbd cdf4 a8bd
000001e0: 4f8f 303e bdd6 9bbf 4b0a 723f f12f 0abe
000001f0: 2cfc bcbe b85d fd3e b980 203e b9e3 553e
00000200: f5d5 12bd 0a05 913e bdee 7dbf 8e1d 223f
00000210: c5e0 0cbe b26a 36be 5772 433e 4330 79bb
00000220: 08bf c13e 17a1 423f b114 00bf 1ad0 3c3e
00000230: ef2f 983e 3e2b 32bf 805d 2bbf 0e30 9e3e
00000240: 05c8 723e ffda a5be 412c 8bbe ea5b 9bbd
00000250: 432d 1a3e b1f6 afbe d9ce 803e 29d5 7c3d
00000260: d6de 843d 1ad5 e53d 6b29 38be 6970 dbbe
00000270: 547d ac3d a185 b03e 17bf d5be bd4d e23e
00000280: 71e2 033e 15f0 55bd d9e1 7a3e cfcd 873f
00000290: f8af 93be 036f 8b3e 738a 0a3f f434 a2be
000002a0: 3a3b 88be d2c7 cbbe 6672 9dbd 49ef 22be
000002b0: 8079 293e 76d8 1bbf dc27 30be c807 74be
000002c0: 9b0a 33be c0a4 ba3d 8e72 b9be 636b fa3e
000002d0: cd1b 20be 35a1 e83e 551a 39bf 9d69 6e3e
000002e0: 887e a83e 016a f8be e3a1 c13e b427 3a3e
000002f0: d668 8a3e 7ac6 0bbe 78b3 bfbe d240 bebe
00000300: 314f f73e 7894 c93d 2421 95be 6c41 e73d
00000310: c367 8e3d ae22 7b3e 3511 bebd 500a a5be
00000320: 2568 8ebe b250 f33e c1a0 bd3c a9ce 99be
00000330: a876 6bbe 7a33 05be 12cf 433e e9db 183e
00000340: 8d52 69be 8d61 e53d 2b3c 403d 79bf a4bc
00000350: f5b1 e2bd 1d20 e7bd 3f53 51be 5d81 af3d
00000360: 9ac7 60bd 27af a23e 3cba 123f 7498 13be
00000370: 16e9 543e 0b2c 86bd 3c84 afbd a17f 63be
00000380: 9381 51be 7934 febe 7621 8d3d 4000 1a3f
00000390: 73bc 72be e755 21be 0d38 9abd f990 46bc
000003a0: 564e b6bd 524f 153e 8dca f1be ae56 2a3d
000003b0: ef6d a43e dfb2 bfbe b13c 093e 586b 523e
000003c0: 82ff fdbd 800d f43c 6820 fd3e ae68 953e
000003d0: 64e0 bbbc 3383 c1bd c20e cf3d 55ff 16bc
000003e0: 1b36 7c3e 886f e4bd b3d0 e9be a39e e3bd
000003f0: b513 9b3e cf7a d0bd 1703 4fbe 9405 f63d

bn1.weight f4 [16]
0.59247833 0.76996946 0.75962156 0.52540046 0.906597 0.55127275 0.697302 0.7087474
0.59170777 0.77601045 0.7122884 0.5987602 0.53335243 0.5757216 0.5761751 0.688711
00000000: a9ac 173f b81c 453f 8f76 423f a580 063f
00000010: be16 683f 3620 0d3f 6282 323f 7870 353f
00000020: 297a 173f 9fa8 463f 8858 363f 5948 193f
00000030: c989 083f 7e62 133f 3680 133f 5d4f 303f

bn1.bias f4 [16]
0.045247976 0.3200037 0.50433856 0.29179454 0.4189659 -0.02729173 0.56444764 -0.22667207
0.4163997 -0.16081032 0.36667106 0.4677911 0.021475678 -0.027119776 0.32418332 0.19266136
00000000: f155 393d 86d7 a33e 551c 013f 1866 953e
00000010: b382 d63e e892 dfbc a47f 103f b91c 68be
00000020: 5732 d53e 76ab 24be 4fbc bb3e 5182 ef3e
00000030: c3ed af3c 4b2a debc 5bfb a53e 0549 453e

bn1.running_mean f4 [16]
-0.18279244 0.08060981 -0.042271122 0.23550983 0.093551345 0.040227458 -0.103645965 0.23679861
-0.05229506 0.19069643 0.097022146 -0.024897568 -0.021251505 -0.1565062 0.23310408 -0.03935437
00000000: f12d 3bbe c216 a53d 7c24 2dbd 7d29 713e
00000010: d997 bf3d 8cc5 243d 5644 d4bd 567b 723e
00000020: 5833 56bd ed45 433e 8cb3 c63d fcf5 cbbc
00000030: a317 aebc 2943 20be d6b2 6e3e 0c32 21bd

bn1.running_var f4 [16]
0.61238265 1.2853585 1.8625978 1.8137077 2.5748074 0.24577053 1.3063529 1.780878
2.1161149 1.5267262 2.9717534 1.1708305 1.6222961 1.5682746 1.742361 1.1404923
00000000: 1cc5 1c3f a186 a43f 9b69 ee3f 9327 e83f
00000010: a5c9 2440 45ab 7b3e 9236 a73f cff3 e33f
00000020: 6d6e 0740 c46b c33f 3531 3e40 c6dd 953f
00000030: 66a7 cf3f 39bd c83f af05 df3f a7fb 913f

layer1.0.conv1.weight f4 [16, 16, 3, 3]
0.01728922 -0.008611717 0.08486156 -0.077435486 0.06630956 -0.046384946 0.062368244 -0.01522805
0.21884137 -0.13531181 -0.25693187 0.21333316 -0.11185185 -0.0271672 -0.007801818 0.034810636
-0.24889989 0.12817551 0.047153708 -0.0991703 0.3540374 -0.19850329 -0.24671124 0.19261588
-0.34618667 -0.1478356 -0.09433303 -0.17636 -0.10834328 -0.016944217 -0.12379007 0.19078834
0.075078756 0.04109132 0.25960457 0.3792919 0.16411513 -0.19257644 -0.06458326 -0.114314795
-0.13961594 0.056569383 0.19915351 0.13748896 -0.22806962 0.0056472523 0.08014148 0.050103344
-0.14952514 -0.15496081 -0.033697493 -0.0076297806 0.13281141 0.06952731 -0.09052845 -0.11594455
0.3601525 -0.34373096 0.33445215 0.051608797 -0.009251329 0.015865106 -0.16177823 0.08889481
-0.033560846 0.12098892 -0.09955933 -0.09580963 -0.09833485 -0.1825998 0.0002607695 -0.063528314
-0.025963802 0.06966407 -0.13753505 0.2758244 -0.23796454 -0.30586928 0.08466352 -0.038546357
-0.19229126 -0.030161314 -0.096681684 -0.13687414 -0.005896797 0.007832357 -0.063815534 -0.10036255
-0.02107347 0.12142431 -0.19823624 -0.15643415 -0.08460348 -0.025261797 0.03113849 0.06344372
0.0973889 -0.14130342 -0.059542846 -0.10734471 -0.09077768 -0.09687072 -0.18276013 -0.16951564
0.017239163 -0.0509505 -0.077799946 0.2213304 0.058296293 -0.12581174 -0.12254009 0.039270718
0.10828043 0.08527386 0.021377048 0.0014262219 0.021625184 -0.023762215 0.0362432 0.0004565285
0.21891777 0.03774327 0.07313792 -0.21376303 -0.108992256 -0.013537032 0.029102987 -0.121924326
0.1400483 -0.16725914 -0.059285957 -0.054816853 -0.094908 -0.04850053 0.09867086 -0.22372055
0.3603246 0.055827294 -0.027034752 0.05820169 -0.06183488 0.023312291 0.048714735 -0.18917263
-0.26619756 0.054914024 0.11776791 -0.036076967 -0.115302026 0.1797149 -0.05559599 -0.26095214
-0.061368126 -0.11826301 0.011767292 -0.16204715 -0.09049961 -0.055899754 -0.24280883 -0.20982558
-0.22262816 -0.10437621 -0.14546967 0.022194995 0.0860437 -0.20244849 -0.0888754 -0.18721756
-0.101668045 -0.065164916 0.030174682 -0.19621955 0.0881586 -0.10737137 -0.00024341482 -0.22597098
-0.27175415 0.06817776 -0.072221 -0.08468049 -0.1623947 -0.14990845 0.10634452 -0.103215545
-0.04452288 -0.06268616 -0.22608218 0.09073362 -0.06897361 0.0074375346 0.06305838 -0.04389328
-0.020593934 0.08985431 -0.13337569 -0.1443623 0.050780486 0.057699107 -0.09336577 -0.15225255
-0.16505076 0.0738891 0.32481685 0.10395905 -0.17528382 0.3246664 -0.033249974 -0.105872504
0.022653893 -0.1734797 -0.12648025 -0.005074637 0.032622367 -0.15633155 0.04208021 0.030696597
-0.11511946 -0.0740232 -0.0065047033 -0.18887235 0.10308567 0.12788318 -0.034401808 -0.05549942
0.06524967 -0.007348476 0.10657496 0.20022038 -0.14877081 -0.030639242 0.016170155 0.063050985
-0.066342734 -0.07603341 -0.24809301 -0.26693103 -0.023289185 -0.08503869 0.051335063 0.18949305
0.075090334 0.04981789 -0.018718926 0.34840038 0.0204597 0.22133243 0.1179442 -0.27293858
-0.31039348 -0.01930364 -0.1868989 -0.07519891 0.17660773 0.09051485 0.12635252 0.17335445
00000000: 1fa2 8d3c 2918 0dbc e6cb ad3d 7f96 9ebd
00000010: 4ecd 873d 24fe 3dbd d875 7f3d 127f 79bc
00000020: f417 603e 2e8f 0abe 938c 83be 0274 5a3e
00000030: 9512 e5bd bf8d debc 65a6 ffbb 9995 0e3d
00000040: 9ddf 7ebe 7140 033e 3f24 413d cc19 cbbd
00000050: 6444 b53e 7244 4bbe dfa1 7cbe 193d 453e
00000060: 613f b1be 3762 17be ad31 c1bd b797 34be
00000070: 15e3 ddbd 99ce 8abc a685 fdbd 055e 433e
00000080: e4c2 993d 5f4f 283d e4ea 843e 8c32 c23e
00000090: cc0d 283e c232 45be 3a44 84bd e01d eabd
000000a0: 7bf7 0ebe 4cb5 673d e6ee 4b3e e8c9 0c3e
000000b0: 158b 69be 960c b93b 3721 a43d 2a39 4d3d
000000c0: 1e1d 19be 0cae 1ebe 6206 0abd 3d03 fabb
000000d0: b7ff 073e 5664 8e3d fb66 b9bd 5674 edbd
000000e0: e965 b83e 81fd afbe 503d ab3e bf63 533d
000000f0: e392 17bc 8af7 813c 31a9 25be 7b0e b63d
00000100: 1977 09bd 0ac9 f73d c3e5 cbbd d737 c4bd
00000110: c863 c9bd 71fb 3abe e4b7 8839 221b 82bd
00000120: 0ab2 d4bc 09ac 8e3d fdd5 0cbe db38 8d3e
00000130: faac 73be e69a 9cbe 1164 ad3d c9e2 1dbd
00000140: 00e8 44be dc14 f7bc 0c01 c6bd bc28 0cbe
00000150: eb39 c1bb 4953 003c b8b1 82bd e18a cdbd
00000160: 45a2 acbc 4fad f83d 71fe 4abe 4630 20be
00000170: 9744 adbd d4f1 cebc 2616 ff3c c8ee 813d
00000180: d573 c73d d8b1 10be 33e3 73bd 8bd7 dbbd
00000190: a6e9 b9bd 2864 c6bd 7925 3bbe 8295 2dbe
000001a0: 2539 8d3c 79b1 50bd 9455 9fbd 70a4 623e
000001b0: 18c8 6e3d cbd4 00be 4cf6 fabd 55da 203d
000001c0: 21c2 dd3d 10a4 ae3d eb1e af3c 11f0 ba3a
000001d0: 4c27 b13c faa8 c2bc c073 143d 385a ef39
000001e0: fb2b 603e b098 1a3d 55c9 953d b2e4 5abe
000001f0: 5537 dfbd 6dca 5dbc 6369 ee3c 76b3 f9bd
00000200: d268 0f3e fb45 2bbe d5d5 72bd a387 60bd
00000210: 205f c2bd 7ea8 46bd f313 ca3d 0017 65be
00000220: 777c b83e 29ab 643d fc77 ddbc e564 6e3d
00000230: 9246 7dbd 6bf9 be3c 1a89 473d 78b6 41be
00000240: 0c4b 88be 87ed 603d 4d30 f13d 71c5 13bd
00000250: 7823 ecbd 2f07 383e 9fb8 63bd 859b 85be
00000260: 255d 7bbd e133 f2bd 9acb 403c b0ef 25be
00000270: dc57 b9bd 24f7 64bd e1a2 78be 84dc 56be
00000280: a3f8 63be 32c3 d5bd 00f6 14be 47d2 b53c
00000290: ae37 b03d a84e 4fbe 4e04 b6bd f6b5 3fbe
000002a0: 5637 d0bd 2f75 85bd e530 f73c c7ed 48be
000002b0: 7f8c b43d 85e5 dbbd 2b3d 7fb9 f064 67be
000002c0: 5c23 8bbe c8a0 8b3d 9be8 93bd f76c adbd
000002d0: cc4a 26be 9a81 19be 28cb d93d ac62 d3bd
000002e0: a05d 36bd 9a61 80bd 1682 67be 8cd2 b93d
000002f0: 0942 8dbd 90b6 f33b c024 813d 71c9 33bd
00000300: 9cb4 a8bc 8905 b83d a393 08be b6d3 13be
00000310: 33ff 4f3d e655 6c3d 8e36 bfbd 18e8 1bbe
00000320: 1103 29be 2b53 973d 654e a63e 7be8 d43d
00000330: 9a7d 33be ad3a a63e 2031 08bd afd3 d8bd
00000340: a894 b93c aaa4 31be 0a84 01be 2449 a6bb
00000350: 089f 053d 6115 20be 4c5c 2c3d 6e77 fb3c
00000360: c0c3 ebbd 7a99 97bd 6825 d5bb c167 41be
00000370: 941e d33d cff3 023e e9e8 0cbd 5c53 63bd
00000380: 9ea1 853d 7ccb f0bb f943 da3d 9206 4d3e
00000390: 6057 18be 26ff fabc 4677 843c e020 813d
000003a0: b3de 87bd 68b7 9bbd 180c 7ebe 2fab 88be
000003b0: f6c8 bebc c428 aebd b744 523d 770a 423e
000003c0: f6c8 993d d80d 4c3d 6f58 99bc 8961 b23e
000003d0: 1a9b a73c f8a4 623e bb8c f13d 9bbe 8bbe
000003e0: e5eb 9ebe ab22 9ebc 6d62 3fbe e301 9abd
000003f0: a8d8 343e da5f b93d 8e62 013e d483 313e

layer1.0.bn1.weight f4 [16]
0.7190805 0.70615834 0.8529964 0.78629076 0.57474095 1.0209689 0.9901105 0.8748627
0.71043956 0.79155624 0.659575 0.80399567 0.60007507 1.0056423 0.64950544 0.9229149
00000000: a915 383f cbc6 343f f95d 5a3f 5a4a 493f
00000010: 3922 133f 1caf 823f e277 7d3f 00f7 5f3f
00000020: 5edf 353f 6ea3 4a3f e8d9 283f a9d2 4d3f
00000030: 859e 193f e3b8 803f fd45 263f 2744 6c3f

layer1.0.bn1.bias f4 [16]
0.19760312 0.08615257 0.23880287 -0.126101 0.06149223 0.3208104 0.43753955 -0.27862018
0.1467131 -0.16395926 -0.1297104 0.4029254 0.23919682 0.5321728 0.020935657 -0.55668604
00000000: 7958 4a3e c270 b03d bd88 743e 9f20 01be
00000010: 47df 7b3d 4341 a43e 2f05 e03e 4ea7 8ebe
00000020: f53b 163e f0e4 27be ced2 04be 3d4c ce3e
00000030: 03f0 743e 7a3c 083f 4181 ab3c fa82 0ebf

layer1.0.bn1.running_mean f4 [16]
-1.2294205 -1.4559308 -1.19836 -0.036559004 1.4382223 -1.2574351 -1.3010863 0.9665833
-0.5761076 -0.53548306 0.61433756 -1.0512433 -0.7429754 -0.7894116 0.2641542 0.21917625
00000000: a75d 9dbf f15b babf dc63 99bf e5be 15bd
00000010: ab17 b83f a2f3 a0bf ff89 a6bf 0172 773f
00000020: ca7b 13bf 6b15 09bf 3a45 1d3f 248f 86bf
00000030: a333 3ebf e116 4abf 383f 873e bd6f 603e

layer1.0.bn1.running_var f4 [16]
1.5319365 0.79651934 1.6705236 1.3609389 0.892466 1.4461378 1.9883398 0.9707825
0.9842614 0.99243855 0.9175586 1.527556 0.924262 0.94812274 1.0115176 1.0309592
00000000: 7f16 c43f b1e8 4b3f b8d3 d53f 3f33 ae3f
00000010: a778 643f 0b1b b93f eb81 fe3f 3485 783f
00000020: 8ef8 7b3f 7410 7e3f 1fe5 6a3f f486 c33f
00000030: 6f9c 6c3f 2cb8 723f 6979 813f 79f6 833f

layer1.0.conv2.weight f4 [16, 16, 3, 3]
-0.018714849 0.1674731 0.11997395 -0.1335763 -0.04170251 -0.034818977 -0.21955733 -0.16025448
-0.053912297 -0.07181441 -0.07720367 -0.026462749 0.279013 0.1213144 0.15595542 0.029521063
0.1196878 0.023998227 0.3574513 -0.19510676 -0.1326622 0.19276863 -0.13219811 0.023650117
0.068124525 -0.079589225 -0.30419892 0.11473149 0.016909363 -0.04078511 -0.40130937 -0.14956334
-0.06705134 -0.18575698 -0.03338969 0.15117295 -0.2634001 -0.05708281 0.15459344 -0.13191837
0.050011143 0.03104382 -0.023048198 0.25511318 -0.050446674 0.18543299 -0.13264683 -0.040844508
-0.048417922 0.07775386 0.090795934 0.13506466 -0.0011183501 -0.19549917 0.17011455 0.2495248
-0.039309353 -0.11207368 -0.124248244 -0.16033301 -0.13958362 0.06737768 -0.2954762 -0.0145174125
-0.20390339 0.05276947 0.14971851 0.03699476 -0.08843245 0.14412165 0.100025654 -0.0598005
0.20751739 -0.23207374 -0.100528434 0.24178883 -0.2865013 0.051011555 -0.35587755 -0.15153264
0.1970471 -0.084925905 0.040970508 0.016126154 0.1353393 0.34246305 0.11071291 0.16158971
0.21255235 -0.2997777 0.075082846 -0.13465376 -0.0049023726 0.050765023 0.035699453 0.15753116
0.039100308 0.07767982 0.05730692 -0.09573838 0.13259703 -0.05694119 0.22513795 -0.14917375
-0.22215016 0.0050407527 -0.06953715 0.108143464 -0.11622412 -0.23417373 0.0025584674 -0.02295699
-0.11038785 0.03260229 0.109777816 0.22299783 0.4253052 -0.08096648 0.075517066 0.0821219
0.020828707 -0.3037399 -0.112653404 -0.08740042 -0.043750696 0.11280917 0.101026 -0.102922626
-0.00595916 -0.114072 0.14405625 0.27936697 -0.17937317 0.050200287 0.039596446 0.06892454
0.20937213 0.30075857 -0.07293064 -0.07267151 0.14269267 -0.09151054 0.06853006 0.12560786
0.18187955 -0.007610628 -0.16086937 -0.009613746 -0.29981205 -0.20571104 -0.11482698 -0.24574393
-0.15068816 -0.2505634 -0.19831553 -0.16019043 -0.07720583 0.07267111 -0.092271276 0.36753884
0.23853251 0.118541494 -0.35072362 0.1611344 0.5258071 -0.22647941 0.00093987025 0.18295522
-0.07646381 -0.30598933 -0.080131166 -0.17618325 -0.04045105 -0.17117217 0.17213129 -0.058975767
-0.17074566 0.05909979 -0.08225846 0.06252919 -0.005843549 -0.11154162 0.032453153 -0.09349225
-0.030923625 -0.06383202 0.09833461 0.19476071 0.12396295 -0.18012951 0.13852185 0.14161241
-0.13574317 0.024214748 0.0774189 0.0052655437 0.0010164233 0.002421609 0.09899254 0.104219325
-0.06478201 0.18063499 0.18451938 0.0629393 0.17008483 0.3067416 0.27455822 0.11787419
0.13775806 0.07471644 0.015049508 0.16814685 0.15093224 -0.02153648 0.03091317 -0.09453611
0.1586656 0.012804014 -0.18683094 0.22472937 0.14341885 -0.21132 0.21048056 0.07116707
-0.096135505 0.03530964 -0.050825525 -0.1905582 0.12211702 -0.119527474 -0.09206241 0.13432169
0.09273254 -0.13075332 -0.11238636 -0.09599076 -0.10811053 0.050950848 -0.025857799 -0.1404702
-0.15733948 -0.013415725 -0.087593906 0.061952345 0.19829974 -0.06165742 0.07749774 -0.15936692
-0.27176395 -0.117070235 -0.25914863 -0.10170755 -0.014986825 0.04370201 0.0026630133 0.014152202
00000000: e24f 99bc 117e 2b3e e7b4 f53d 3ac8 08be
00000010: 40d0 2abd 589e 0ebd a3d3 60be c019 24be
00000020: 24d3 5cbd 6f13 93bd f51c 9ebd 68c8 d8bc
00000030: cbda 8e3e af73 f83d c7b2 1f3e 28d6 f13c
00000040: e11e f53d ee97 c43c db03 b73e 11ca 47be
00000050: 9ad8 07be 2465 453e f15e 07be e4bd c13c
00000060: df84 8b3d adff a2bd f6bf 9bbe 58f8 ea3d
00000070: 8185 8a3c 4a0e 27bd 6c78 cdbe 2227 19be
00000080: 3752 89bd 1437 3ebe a1c3 08bd 15cd 1a3e
00000090: 61dc 86be aacf 69bd be4d 1e3e 9c15 07be
000000a0: 7cd8 4c3d 9c4f fe3c 93cf bcbc 329e 823e
000000b0: 2ca1 4ebd 25e2 3d3e 92d4 07be 924c 27bd
000000c0: df51 46bd 6a3d 9f3d 38f3 b93d 644e 0a3e
000000d0: 9a95 92ba ef30 48be 8232 2e3e 6e83 7f3e
000000e0: d802 21bd e386 e5bd dd75 febd 562e 24be
000000f0: 02ef 0ebe 4ffd 893d a848 97be 71da 6dbc
00000100: 0dcc 50be cd24 583d cf4f 193e d187 173d
00000110: 131c b5bd a094 133e 40da cc3d 5ef1 74bd
00000120: 707f 543e bda4 6dbe dae1 cdbd 7e97 773e
00000130: 4cb0 92be 7ef1 503d 9535 b6be 5f2b 1bbe
00000140: b7c6 493e a2ed adbd b1d0 273d ff1a 843c
00000150: 6396 0a3e 5157 af3e 73bd e23d c677 253e
00000160: 53a7 593e 767c 99be 09c5 993d ade2 09be
00000170: 15a4 a0bb fcee 4f3d 9739 123d d94f 213e
00000180: a527 203d 9916 9f3d a9ba 6a3d 7c12 c4bd
00000190: 84c7 073e 2a3b 69bd 908a 663e 01c1 18be
000001a0: 557b 63be e62c a53b 7e69 8ebd 527a dd3d
000001b0: e906 eebd 3dcb 6fbe f6ab 273b 4c10 bcbc
000001c0: 0613 e2bd fb89 053d 31d3 e03d 8b59 643e
000001d0: 9ac1 d93e c1d1 a5bd b1a8 9a3d 872f a83d
000001e0: f7a0 aa3c cc83 9bbe d4b6 e6bd fefe b2bd
000001f0: ee33 33bd 7e08 e73d b8e6 ce3d 19c9 d2bd
00000200: 0f45 c3bb 959e e9bd 7b83 133e 3009 8f3e
00000210: 9aad 37be d19e 4d3d e22f 223d 4f28 8d3d
00000220: a665 563e 07fd 993e a95c 95bd cdd4 94bd
00000230: 071e 123e e169 bbbd 7d59 8c3d 599f 003e
00000240: a23e 3a3e 9362 f9bb f1ba 24be f982 1dbc
00000250: f780 99be eaa5 52be 682a ebbd 4ca4 7bbe
00000260: ff4d 1abe d949 80be 3a13 4bbe f608 24be
00000270: 171e 9ebd 97d4 943d b9f8 bcbd 0d2e bc3e
00000280: de41 743e e2c5 f23d 0c92 b3be 6b00 253e
00000290: 4b9b 063f 38ea 67be a061 763a 9d58 3b3e
000002a0: 0f99 9cbd a2aa 9cbe cf1b a4bd 6269 34be
000002b0: 00b0 25bd c247 2fbe 2f43 303e 9390 71bd
000002c0: f3d7 2ebe 9f12 723d 2077 a8bd 4e0f 803d
000002d0: 3e7b bfbb ef6f e4bd 99ed 043d dd78 bfbd
000002e0: 8b53 fdbc 5dba 82bd a863 c93d 5a6f 473e
000002f0: 4ae0 fd3d df73 38be acd8 0d3e d802 113e
00000300: 4200 0bbe 025e c63c cd8d 9e3d 958a ac3b
00000310: 8239 853a dbb3 1e3b 9abc ca3d f170 d53d
00000320: 6eac 84bd 61f8 383e a6f2 3c3e 52e6 803d
00000330: b82a 2e3e 3c0d 9d3e e592 8c3e 0668 f13d
00000340: 7310 0d3e ef04 993d 3692 763c b02e 2c3e
00000350: fb8d 1a3e 466d b0bc 9e3d fd3c 269c c1bd
00000360: 3c79 223e edc7 513c 9c50 3fbe 751f 663e
00000370: 64dc 123e 4564 58be 3788 573e 0ac0 913d
00000380: b1e2 c4bd d7a0 103d 6d2e 50bd b021 43be
00000390: 7d18 fa3d d2ca f4bd 388b bcbd a08b 093e
000003a0: 8fea bd3d 33e4 05be d22a e6bd ce96 c4bd
000003b0: 0e69 ddbd d6b1 503d bcd3 d3bc 6cd7 0fbe
000003c0: 9a1d 21be a1cd 5bbc 6f64 b3bd bec1 7d3d
000003d0: 160f 4b3e 7e8c 7cbd 23b7 9e3d 1531 23be
000003e0: a524 8bbe 85c2 efbd 21af 84be 0c4c d0bd
000003f0: 4d8b 75bc e100 333d f385 2e3b a3de 673c

layer1.0.bn2.weight f4 [16]
0.8529311 0.9113627 0.7172847 1.0503385 1.2815325 0.8736615 0.8190821 1.1880575
0.7114525 1.0912226 0.75936645 1.2338772 0.62494975 0.67481375 0.62172776 0.9565203
00000000: b159 5a3f 114f 693f f89f 373f 7e71 863f
00000010: 4209 a43f 48a8 5f3f 5daf 513f 4512 983f
00000020: c021 363f 2fad 8b3f d765 423f b0ef 9d3f
00000030: b5fc 1f3f 98c0 2c3f 8d29 1f3f 84de 743f

layer1.0.bn2.bias f4 [16]
0.29169577 -0.29769763 -0.21749139 0.25081816 0.316578 0.25678417 0.066856936 0.013567372
0.25239354 0.057252657 -0.07879869 -0.10042679 0.22369826 0.22194879 0.40060455 -0.083340935
00000000: 2659 953e d36b 98be 10b6 5ebe 3d6b 803e
00000010: 8316 a23e 3779 833e 4aec 883d af49 5e3c
00000020: ba39 813e c381 6a3d 3561 a1bd 90ac cdbd
00000030: 2811 653e 8b46 633e 0a1c cd3e a7ae aabd

layer1.0.bn2.running_mean f4 [16]
-0.36904278 0.24030523 0.97954935 -0.48950788 -0.7211869 -1.1279193 -0.049192626 0.13350457
-1.557921 -0.25456855 -0.31379 -0.53969944 -0.6478655 0.62321717 -1.0394691 -0.7960952
00000000: 2df3 bcbe 9312 763e bfc3 7a3f c7a0 fabe
00000010: b49f 38bf a95f 90bf 357e 49bd 6cb5 083e
00000020: f569 c7bf cf56 82be 15a9 a0be be29 0abf
00000030: 83da 25bf 298b 1f3f 530d 85bf e5cc 4bbf

layer1.0.bn2.running_var f4 [16]
0.8694847 0.7870151 0.83711225 1.5222714 2.223023 1.2410847 1.1724335 1.6834136
1.1919956 1.1025952 1.500746 1.4023134 0.7741119 1.2349682 0.8191004 1.4743654
00000000: 8d96 5e3f d279 493f fd4c 563f cad9 c23f
00000010: 0246 0e40 dddb 9e3f 4d12 963f 197a d73f
00000020: 5093 983f d721 8d3f 7218 c03f 017f b33f
00000030: 332c 463f 7013 9e3f 90b0 513f 01b8 bc3f

layer1.1.conv1.weight f4 [16, 16, 3, 3]
-0.34687218 -0.32884234 -0.25196448 -0.15918304 -0.08047561 0.05479398 0.044612598 0.3377613
0.43538287 -0.16570011 -0.21983866 0.08834462 -0.18609257 0.120469004 0.25157088 0.025894338
0.17119838 0.048644826 -0.15486892 0.1563394 -0.09802941 -0.23721191 0.05622924 0.06668711
-0.18637463 0.18212011 0.09334199 -0.031768855 -0.15706962 0.04680553 0.10043639 0.1952975
0.10447913 -0.055187438 -0.06058192 -0.3442683 -0.2627586 -0.10564784 -0.0028025794 0.031115664
0.10449672 0.013962183 0.22743265 0.24245343 0.17301741 -0.14946678 -0.15057074 -0.09034271
-0.1507188 -0.12484181 -0.1443597 -0.11551988 0.08317538 -0.099618755 -0.14037661 -0.069897436
-0.13600498 -0.11568008 -0.10167165 0.076252304 -0.074767075 -0.038392108 0.18094952 -0.061886344
-0.01096846 0.05430562 -0.07120932 -0.14011362 0.0491827 -0.050841644 0.05813184 0.11925777
0.12901372 -0.14259245 0.10804002 0.007756036 -0.14568146 -0.21371764 -0.07930124 -0.07002668
-0.22082037 0.098236345 0.13006033 0.06537651 0.06031792 0.048424438 -0.27679887 -0.065816306
-0.2803521 -0.2775047 0.104005985 0.05921445 -0.018337565 0.20934209 0.10894587 0.044755902
-0.057861723 -0.2700526 -0.3244229 0.007390573 -0.043775298 0.082234465 0.18415089 0.24058382
-0.095210366 0.016709149 -0.015287451 0.056404583 0.018647814 -0.02091426 -0.06791884 -0.034766614
-0.013133352 0.014273519 -0.13082188 0.1663528 0.17728733 0.2281782 0.09946058 -0.1560679
0.0026474474 -0.103726864 -0.12303247 -0.18070067 -0.09362208 -0.03396446 0.21640426 0.1219569
0.20247154 0.23870285 0.19663669 -0.017828915 -0.13655943 -0.13998908 -0.2348017 -0.10264876
-0.0014973786 -0.07786541 0.06865989 0.059602432 -0.029735295 -0.027953219 0.025786681 0.058977615
0.2372694 0.13970567 0.017885813 0.32145578 -0.14628738 -0.66265017 0.10878516 -0.25704485
0.024788171 0.043427713 0.1178515 0.119043685 0.038087342 0.15679993 -0.03919182 -0.15780436
-0.16641301 0.114417985 -0.004789821 0.077699184 -0.12779158 -0.17410807 -0.065887555 -0.06502197
-0.25443077 0.09377189 0.098569684 -0.110569954 -0.2250485 -0.1095971 -0.018708054 -0.1141724
0.06817474 0.04324084 -0.15838782 0.088821486 -0.016686715 0.08664746 -0.05259482 0.2211811
0.32833266 -0.4547055 -0.3368131 -0.4254443 -0.15974247 0.15530673 -0.028595539 0.024671577
-0.23723105 -0.18686661 0.02978293 -0.19779722 -0.043944187 -0.07379874 -0.1799501 0.18384795
0.030360272 -0.095543824 -0.13106993 -0.002240711 -0.16385363 -0.03760377 0.062544994 -0.023569982
0.06628023 0.071088195 0.042645834 -0.20193687 0.03492373 0.25583538 0.049878407 -0.017608644
-0.028738886 0.010645921 0.043012388 0.02094744 0.31867844 0.2101359 0.014367456 0.4859038
0.15078932 0.050652392 0.21712036 -0.2367432 0.113735266 0.051338702 -0.30891907 -0.1000985
0.048001762 -0.1365416 -0.15963379 0.092129715 0.20193852 -0.3573963 0.22210039 0.20070168
-0.081645355 0.021448653 -0.18171576 0.116720796 -0.2685932 -0.09992186 -0.15490362 -0.2615335
0.026880419 -0.1487516 -0.016281525 0.13864742 -0.036714073 0.09601774 0.0059806304 0.02141962
00000000: 3b99 b1be 065e a8be 7d01 81be e100 23be
00000010: 66d0 a4bd a76f 603d b3bb 363d 0def ac3e
00000020: 81ea de3e 4aad 29be 631d 61be 06ee b43d
00000030: 0d8f 3ebe 74b8 f63d e6cd 803e 5d20 d43c
00000040: a14e 2f3e cc3f 473d f595 1ebe 7017 203e
00000050: a5c3 c8bd aee7 72be a250 663d 4093 883d
00000060: fed8 3ebe b27d 3a3e 162a bf3d 0f20 02bd
00000070: dcd6 20be 28b7 3f3d 98b1 cd3d 11fc 473e
00000080: 27f9 d53d 390c 62bd bf24 78bd ef43 b0be
00000090: 4c88 86be e55d d8bd 7bab 37bb 47e6 fe3c
000000a0: 6002 d63d a4c1 643c 1be4 683e b645 783e
000000b0: 7a2b 313e d20d 19be 372f 1abe 9905 b9bd
000000c0: 0756 1abe 10ad ffbd 07d3 13be b095 ecbd
000000d0: db57 aa3d eb04 ccbd e3be 0fbe 6326 8fbd
000000e0: e444 0bbe aee9 ecbd 3a39 d0bd 2b2a 9c3d
000000f0: 7b1f 99bd 0b41 1dbd d54a 393e 897c 7dbd
00000100: 0eb5 33bc 926f 5e3d 31d6 91bd f279 0fbe
00000110: cd73 493d 543f 50bd a71b 6e3d 6b3d f43d
00000120: 2c1c 043e c103 12be 1644 dd3d 5826 fe3b
00000130: 852d 15be ccd8 5abe b068 a2bd 266a 8fbd
00000140: bc1e 62be 2330 c93d 892e 053e 1fe4 853d
00000150: ec0f 773d b458 463d 95b8 8dbe b3ca 86bd
00000160: 4f8a 8fbe 1915 8ebe 1701 d53d da8a 723d
00000170: a938 96bc c65d 563e 031f df3d f751 373d
00000180: 6a00 6dbd 5644 8abe c21a a6be 9f2c f23b
00000190: ba4d 33bd 8b6a a83d 0d92 3c3e 9b5b 763e
000001a0: a7fd c2bd a0e1 883c 3878 7abc 7e08 673d
000001b0: 4dc3 983c 6254 abbc 0819 8bbd 7067 0ebd
000001c0: 452d 57bc 7adb 693c 2cf6 05be 6358 2a3e
000001d0: cf8a 353e 8ca7 693e fdb1 cb3d 43d0 1fbe
000001e0: cc80 2d3b c06e d4bd 73f8 fbbd 9909 39be
000001f0: efbc bfbd 511e 0bbd 1499 5d3e 8ac4 f93d
00000200: b354 4f3e 856e 743e 215b 493e f20d 92bc
00000210: 3cd6 0bbe 4c59 0fbe db6f 70be 8339 d2bd
00000220: b043 c4ba e677 9fbd 8e9d 8c3d ae21 743d
00000230: 6f97 f3bc 26fe e4bc 973e d33c 8392 713d
00000240: c0f6 723e 010f 0f3e 4585 923c da95 a43e
00000250: 5ccc 15be 71a3 29bf c1ca de3d 629b 83be
00000260: 9010 cb3c 42e1 313d 215c f13d 2dcd f33d
00000270: 7901 1c3d 2990 203e 9a87 20bd 7797 21be
00000280: 2c68 2abe fa53 ea3d eef3 9cbb c020 9f3d
00000290: ccdb 02be 6349 32be 0ef0 86bd 3d2a 85bd
000002a0: c044 82be 7a0b c03d e7de c93d 8072 e2bd
000002b0: 1d73 66be 7274 e0bd a241 99bc 38d3 e9bd
000002c0: 339f 8b3d 4f1d 313d 6b30 22be 0ae8 b53d
000002d0: 94b2 88bc 3974 b13d aa6d 57bd 4c7d 623e
000002e0: 381b a83e 29cf e8be c472 acbe d6d3 d9be
000002f0: 8893 23be ba08 1f3e 3141 eabc 0c1c ca3c
00000300: b2ec 72be f659 3fbe 55fb f33c 5b8b 4abe
00000310: d2fe 33bd cb23 97bd d744 38be a342 3c3e
00000320: 1bb6 f83c 7bac c3bd 3237 06be e4d8 12bb
00000330: 3fc9 27be 6906 1abd 9717 803d d615 c1bc
00000340: eebd 873d b096 913d 66ad 2e3d 8ac8 4ebe
00000350: 2f0c 0f3d dbfc 823e 4d4d 4c3d 0140 90bc
00000360: d06d ebbc 3b6c 2e3c c22d 303d f799 ab3c
00000370: d229 a33e de2d 573e 7a65 6b3c 62c8 f83e
00000380: 8468 1a3e e278 4f3d cd54 5e3e cf6c 72be
00000390: 09ee e83d 8848 523d a42a 9ebe 7100 cdbd
000003a0: 7f9d 443d 90d1 0bbe 0a77 23be 81ae bc3d
000003b0: f9c8 4e3e a6fc b6be 496e 633e be84 4d3e
000003c0: ae35 a7bd 16b5 af3c b213 3abe 500b ef3d
000003d0: 0c85 89be d5a3 ccbd 0e9f 1ebe b8e7 85be
000003e0: 5334 dc3c 5752 18be d560 85bc 97f9 0d3e
000003f0: 7f61 16bd f3a4 c43d 2af9 c33b 3378 af3c

layer1.1.bn1.weight f4 [16]
0.7611165 0.89952713 0.8345787 0.8295545 1.0003705 0.8245056 0.845074 0.6935978
1.0860578 0.783098 0.9906622 0.8362109 0.7644155 0.5997327 0.80410796 0.8177663
00000000: 88d8 423f 6947 663f f3a6 553f af5d 543f
00000010: 240c 803f cd12 533f c556 583f a08f 313f
00000020: f103 8b3f 1c79 483f 0a9c 7d3f eb11 563f
00000030: bcb0 433f 1588 193f 05da 4d3f 2259 513f

layer1.1.bn1.bias f4 [16]
-0.23330119 -0.10033663 -0.2897893 -0.10571872 -0.16490565 -0.17048144 -0.13204488 0.073309936
-0.20694205 -0.26876232 -0.11059293 -0.123810224 -0.11515043 -0.20727213 -0.081768714 -0.13121225
00000000: 82e6 6ebe 4b7d cdbd 435f 94be 0e83 d8bd
00000010: 07dd 28be b092 2ebe c636 07be 8523 963d
00000020: 9ee8 53be 379b 89be 8c7e e2bd 3790 fdbd
00000030: fdd3 ebbd 253f 54be 5b76 a7bd 815c 06be

layer1.1.bn1.running_mean f4 [16]
-1.1289625 -1.195288 -1.530585 -1.421008 0.24818745 -0.7290253 0.28669485 -1.7500312
-0.8623636 -0.034797452 -0.21825184 -2.8619416 -0.4715354 0.5454525 -1.3824011 -0.8080088
00000000: d881 90bf 32ff 98bf 36ea c3bf 97e3 b5bf
00000010: da24 7e3e 67a1 3abf abc9 923e 0601 e0bf
00000020: dcc3 5cbf c687 0ebd 697d 5fbe 0d2a 37c0
00000030: 176d f1be c6a2 0b3f 85f2 b0bf aad9 4ebf

layer1.1.bn1.running_var f4 [16]
2.3533316 8.867385 3.52432 4.299749 5.742417 5.848609 7.1557374 2.1924763
11.018943 1.8202405 7.804422 4.971611 4.3378773 1.7462056 4.423087 3.8803318
00000000: fc9c 1640 cfe0 0d41 758e 6140 8b97 8940
00000010: e1c1 b740 ce27 bb40 cdfb e440 8851 0c40
00000020: 974d 3041 a4fd e83f d3bd f940 7017 9f40
00000030: e4cf 8a40 aa83 df3f ee89 8d40 5b57 7840

layer1.1.conv2.weight f4 [16, 16, 3, 3]
-0.110421754 0.024146803 0.013356963 0.06390943 0.24649002 0.01801739 0.10367961 0.116355814
0.05443566 -0.15508729 -0.15938735 -0.12615283 0.0037287793 0.09396975 -0.20880981 -0.25723702
-0.17345637 0.038622923 -0.0014049488 0.009973389 -0.19099423 -0.20768817 -0.26297888 -0.116107814
-0.14534496 0.016866265 0.054426923 0.079333216 0.09287823 0.043241907 0.09834073 0.040201604
0.25704992 0.12519671 0.06606119 0.015649114 0.007761971 -0.16031529 -0.03858285 0.011710313
-0.08480381 -0.08035854 -0.16686171 -0.051446326 0.013576518 0.08624421 -0.12942748 -0.0691972
0.08047706 -0.060252033 -0.0500274 0.028711177 -0.10534816 -0.020960901 -0.041751828 -0.17631552
-0.048272695 0.0061898534 0.01104585 0.0147324065 -0.16215922 -0.14119573 -0.062055957 0.3028501
0.02993508 -0.06357796 0.13860701 -0.060586713 0.059909314 0.16359155 0.10932169 0.119085625
0.045386747 -0.25339898 -0.2463204 -0.038831867 -0.18006334 -0.27802268 -0.11099566 -0.17947775
-0.14592908 -0.042913143 0.11972476 -0.14392981 0.08169246 0.18856975 0.19707726 -0.09725556
0.093174785 -0.043144587 0.007027591 0.01066879 -0.16068923 0.07456391 -0.02424294 -0.12276937
0.19085528 -0.15417871 -0.2290162 0.15154468 -0.06500123 0.09762836 0.108955994 0.0030195431
0.028928043 -0.18962249 -0.1139826 -0.16728587 0.025293102 -0.13648914 -0.0036071313 0.016542617
0.14500755 -0.13111535 -0.044820327 -0.12827595 -0.0943772 -0.044181533 -0.041348796 -0.1577763
0.11886473 -0.013623092 -0.034707338 0.02803515 -0.045614064 -0.105284825 -0.13527636 -0.1279259
-0.08122382 -0.1958048 0.010289281 -0.074399486 -0.03386847 -0.08580721 -0.23396416 0.07147779
0.08295585 0.058059365 -0.014831518 0.12745123 0.12063899 -0.14631924 0.022759873 -0.1698554
0.09968309 -0.10158232 -0.0681493 -0.064823866 -0.061797787 -0.08237495 -0.043238502 0.00628114
0.0069956826 0.16997139 0.038948175 0.15775305 0.12750682 -0.17948571 0.022344084 0.02801525
0.06410413 0.033072896 0.00017213965 -0.0063230623 0.053764295 0.051335968 0.06653624 0.068927675
0.09683182 -0.057091977 0.06383187 0.15347624 -0.0014703074 0.035269685 -0.1308741 -0.100990616
-0.15189745 -0.05352213 -0.24306552 -0.11672338 0.22041352 -0.0044570314 0.023308566 0.12772086
-0.05375428 -0.15778041 -0.04168681 -0.102024205 0.02076178 -0.022818916 0.083250284 -0.09546003
0.1188368 0.2656916 0.36467183 0.107244596 0.11582059 0.035226725 -0.050063178 -0.18848453
0.041600123 0.06486075 -0.122685306 -0.13757253 -0.18637764 0.076524 0.016282842 -0.05664754
0.013616004 0.121924184 -0.036377024 -0.22207345 0.02284624 -0.012325982 -0.082510486 -0.032870073
-0.023255432 -0.03186947 0.19229922 0.0412364 -0.026217144 0.017302508 -0.09229503 -0.04954061
-0.14679147 -0.093832955 -0.12786661 -0.23290221 -0.22335276 -0.07272078 -0.2084717 -0.13188565
-0.11987577 -0.12245282 -0.13045776 -0.08384105 0.003231257 -0.034152698 -0.18550788 0.017037598
0.004097619 0.02129228 0.065340735 -0.089869246 0.026379224 0.050278846 -0.114005744 0.049898844
-0.043505535 -0.13035564 0.12292092 0.06473207 -0.022078756 -0.0306226 0.14987163 0.12725355
00000000: cd24 e2bd 84cf c53c 2ad7 5a3c f2e2 823d
00000010: e167 7c3e 3599 933c fa55 d43d f54b ee3d
00000020: edf7 5e3d 34cf 1ebe 7036 23be 352e 01be
00000030: 895e 743b 3673 c03d 3dd2 55be 92b4 83be
00000040: 8c9e 31be 1233 1e3d 4226 b8ba 6d67 233c
00000050: fe93 43be 35ac 54be 2ba5 86be efc9 edbd
00000060: 4fd5 14be 1f2b 8a3c c4ee 5e3d 7479 a23d
00000070: f136 be3d 6d1e 313d dd66 c93d 70aa 243d
00000080: 0c9c 833e 9133 003e 174b 873d 9232 803c
00000090: 2258 fe3b b129 24be 0d09 1ebd 9ddc 3f3c
000000a0: 9fad adbd 0593 a4bd ccdd 2abe 62b9 52bd
000000b0: 0b70 5e3c cea0 b03d a388 04be 43b7 8dbd
000000c0: 28d1 a43d d6ca 76bd 88e9 4cbd b433 eb3c
000000d0: c7c0 d7bd 32b6 abbc f703 2bbd 0e8c 34be
000000e0: 97b9 45bd 41d4 ca3b a7f9 343c 3160 713c
000000f0: 110d 26be 9d95 10be 632e 7ebd 2b0f 9b3e
00000100: 6a3a f53c 2935 82bd ffee 0d3e c629 78bd
00000110: 7863 753d 8b84 273e 0de4 df3d 2ae3 f33d
00000120: 74e7 393d 83bd 81be 6a3b 7cbe 2a0e 1fbd
00000130: 8662 38be fd58 8ebe b151 e3bd 04c9 37be
00000140: 6f6e 15be b1c5 2fbd 4132 f53d 5662 13be
00000150: 604e a73d 6e18 413e 9fce 493e ec2d c7bd
00000160: 6cd2 be3d 61b8 30bd b547 e63b 26cc 2e3c
00000170: b88b 24be f7b4 983d 2199 c6bc 826e fbbd
00000180: 916f 433e 06e1 1dbe 3983 6abe 872e 1b3e
00000190: 5d1f 85bd 61f1 c73d 5224 df3d 87e3 453b
000001a0: 81fa ec3c 662c 42be b66f e9bd fd4c 2bbe
000001b0: 7b33 cf3c cfc3 0bbe 9f65 6cbb 6284 873c
000001c0: dc7c 143e 1a43 06be 8595 37bd c55a 03be
000001d0: d548 c1bd b2f7 34bd 5b5d 29bd 1c90 21be
000001e0: 5a6f f33d 6433 5fbc 4829 0ebd f9a9 e53c
000001f0: d0d5 3abd 929f d7bd e385 0abe 02ff 02be
00000200: ad58 a6bd 0e81 48be 5f94 283c c25e 98bd
00000210: aab9 0abd b1bb afbd 4d94 6fbe f362 923d
00000220: c2e4 a93d a8cf 6d3d e5ff 72bc 9382 023e
00000230: 9311 f73d b6d4 15be ea72 ba3c 93ee 2dbe
00000240: a626 cc3d 640a d0bd dc91 8bbd 60c2 84bd
00000250: ad1f 7dbd 33b4 a8bd db1a 31bd 05d2 cd3b
00000260: 0a3c e53b fb0c 2e3e 1f88 1f3d 048a 213e
00000270: 2691 023e 1acb 37be f10a b73c 3d80 e53c
00000280: 0749 833d 7277 073d 6380 3439 b131 cfbb
00000290: f337 5c3d aa45 523d 2744 883d f429 8d3d
000002a0: c34f c63d 47d9 69bd 49ba 823d e028 1d3e
000002b0: 54b7 c0ba f276 103d dc03 06be 2bd4 cebd
000002c0: 018b 1bbe 053a 5bbd 2be6 78be ab0c efbd
000002d0: 15b4 613e 4a0c 92bb 9bf1 be3c 42c9 023e
000002e0: 732d 5cbd 3091 21be cabf 2abd 11f2 d0bd
000002f0: 9c14 aa3c bcee babc 207f aa3d 8c80 c3bd
00000300: b560 f33d bb08 883e 44b6 ba3e 0ea3 db3d
00000310: 5833 ed3d e649 103d 0c0f 4dbd 1702 41be
00000320: e464 2a3d b7d5 843d 6f42 fbbd d0df 0cbe
00000330: c8d9 3ebe 9db8 9c3d 9863 853c 4007 68bd
00000340: a915 5f3c 63b3 f93d 1300 15bd 3967 63be
00000350: 0a28 bb3c eaf2 49bc 42fb a8bd c5a2 06bd
00000360: 2d82 bebc 9089 02bd 16ea 443e 80e7 283d
00000370: 56c5 d6bc fdbd 8d3c 2d05 bdbd 18eb 4abd
00000380: 8150 16be 7e2b c0bd 77ef 02be eb7d 6ebe
00000390: 96b6 64be a2ee 94bd 9b79 55be 080d 07be
000003a0: 6d81 f5bd 8bc8 fabd b896 05be dbb4 abbd
000003b0: 7fc3 533b b3e3 0bbd c7f5 3dbe 6f92 8b3c
000003c0: 5245 863b 266d ae3c 5dd1 853d 5e0d b8bd
000003d0: 3e19 d83c 31f1 4d3d d87b e9bd bb62 4c3d
000003e0: dc32 32bd f37b 05be f7bd fb3d 3f92 843d
000003f0: 82de b4bc 3fdc fabc f377 193e c14e 023e

layer1.1.bn2.weight f4 [16]
0.7967759 0.77896416 0.9303751 0.81267977 0.7538932 0.9930948 0.4692171 0.68396735
0.92395437 0.7928659 1.0471599 0.9730277 0.850264 0.5277417 0.7224722 0.91641486
00000000: 81f9 4b3f 326a 473f 102d 6e3f c80b 503f
00000010: 25ff 403f 763b 7e3f 393d f03e 7c18 2f3f
00000020: 4688 6c3f 42f9 4a3f 5609 863f 5818 793f
00000030: e7aa 593f 141a 073f f0f3 383f 2a9a 6a3f

layer1.1.bn2.bias f4 [16]
0.12668993 0.14596273 0.27435878 0.27217916 -0.39130092 0.06687761 0.08541835 0.08974051
0.22441901 -0.26428804 0.67194366 -0.11182524 0.27889222 0.23549102 0.33793664 0.21552971
00000000: 01bb 013e 4177 153e c178 8c3e 115b 8b3e
00000010: 9858 c8be 21f7 883d d1ef ae3d dfc9 b73d
00000020: 19ce 653e c350 87be 8004 2c3f a204 e5bd
00000030: f6ca 8e3e 8f24 713e 0806 ad3e d2b3 5c3e

layer1.1.bn2.running_mean f4 [16]
-0.9252174 -0.6210398 0.03240385 0.70127696 0.7049418 0.9481265 -1.0808173 0.14416689
-1.0853723 -0.0081525715 1.4328059 -0.17277034 -0.8460948 0.65871054 -0.6446362 0.06175459
00000000: 0cdb 6cbf 77fc 1ebf e6b9 043d e386 333f
00000010: 1177 343f 6bb8 723f 3958 8abf 7ca0 133e
00000020: 7bed 8abf 5d92 05bc 2f66 b73f b5ea 30be
00000030: ab99 58bf 41a1 283f e106 25bf 62f2 7c3d

layer1.1.bn2.running_var f4 [16]
0.99930525 0.8378365 0.9498129 0.9791733 0.7233507 0.8732259 0.60210717 0.57395834
0.87461764 0.48895162 1.9621764 0.75708634 0.916967 0.6138309 0.7785513 0.8205251
00000000: 78d2 7f3f 747c 563f f026 733f 1aab 7a3f
00000010: 832d 393f bc8b 5f3f b223 1a3f efee 123f
00000020: f1e6 5f3f de57 fa3e 9928 fb3f 69d0 413f
00000030: 59be 6a3f 0624 1d3f 234f 473f ef0d 523f

layer2.0.conv1.weight f4 [32, 16, 3, 3]
-0.05906451 0.004605328 -0.056838717 -0.015774727 -0.029882452 -0.039046142 0.07008417 0.05027556
-0.014044396 -0.021754313 0.12666775 0.16223675 0.035779256 0.02446444 0.18469211 0.021118913
0.14343065 0.19829106 0.061958034 -0.022387689 -0.15191288 -0.09988713 0.0018438789 -0.07377342
-0.312732 -0.14419334 -0.16179313 -0.008047685 0.05955255 -0.026444856 0.06402608 0.017174257
0.052624855 0.1374975 0.058649767 0.0015714186 0.002603721 -0.1580114 -0.10735309 -0.17335783
-0.11800162 -0.17101566 -0.26175407 -0.30854362 -0.1285093 0.08572989 -0.020335754 0.055151433
0.033973984 0.071368836 0.02463236 0.018218458 -0.016879292 -0.008868965 -0.15200771 -0.05042397
-0.18766709 -0.06560715 -0.04901021 -0.12722708 -0.0050532883 -0.11672929 0.022036744 0.14511368
0.16828583 0.036733873 0.0032592842 0.08054173 -0.047876086 -0.035445075 -0.10503961 -0.09812758
-0.13822676 -0.092891134 -0.1222611 -0.28736162 -0.21216713 0.00399145 -0.090082735 0.04310746
0.103775255 0.087415144 0.103641436 -0.11210793 0.023867624 0.01583966 -0.07790076 -0.023437293
-0.11256015 -0.027259653 -0.25934228 -0.13326311 0.105489485 -0.16989851 -0.009808776 0.03747531
0.020291692 -0.055697676 0.09185283 0.0793349 -0.02676009 -0.02063602 -0.011409663 0.028623622
-0.062628396 0.16951534 0.02794387 0.07120618 -0.004063492 0.05446119 0.023689682 0.026744196
-0.05912737 0.13494824 0.1071091 0.18327066 0.09012619 -0.041002616 0.03495697 0.013694057
-0.0018167748 -0.00959682 -0.031922217 -0.04106347 0.012055819 -0.15109758 0.10631252 -0.05008032
-0.05268114 0.009923008 -0.119475685 0.043483723 0.14320467 0.20632474 0.14935112 0.016552936
-0.033902343 -0.08038073 -0.03807747 -0.04694894 -0.08665493 -0.061345924 -0.09381888 -0.10372809
-0.0062876884 -0.11129629 -0.034502473 -0.19263142 -0.13399231 -0.05741637 -0.17244336 -0.09363228
-0.16278745 0.08510364 0.117597796 0.0029974994 0.07913952 0.06537475 -0.116323575 0.10352396
0.032469127 -0.13468695 -0.16738465 -0.025045358 -0.057013363 -0.10889634 -0.017483013 0.0019900426
0.09430417 0.022502545 -0.0459383 -0.05415788 -0.011147483 0.092731334 0.041108757 0.082359634
0.030254168 -0.0087006595 0.08186066 0.08523773 0.039893355 -0.04015976 -0.07779692 0.098621555
0.06533696 -0.06593568 -0.008674899 -0.05772844 -0.11457988 0.10949412 0.07506593 -0.024537904
0.13191016 0.031996097 -0.14269888 0.0033210549 -0.19182412 -0.07059861 -0.024488183 0.10045203
0.0027897342 0.04890236 0.047269482 -0.023268782 -0.0089136185 -0.10667488 -0.122927964 -0.13389976
-0.23127282 -0.15195304 -0.21250057 -0.26791334 -0.23647568 -0.24058777 -0.22673367 -0.16684695
-0.17415063 -0.11316586 0.042238083 -0.118961394 -0.075721934 0.11250302 -0.09547943 -0.007507006
-0.040401936 0.04027457 -0.025290808 -0.023824973 -0.021684479 0.1296387 0.09201696 -0.08662923
0.025262775 0.026065584 0.06008498 -0.16037932 0.0030000247 -0.06470864 0.027310284 -0.03534667
-0.06292336 -0.09350206 0.0194299 0.03550241 -0.122054316 -0.17624554 -0.0709273 -0.09997375
-0.17726606 -0.053258732 -0.14625655 -0.121458635 -0.15478675 0.001734261 -0.04188746 -0.066488914
00000000: a1ed 71bd 4be8 963b b7cf 68bd 003a 81bc
00000010: 0bcc f4bc d9ee 1fbd 4a88 8f3d bfed 4d3d
00000020: 771a 66bc 1a36 b2bc 31b5 013e 6421 263e
00000030: 458d 123d a669 c83c ee1f 3d3e 9201 ad3c
00000040: 7cdf 123e d00c 4b3e b5c7 7d3d 6366 b7bc
00000050: 0d8f 1bbe a091 ccbd 4fae f13a 8516 97bd
00000060: 691e a0be 6ba7 13be 19ad 25be 70da 03bc
00000070: 60ed 733d e2a2 d8bc 1b20 833d 07b1 8c3c
00000080: 298d 573d 25cc 0c3e bd3a 703d 0ff8 cd3a
00000090: 31a3 2a3b becd 21be f0db dbbd b784 31be
000000a0: d5aa f1bd bb1e 2fbe a104 86be 6ef9 9dbe
000000b0: f197 03be 2793 af3d 2b97 a6bc 78e6 613d
000000c0: 4e28 0b3d d329 923d cec9 c93c e03e 953c
000000d0: 7146 8abc 234f 11bc e9a7 1bbe 5d89 4ebd
000000e0: cd2b 40be 0b5d 86bd eebe 48bd d147 02be
000000f0: 0e96 a5bb c40f efbd 6786 b43c ae98 143e
00000100: 1f53 2c3e 4276 163d b799 553b 10f3 a43d
00000110: b719 44bd db2e 11bd 021f d7bd 1df7 c8bd
00000120: 518b 0dbe b53d bebd 0764 fabd 1021 93be
00000130: 5742 59be b6ca 823b 4c7d b8bd 7391 303d
00000140: 1f88 d43d b606 b33d f641 d43d d898 e5bd
00000150: 0986 c33c 2dc2 813c 6f8a 9fbd 91ff bfbc
00000160: f085 e6bd a34f dfbc 83c8 84be 2076 08be
00000170: df0a d83d e0f9 2dbe fdb4 20bc b67f 193d
00000180: c33a a63c 3f23 64bd 561d bc3d 567a a23d
00000190: fa37 dbbc df0c a9bc 98ef 3abc 167c ea3c
000001a0: 5143 80bd 6e95 2d3e 8bea e43c 8cd4 913d
000001b0: 0b27 85bb b212 5f3d dd10 c23c a516 db3c
000001c0: 8b2f 72bd df2f 0a3e 045c db3d 4eab 3b3e
000001d0: 1494 b83d 5cf2 27bd 0a2f 0f3d 0a5d 603c
000001e0: d920 eeba fb3b 1dbc dfc0 02bd 2b32 28bd
000001f0: c585 453c 53b9 1abe 61ba d93d 0621 4dbd
00000200: 2ec8 57bd 1d94 223c abaf f4bd fd1b 323d
00000210: 3fa4 123e cb46 533e 80ef 183e 069a 873c
00000220: 2fdd 0abd a79e a4bd 1ff7 1bbd 884d 40bd
00000230: 2478 b1bd dd45 7bbd 1d24 c0bd 656f d4bd
00000240: f408 cebb 4fef e3bd 7752 0dbd 2c41 45be
00000250: 4835 09be 6d2d 6bbd fe94 30be 48c2 bfbd
00000260: c1b1 26be d14a ae3d 1dd7 f03d b271 443b
00000270: e713 a23d 32e3 853d 0e3b eebd 5f04 d43d
00000280: 59fe 043d 60eb 09be e266 2bbe ec2b cdbc
00000290: d886 69bd 0b05 dfbd 8938 8fbc 606b 023b
000002a0: 8b22 c13d 4257 b83c cd29 3cbd a7d4 5dbd
000002b0: efa3 36bc ede9 bd3d a861 283d 2bac a83d
000002c0: 97d7 f73c 368d 0ebc 90a6 a73d 1e91 ae3d
000002d0: 3767 233d 8f7e 24bd fe53 9fbd 19fa c93d
000002e0: 62cf 853d 4909 87bd 2a21 0ebc a874 6cbd
000002f0: dba8 eabd 743e e03d 2bbc 993d b703 c9bc
00000300: 7513 073e 570e 033d a81f 12be 0ea6 593b
00000310: 8b6d 44be 0196 90bd 719b c8bc cbb9 cd3d
00000320: f9d3 363b d74d 483d a59d 413d 2c9e bebc
00000330: 6d0a 12bc 5c78 dabd a8c1 fbbd 051d 09be
00000340: c8d2 6cbe 9499 1bbe c099 59be f02b 89be
00000350: ae26 72be a45c 76be df2c 68be edd9 2abe
00000360: 8b54 32be 81c3 e7bd d701 2d3d 08a2 f3bd
00000370: 1a14 9bbd fc67 e63d b88a c3bd 55fd f5bb
00000380: 807c 25bd f3f6 243d ab2e cfbc 972c c3bc
00000390: a6a3 b1bc 02c0 043e 6373 bc3d aa6a b1bd
000003a0: e1f3 ce3c 7e87 d53c ab1b 763d 7a3a 24be
000003b0: 109c 443b f785 84bd d1b9 df3c abc7 10bd
000003c0: f6dd 80bd 027e bfbd 742b 9f3c fa6a 113d
000003d0: 9df7 f9bd b679 34be 5542 91bd 0abf ccbd
000003e0: 3c85 35be d425 5abd 47c4 15be 4ebf f8bd
000003f0: 6b80 1ebe 2550 e33a 2f92 2bbd 572b 88bd

layer2.0.bn1.weight f4 [32]
0.8683197 0.75836277 0.8788569 0.7877808 0.901097 0.81643933 0.7148734 0.7881175
0.7847026 0.863319 0.81318134 0.9427843 0.6869721 0.78384626 0.9422921 0.78059334
0.8754133 0.6982692 0.9928551 0.8264649 0.72690964 0.8676081 0.69312096 0.7633162
0.84540826 0.7547129 0.79575706 0.72696185 0.8294703 0.95073295 0.8268883 0.7308695
00000000: 334a 5e3f 1024 423f c4fc 603f 01ac 493f
00000010: 4bae 663f 2b02 513f f101 373f 12c2 493f
00000020: 45e2 483f 7902 5d3f a72c 503f 505a 713f
00000030: 67dd 2f3f 26aa 483f 0e3a 713f f7d4 473f
00000040: 161b 603f c5c1 323f c02b 7e3f 3493 533f
00000050: c016 3a3f 901b 5e3f 6070 313f b168 433f
00000060: ad6c 583f dd34 413f bcb6 4b3f 2c1a 3a3f
00000070: 2a58 543f 3c63 733f f4ae 533f 431a 3b3f

layer2.0.bn1.bias f4 [32]
-0.06752181 0.12860936 -0.06780277 0.1077446 -0.1079098 0.09585609 0.21190453 0.012601348
0.043155227 -0.017640559 -0.17905074 -0.046305645 0.01732099 -0.07759303 0.113491595 -0.06387231
-0.19002749 0.10217195 0.0043273307 0.01639432 -0.10952234 0.05455617 -0.064465396 0.061590496
-0.033845782 -0.097910546 -0.23091497 -0.03230213 -0.064152114 -0.10263121 -0.1779694 -0.14101472
00000000: e048 8abd 2cb2 033e 2edc 8abd 33a9 dc3d
00000010: d0ff dcbd 3350 c43d 80fd 583e e275 4e3c
00000020: 89c3 303d ef82 90bc 1459 37be fdaa 3dbd
00000030: c0e4 8d3c 18e9 9ebd 486e e83d 7ccf 82bd
00000040: 9196 42be 873f d13d 48cc 8d3b 624d 863c
00000050: 404d e0bd 4a76 5f3d 6f06 84bd 5146 7c3d
00000060: e0a1 0abd 5385 c8bd f974 6cbe 3d4f 04bd
00000070: 2f62 83bd 5030 d2bd 9c3d 36be 2a66 10be

layer2.0.bn1.running_mean f4 [32]
-2.307023 -6.076923 -0.9768095 -3.98811 0.4424742 -1.843318 -0.97624993 0.8361317
-3.2043412 -1.9914782 1.5375042 -2.9600382 3.1681423 1.2631443 -3.974076 3.255356
-2.1870198 -3.0541492 -2.5295513 -2.0072262 -2.328837 -0.78974783 -1.8339876 0.660281
-0.688626 -1.2592717 -0.297754 -1.7046707 -4.2435026 -0.538837 -0.7545633 -1.3366815
00000000: 44a6 13c0 2776 c2c0 3010 7abf 323d 7fc0
00000010: fa8b e23e d8f1 ebbf 84eb 79bf ba0c 563f
00000020: ed13 4dc0 c2e8 febf f0cc c43f 4471 3dc0
00000030: d8c2 4a40 b6ae a13f 4357 7ec0 c157 5040
00000040: 22f8 0bc0 2e77 43c0 2be4 21c0 6576 00c0
00000050: aa0b 15c0 ea2c 4abf 1bc0 eabf 2d08 293f
00000060: cb49 30bf d12f a1bf 3673 98be a632 dabf
00000070: c6ca 87c0 39f1 09bf 0f2b 41bf 6118 abbf

layer2.0.bn1.running_var f4 [32]
3.7245214 3.0779567 4.403206 3.3106124 3.584078 4.5028653 5.0867095 4.1009703
3.0900855 4.5764422 3.8668416 5.3390493 3.8471222 3.464845 7.855 2.7887073
3.7884994 4.1954927 6.359372 3.5930352 2.4363482 5.2466254 3.3752759 3.802569
5.3521233 2.4132907 3.1226764 4.246021 3.6906428 3.821214 4.1837225 3.5593338
00000000: 8f5e 6e40 3efd 4440 10e7 8c40 13e1 5340
00000010: 8961 6540 7917 9040 53c6 a240 263b 8340
00000020: f6c3 4540 3772 9240 557a 7740 7ed9 aa40
00000030: 4037 7640 05c0 5d40 295c fb40 2e7a 3240
00000040: c676 7240 7a41 8640 fa7f cb40 4af4 6540
00000050: 21ed 1b40 5be4 a740 8504 5840 4a5d 7340
00000060: 9844 ab40 5b73 1a40 eed9 4740 67df 8740
00000070: 7e33 6c40 c58e 7440 0ee1 8540 20cc 6340
