Result/student/resnet8_0.9_0.05_3_1paik_20_128 # 1_best.pth.tar (torch_old, 641082 bytes, 76 tensors)

conv1.weight f4 [16, 3, 3, 3]
000000 b7 77 59 3e 8d d4 8e 3e a0 19 53 3e a2 83 7c 3e
       0.21237074 0.27896538 0.20615244 0.24659589
000010 e9 e2 a8 be a3 66 9f 3e c9 3e 96 3d a3 50 73 bf
       -0.3298562 0.31132993 0.07336194 -0.95044917
000020 de 48 7e 3d c4 9f fb 3d fd 16 e4 bc 48 7f 99 3c
       0.06208121 0.12286332 -0.027842993 0.01873745
000030 0c 2d 20 3e f1 ba 95 be 83 f1 c5 3e 3a 15 30 3e
       0.15642184 -0.29244187 0.3866082 0.17195597
000040 f0 a4 37 bf fd 84 9c 3d 3d 14 11 be dd e5 a3 3d
       -0.7173605 0.07642553 -0.14167877 0.08002827
000050 b4 8b 5e be 97 84 1e 3e 06 34 39 3d e6 cb 91 3e
       -0.2173298 0.15480267 0.04521563 0.28475875
000060 d7 df 3d 3e 3f 2a df be e9 33 fe 3d 26 a3 a5 be
       0.1854242 -0.4358692 0.12412245 -0.32351035
000070 48 85 a9 be 0b 93 22 bf 5f 0c 5e 3e a8 da 76 be
       -0.33109498 -0.6350562 0.21684407 -0.24106848
000080 35 2a 40 be de 2d 27 3f 3e 0a 0a 3f f7 41 aa 3e
       -0.187661 0.6530436 0.5392188 0.33253452
000090 c7 eb 36 3e 27 9a 4b 3e 3b 29 f5 3e 3d 05 d5 bc
       0.1786338 0.19883023 0.4788302 -0.026003474
0000a0 77 d5 94 b9 4e 7e 96 3d e9 e0 aa be 95 c0 b8 be
       -0.00028387803 0.073483095 -0.33374718 -0.36084428
0000b0 10 79 70 be 4c 9b 38 3e ef d3 7c 3e 8c 93 91 3e
       -0.23483682 0.18027991 0.24690221 0.28432882
0000c0 c9 62 4d bd ae 41 c2 3d 41 17 f6 3d ec 51 9a be
       -0.050143037 0.09485184 0.12016154 -0.30140626
0000d0 56 25 d3 be 76 73 24 be 09 56 08 3f 68 7a 23 bb
       -0.41239423 -0.1605967 0.5325628 -0.0024944786
0000e0 4e a6 d8 be a8 af 23 3f 22 e7 08 be 07 c6 34 bf
       -0.4231438 0.63939905 -0.1336942 -0.70614666
0000f0 58 0f ae 3e 38 79 e4 3c 6f ea 95 be b1 63 dd bd
       0.3399608 0.027889833 -0.2928042 -0.1081003
000100 60 c5 18 bd ca 83 af 3d 03 95 b1 3e 8b 8a 3c be
       -0.037297606 0.08570059 0.34684 -0.18412225
000110 e0 c1 8d bd df ee 80 bd d6 74 33 be 0c 10 56 3e
       -0.06921744 -0.06295561 -0.17525038 0.20904559
000120 79 06 87 be f4 4f 3f 3e 33 fe f7 3c 83 60 10 3d
       -0.26372126 0.18682843 0.030272579 0.03524829
000130 42 1f c4 bc 36 5b b5 3d 35 8e 80 be c2 3b 72 3b
       -0.023940686 0.08855288 -0.25108495 0.0036961888
000140 8c 8a 43 3e 83 e7 ef 3d fa 9f 48 3e 98 73 8b be
       0.1909582 0.11714079 0.19592276 -0.2723663
000150 7d b1 8b be 12 ca bf 3e 43 a0 44 3e 54 91 ec be
       -0.2728385 0.37458855 0.1920176 -0.46204627
000160 43 f6 dc 3e 29 f9 80 bd 5a 74 ce 3c 47 eb 3e bd
       0.43156633 -0.062975235 0.025201965 -0.046611097
000170 04 92 e0 3d c4 e1 1e bf 78 ae 81 3d 56 28 19 3e
       0.1096535 -0.6206324 0.063321054 0.14956793
000180 af 7a 3d bf 75 cb fc 3e 6d 20 c0 3e 15 4d 2b 3e
       -0.74015325 0.49373975 0.3752474 0.16728623
000190 58 b8 41 3e 35 80 26 3e 10 89 a5 be 23 4c 93 bd
       0.18917978 0.16259845 -0.32331133 -0.07192256
0001a0 d7 9b 0b 3e a9 9b 1d bf 3b 39 73 3d e9 dd 89 3e
       0.13633667 -0.61565644 0.05938075 0.26927117
0001b0 59 1c 9c bd 75 07 56 3d 7a 3c b9 3d ce 82 0d be
       -0.076225944 0.052253205 0.09044738 -0.1381943
0001c0 cb 97 14 bd 59 58 0b 3d 09 54 e1 bd 2f 59 53 bd
       -0.036277574 0.0340198 -0.110023566 -0.051598724
0001d0 bd b3 23 3e 89 5a 3c be 55 06 5e 3e 17 ae fd 3c
       0.15986533 -0.18393911 0.21682103 0.030966802
0001e0 5d 70 20 3d 6b c5 05 bd 09 a2 db 3d df 8a 92 bd
       0.039169658 -0.032658976 0.10724265 -0.07155394
0001f0 f6 c6 17 be d1 3b 39 3e da db 3c 3b 4d b5 1c 3e
       -0.14821991 0.18089224 0.0028817565 0.15303536
000200 48 b3 eb 3d c0 95 23 3e 57 d8 38 3e c0 25 75 3e
       0.115088046 0.15975094 0.18051277 0.23940182
000210 dc 77 23 bd a9 98 2a be c9 21 57 3e 64 31 35 bf
       -0.03990923 -0.16659798 0.21008982 -0.7077849
000220 e5 04 14 3f de 5e a0 be 50 28 03 3f 46 2c 87 3d
       0.5781997 -0.31322378 0.51233387 0.06600241
000230 1b c9 10 3f 1e f3 69 3e 32 6d a3 3d 01 8a e3 bd
       0.5655686 0.22846648 0.07979812 -0.111103065
000240 68 f8 6f bd 35 83 d7 3d a2 9e 62 bc 4a db 8b bd
       -0.058586508 0.10523073 -0.013831766 -0.068289354
000250 59 48 8f bf d3 28 15 3e d2 b1 69 3e eb d0 10 bf
       -1.1193954 0.14566354 0.2282174 -0.56568784
000260 19 39 85 3e 7c 0a 5e 3e 96 c4 dc 3e da c3 0c be
       0.26020125 0.21683687 0.43118733 -0.13746586
000270 f2 e6 d7 3e 6a 53 27 bf 63 1a 8a bd 47 ee dd 3e
       0.42168385 -0.65361655 -0.06743314 0.43345854
000280 df 52 d1 be 46 29 80 3d e4 b2 9a 3e b6 44 92 3d
       -0.40883538 0.06257872 0.30214608 0.07142012
000290 ed 71 b0 bb 00 40 a8 3d c8 8b 34 3e 50 be 44 3c
       -0.0053846748 0.08215332 0.17631447 0.012008265
0002a0 e0 aa 2d be c7 b4 53 be 2c 80 8d be ee bf 94 3e
       -0.16959715 -0.2067443 -0.2763685 0.2905268
0002b0 89 65 c1 3e 75 86 70 be e1 aa f9 3d 05 81 3d 3e
       0.37772778 -0.23488791 0.12190796 0.18506248
0002c0 c4 cc 27 3d 35 9c 24 be b0 b4 af be dc d6 d0 be
       0.040966764 -0.16075213 -0.3431754 -0.40788925
0002d0 d2 ae 86 3e 49 1a 45 3e 72 de f3 3d 31 17 d5 3d
       0.26305252 0.19248308 0.119076625 0.10404814
0002e0 de 61 dc 3e d0 5c d0 bd 81 8e 2f be 9e cc cd be
       0.43043417 -0.101739526 -0.17144205 -0.40195173
0002f0 60 47 d3 be 18 ad 9f be d1 94 12 be 50 cc aa be
       -0.41265392 -0.31186748 -0.14314581 -0.33359003
000300 e1 83 1c 3e da 39 8d be f1 3f b9 3c 88 df 90 bd
       0.15284683 -0.275832 0.022613497 -0.07073885
000310 c7 7f 97 be 4a cf 43 3d 87 a5 13 3c 74 25 93 3e
       -0.29589674 0.047805108 0.009011633 0.28739512
000320 a6 48 63 3e 1a 09 ab 3e 03 19 c7 3e 75 8b ce 3e
       0.22195682 0.3340538 0.3888627 0.40340772
000330 d8 75 04 3e 99 ae d0 3e 2a 5d 73 3e 10 b8 41 3e
       0.12935579 0.40758207 0.23766008 0.1891787
000340 95 53 8b bd 2e ee 4a bd c6 6d 46 bd 9c 88 f4 be
       -0.068030514 -0.049543552 -0.04844453 -0.47760475
000350 d7 5a 28 be ba 3b 7c bd a7 16 aa be d7 96 f7 be
       -0.16440903 -0.061580397 -0.33220407 -0.4835727
000360 22 0d f4 be 70 4f f7 be 1b f2 cf be 31 4a a6 bd
       -0.4766627 -0.48302794 -0.406144 -0.0811962
000370 24 6f 1d be 8e 7b 8d bd 21 f7 e3 3e c5 38 00 3f
       -0.15374428 -0.06908332 0.44524482 0.50086623
000380 55 ec 3c 3f 34 58 a4 bd 59 dd f8 bc 82 12 aa bc
       0.73798114 -0.08024636 -0.030378984 -0.020760778
000390 77 76 c4 3d 94 cb ca 3d 37 d9 1d 3d 7f 92 ba 3c
       0.09592908 0.09902111 0.03853723 0.022774933
0003a0 3d a9 3f 3c 10 4e 2e be 20 66 af 3e 7c 4f cb 3d
       0.011698064 -0.17021966 0.34257603 0.0992727
0003b0 f5 15 9d 3e 1d fc ae 3d a1 69 4a 3c b9 f8 90 3c
       0.30680814 0.085441805 0.012354285 0.017696725
0003c0 a2 bf 7a be 5d e7 7c be 86 3e 99 be df 85 12 3f
       -0.24487165 -0.24697633 -0.29930514 0.5723552
0003d0 98 eb 57 bf 81 7e 1c bd 16 ee 8b 3a c6 19 a7 3e
       -0.8434386 -0.03820658 0.0010675814 0.3263685
0003e0 44 64 c1 3e ce f2 4b 3d 51 c7 08 3d fe 41 b7 be
       0.3777181 0.049792103 0.033393208 -0.35792536
0003f0 e4 c6 28 3e 7e 72 3c bf b3 73 80 bd de 89 a4 be
       0.16482121 -0.736122 -0.06272068 -0.32136434

bn1.weight f4 [16]
000000 0b 92 2a 3f db 26 ac 3e 1e df 0f 3f b1 67 45 3f
       0.66629094 0.33623394 0.56199825 0.77111346
000010 bf 1e 8b 3e ff db 15 3f 0b c2 18 3f fb 68 a2 3e
       0.27171895 0.5853881 0.59671086 0.3172072
000020 00 77 0c 3f 1a 64 37 3f 3b 78 bc 3e 04 ee 25 3f
       0.5486908 0.7163712 0.3681048 0.6481631
000030 4b 9b 62 3f 94 97 0d 3f 22 06 30 3f 44 67 0d 3f
       0.8851821 0.55309415 0.6875936 0.55235696

bn1.bias f4 [16]
000000 aa cd 82 3e 4a 50 2e 3b bf 3d 82 bc c0 de ba 3e
       0.25547534 0.002659815 -0.015898583 0.3649807
000010 d6 21 94 bd 03 24 09 3f 66 1c 08 bc 6b 48 20 3d
       -0.07233016 0.53570575 -0.008307552 0.039131563
000020 78 9f 54 bd be 78 ea 3e 88 36 d6 3d 64 e5 4f be
       -0.051909894 0.45795244 0.1045962 -0.2030235
000030 27 ea dd 3e 74 b6 77 bd ca f6 b4 be d3 d2 dd bd
       0.43342707 -0.060476735 -0.35344535 -0.10831227

bn1.running_mean f4 [16]
000000 8b ff e2 3c e8 2c 42 3c 1d 96 76 3c 21 ed 3d bd
       0.027709743 0.011851527 0.015050438 -0.046368722
000010 01 72 2c be a8 e5 1f 3c 3c 7d 60 bb 0c 89 13 3c
       -0.16840364 0.009759344 -0.0034254333 0.0090048425
000020 91 3b 52 bb 00 c3 d0 bc f8 cc 00 3d 4e d9 41 3e
       -0.0032078961 -0.025483608 0.031445473 0.18930551
000030 c0 0b 9c bd 37 ec 74 bd 11 bf 57 3e 51 7e ce 3d
       -0.07619429 -0.059795585 0.2106898 0.10082687

bn1.running_var f4 [16]
000000 88 60 b9 3f 0f 40 48 3e 85 dd 32 3f 92 b3 14 40
       1.4482584 0.19555686 0.6986926 2.32346
000010 b8 68 81 3f 09 65 1c 3f b5 70 26 40 1b c1 dd 3e
       1.0110083 0.6109167 2.600629 0.4331139
000020 c6 a5 fa 3e 01 5e 91 3f 53 f6 07 3f f7 7e 56 3f
       0.489546 1.1356813 0.53110236 0.8378748
000030 e5 40 4b 3f e6 46 96 3f b7 1f 2e 3f 24 39 c4 3e
       0.79395896 1.1740386 0.68017143 0.38324845

layer1.0.conv1.weight f4 [16, 16, 3, 3]
000000 fc a6 65 3d 0f 78 db 3c 39 61 1c 3d 28 95 06 be
       0.05606745 0.026790647 0.038178656 -0.13142836
000010 a2 b8 9e 3d f8 fb 46 be a1 b7 4c bd 01 38 d9 3b
       0.0775006 -0.19432056 -0.04997981 0.0066289906
000020 cb 71 1e 3e 22 48 b3 3d 1b b2 36 be 2e 97 3d bb
       0.15473096 0.087539926 -0.1784138 -0.0028929221
000030 a1 58 a9 bd f5 0c a4 bd 1d 59 44 3e 87 48 10 3c
       -0.08268858 -0.08010284 0.19174619 0.008806354
000040 c6 18 95 3d ff a3 5a 3c bc b6 cf 3c ee 16 28 bc
       0.07280116 0.013344764 0.02535569 -0.010259373
000050 b9 d4 39 be 3f e8 d7 bd 07 a4 3f 3e 15 a1 12 be
       -0.18147554 -0.10542344 0.18714915 -0.1431926
000060 c6 68 7a 3d c9 35 38 3e 92 f0 c1 3d 71 a7 f8 bd
       0.061135076 0.17989267 0.09469713 -0.12141312
000070 0a 1e e7 bd 5a 72 bf 3e 48 5d 7d be 6d a2 38 be
       -0.11285026 0.3739193 -0.24742615 -0.1803071
000080 95 4e aa 3e bd 64 16 be 65 2c 85 3d c6 59 c0 3d
       0.33263078 -0.14686866 0.06502608 0.09392123
000090 6d 20 cd 3b ed cc a6 3d f1 af 6a bd dd 0e d9 bd
       0.006259969 0.08144555 -0.057296697 -0.10598538
0000a0 07 ed fc 3c bb ba 1a bd 50 72 1c 3e c8 57 18 3b
       0.030874742 -0.037775736 0.15277982 0.002324568
0000b0 b1 b3 20 be 9b 9f 0d 3d b3 6f 39 3e cb a3 1e be
       -0.15693547 0.03457604 0.18109016 -0.1549217
0000c0 67 11 4d be e4 52 23 3f fb 8c 0e bf 64 71 f1 bd
       -0.2002617 0.63798356 -0.5568387 -0.11789206
0000d0 0a 67 0d 3e fa 6e 00 be 81 82 19 bd bc 10 bc 3d
       0.13808838 -0.12542334 -0.037477974 0.09182879
0000e0 d3 a4 62 bd 53 cf f4 3d 6e 2b 24 be b7 38 f1 bb
       -0.05533297 0.119536065 -0.16032192 -0.0073614973
0000f0 79 f5 c7 3d 45 4b 3a bd 1f af 4b be 02 4e bc bb
       0.09763617 -0.04548194 -0.19891022 -0.005746604
000100 b6 90 83 be a5 ea 6f 3c b0 d1 81 3d 7b c1 a7 bd
       -0.25696343 0.014643346 0.06338823 -0.081912
000110 18 bd 18 be 6c 8e 00 3e 8a 05 50 bd 8d dd e2 3d
       -0.14915884 0.1255433 -0.050786532 0.11077414
000120 83 25 9a bd 9a 41 0e 3c a7 3a e5 3c 33 dc d2 3c
       -0.07526686 0.008682633 0.02798207 0.025739765
000130 a7 8c cd bd e0 c6 0a 3d a4 85 32 3b 30 4b a9 bc
       -0.10036593 0.03388107 0.00272403 -0.020665735
000140 93 42 b6 bd 93 7a 15 36 36 01 23 3e ad 63 40 bd
       -0.08899417 2.2274078e-06 0.1591843 -0.04697006
000150 51 f9 69 be 00 f6 89 3d e9 8d 47 3d 56 bc ce be
       -0.22849013 0.06736374 0.04871932 -0.40378064
000160 cf b4 bb 3e 7c bb 91 3d 4a 2b 26 bd 1b 6b 85 3d
       0.36661384 0.07115838 -0.040568627 0.06514569
000170 60 99 c3 3c 21 69 06 3d 7e 50 e1 bd 35 1c f3 3c
       0.023876846 0.032815102 -0.11001681 0.029676536
000180 d9 77 9c 3e f1 9a 84 be f7 29 bd bd 69 e1 d6 bc
       0.30560187 -0.2589946 -0.0923652 -0.02623053
000190 6d 40 b0 bd 95 ad da 3b 1c c5 d4 bd fd 17 2c bd
       -0.08606038 0.0066735246 -0.10389158 -0.042015065
0001a0 26 c1 3f 3e 5d 41 ff bc 32 2e 30 3e 9d 05 1d be
       0.18726024 -0.031159097 0.17205122 -0.15334173
0001b0 05 4b 1b bd 4c 3a 05 be bd 41 d6 3d f5 49 5b 3d
       -0.03791334 -0.1301052 0.10461757 0.053537328
0001c0 05 23 86 be 24 4c bb 3e cd 2d 0e 3e 14 cc 80 be
       -0.26198593 0.36581528 0.13884659 -0.251557
0001d0 e3 d6 af 3d 9f 65 0e 3e 99 7f 5c bd 4f 98 46 bd
       0.08585908 0.13905953 -0.053832624 -0.048485097
0001e0 9c b2 23 3e 4e 8a 8a bd 82 84 7a bd 18 19 44 3e
       0.15986103 -0.06764661 -0.061161526 0.19150198
0001f0 cc 70 d4 bd 58 1d 9f 3d 85 a2 57 bc c6 92 f1 3d
       -0.10373077 0.07769269 -0.013161306 0.11795573
000200 cf 0e 79 bd 59 55 b7 bd 34 a4 75 3d fe a4 cb bd
       -0.06080514 -0.08951826 0.05997105 -0.09943579
000210 c1 61 45 3d 10 56 8e 3c 04 82 43 3d f2 ea ed 3d
       0.04818893 0.017375022 0.047731414 0.11617078
000220 25 8b af bd 83 c4 a4 bd 09 cd c4 3d 18 3f ae bd
       -0.085714616 -0.08045294 0.0960942 -0.08508128
000230 bd af 58 be c5 58 8f bc db 1f c6 3e 85 8a 1c be
       -0.21160789 -0.017498383 0.3869618 -0.15287216
000240 b7 dd 1a be 57 2a 19 3e 3e bb 03 3e d3 65 7a 3e
       -0.1512364 0.14957558 0.12864396 0.24452905
000250 33 61 1f 3d 7e f4 86 be 54 cb 5c 3d 41 ca 8a bc
       0.038911056 -0.26358408 0.053904846 -0.016942145
000260 36 01 f9 bd 72 9c 0d 3d e7 cc 5d 3d da d4 4c 3d
       -0.12158434 0.034573026 0.05415049 0.05000768
000270 94 09 77 bb aa ab e6 bd 4b 33 bd bd 7e 9b 7b bd
       -0.0037694918 -0.11263211 -0.09238299 -0.061427586
000280 c8 d7 30 bd 61 43 3e bd f6 60 4d be f1 47 ac bd
       -0.043174535 -0.046450976 -0.20056519 -0.08412159
000290 a4 8d c9 3a 53 d2 5b 3d 78 9c 84 3e 04 ae 08 bd
       0.0015377295 0.053667378 0.25900626 -0.03336908
0002a0 e9 74 c0 3c 8e d5 5c 3c aa b3 2f 3d 07 7f 40 be
       0.023493247 0.01347865 0.04289595 -0.18798457
0002b0 e2 f0 d7 be c4 64 cb 3d b4 67 09 3e d3 40 30 3e
       -0.42175967 0.09931329 0.13418466 0.17212228
0002c0 6e 4b 81 3d c1 cd 5c 3d 39 e1 14 3c 38 e4 61 b9
       0.06313215 0.05390716 0.0090869 -0.0002154269
0002d0 a7 da b6 bc 0c ee df 3d 4c ea 89 bd 69 a7 d7 3d
       -0.022321058 0.10934076 -0.06734142 0.10529978
0002e0 3c b2 39 bd f2 14 5e be 98 af f2 3d ef b7 1a bc
       -0.045335993 -0.21687678 0.11849898 -0.009443267
0002f0 15 2e 3a 3e 82 d0 32 be c3 2a a3 3e 61 e3 4a bd
       0.18181641 -0.17462352 0.31868562 -0.04953325
000300 11 ea ee 3d 79 54 cf bc 33 6d 95 be 3e d3 a0 3d
       0.116657384 -0.025308834 -0.29184875 0.07852791
000310 e9 0c af bd 45 e7 29 3d 5a 40 14 3e 80 a4 90 bb
       -0.08547384 0.04148032 0.14477673 -0.004414141
000320 ad 3e f4 bd cf 3c 8f 3c c9 63 97 be e4 22 a0 bd
       -0.11926017 0.01748505 -0.29568318 -0.07819155
000330 a0 29 af bd ab 11 32 3d bc 0a bc bd b5 8d 60 3e
       -0.08552861 0.04347388 -0.09181735 0.21929057
000340 1b c6 18 be b9 18 4a 3b 46 04 54 bd 90 02 be be
       -0.14919321 0.003083749 -0.051761888 -0.3711133
000350 16 93 4b bd df 37 29 be 41 e2 d7 bd eb b8 e8 3e
       -0.04970082 -0.1652522 -0.105412014 0.4545358
000360 03 8b 8c be 52 fb 09 3e 4d 4e 25 3e 39 e5 93 bb
       -0.27449808 0.13474777 0.1614315 -0.0045134095
000370 c6 73 3b 3e 0f 72 e5 3c bb a4 cd 3d 5d c9 64 bc
       0.18305883 0.028008489 0.100411855 -0.013964024
000380 d1 ea 20 bd 3a 7d 04 3d 26 c1 bb be d5 e7 9c 3d
       -0.03928644 0.032345988 -0.36670798 0.07661406
000390 70 79 f1 be e5 6a ad 3d 1d 49 a7 3e 70 8f 35 3e
       -0.47162962 0.08467654 0.32672969 0.17730498
0003a0 16 86 62 3e 25 79 a5 be 37 df 41 3d eb 07 8c bd
       0.22121462 -0.32318988 0.047332015 -0.06837448
0003b0 35 b7 c1 bc b0 ae 83 bd a6 4f b3 bd 8f 2e cc 3d
       -0.02364693 -0.06429803 -0.08755426 0.09969818
0003c0 df 50 ba bd 6a 09 80 bd 1f 9c cd 3d df 81 45 be
       -0.09097456 -0.062517956 0.10039543 -0.19287823
0003d0 b1 76 37 bd 5d 65 b5 3d 2e 84 5b bd 0b fd 61 3e
       -0.044790927 0.08857224 -0.053592853 0.22069184
0003e0 7d f6 e8 3c 8e 89 44 be 44 b5 a3 3d 11 19 1c bd
       0.028437847 -0.19193098 0.07993558 -0.038109843
0003f0 ce 66 d4 3e 67 f4 e9 bd 79 a1 8d bd a5 5b 30 be
       0.41484684 -0.11423569 -0.06915564 -0.1722246

layer1.0.bn1.weight f4 [16]
000000 96 44 87 3f d2 e2 81 3f 0c eb 1e 3f 1a 24 93 3f
       1.0567806 1.0147345 0.62077403 1.1495392
000010 f0 f5 60 3f 39 7a 05 3f 7f 60 52 3f 66 f0 5b 3f
       0.8787527 0.5213962 0.8217849 0.85913694
000020 27 73 63 3f 92 71 4c 3f 34 d2 7a 3f bc 4c 2e 3f
       0.88847584 0.79860795 0.97976995 0.6808584
000030 9c 3e 28 3f 04 5b 48 3f 6a c2 39 3f 69 cd 36 3f
       0.65720534 0.7826388 0.7256228 0.7140718

layer1.0.bn1.bias f4 [16]
000000 c9 20 c6 3c 4d ea 55 be 31 05 3d 3d 94 ce f8 bd
       0.024185555 -0.2089016 0.04614753 -0.12148777
000010 5f b3 70 bd fc f9 72 3e d8 1f 16 3e 9f b7 0e be
       -0.05876481 0.23728174 0.14660585 -0.13937233
000020 43 3a 6c 3d e6 e8 20 bd e8 be 45 bd d0 26 b7 3c
       0.05767275 -0.03928461 -0.048277766 0.022357374
000030 54 2f bb ba a1 5b e0 bd 10 96 c2 bd 89 c1 4c bd
       -0.0014281073 -0.10954977 -0.095012784 -0.049989257

layer1.0.bn1.running_mean f4 [16]
000000 5c 42 91 bc 55 40 ea be 0e f9 7f 3e 21 fc 34 bf
       -0.017731838 -0.45752206 0.2499735 -0.7069722
000010 cc a8 cf be c5 9a 85 3e e8 ef 0c 3c ce 58 81 bf
       -0.4055847 0.26094642 0.00860212 -1.0105226
000020 3c d4 ce bc 29 07 3a 3d 13 6e a3 3d 2e 03 8f be
       -0.025247686 0.045416985 0.07979979 -0.27932113
000030 4d 55 62 bf a6 44 dd be af ec 90 be cd 2a ee bc
       -0.8841141 -0.43216437 -0.28305575 -0.029073143

layer1.0.bn1.running_var f4 [16]
000000 40 2e 07 40 a4 d7 4b 3f d7 4c cc 3e 28 26 33 40
       2.1121979 0.79625916 0.39902374 2.7992039
000010 72 62 5f 3f 28 a4 d1 3e de 91 40 3f ff b6 a2 3f
       0.8725959 0.40945554 0.75222576 1.2712096
000020 37 6e 29 3f 2c f9 25 3f ee 01 b1 3f 72 7f b8 3e
       0.661838 0.6483333 1.3828714 0.36034733
000030 ff 38 93 3e 28 d4 e1 3e 52 c7 bb 3e fb 76 9b 3e
       0.28754422 0.44107175 0.36675507 0.30364212

layer1.0.conv2.weight f4 [16, 16, 3, 3]
000000 90 d0 00 3d 65 c5 67 3e d6 71 48 3d 2f 58 ba bc
       0.0314489 0.22633894 0.048936687 -0.022747127
000010 a9 71 de 3d 87 0c b8 3c 1a 5e f1 bd bf 06 ae bd
       0.10861523 0.022466911 -0.117855266 -0.084973805
000020 70 b7 e0 bd be 92 47 3d da f4 84 bc 54 fe 05 bb
       -0.10972488 0.04872393 -0.016230036 -0.002044578
000030 dc ae c2 3c 0a 48 9f 3d 5a 95 a9 3c 03 bd a6 bd
       0.02376502 0.07777412 0.0207011 -0.0814152
000040 94 79 9f bd c8 8c 2b 3d 5c 90 08 3d 1c 18 99 3c
       -0.07786861 0.041882306 0.033340797 0.018688254
000050 8c d0 77 ba bf 99 e1 bd 8a c5 28 be 67 8b 1b 3b
       -0.0009453378 -0.11015653 -0.16481605 0.0023734213
000060 be 9f 96 bd 33 e8 f3 bd 33 b6 f5 bc c0 1e 09 3e
       -0.07354687 -0.11909523 -0.029994106 0.13390636
000070 db 1e 8b bd ee 74 5f 3e f8 1b 1f 3e 3c 6b 72 be
       -0.067929946 0.21821949 0.15538013 -0.23673719
000080 15 40 8e 3e c0 17 d2 3d ef 25 3f be 53 a7 14 3e
       0.27783266 0.10258436 -0.18666814 0.14516954
000090 9f 0f ab 3d 24 2b d8 bd 88 45 5d 3d 2d 3f 36 3e
       0.08352589 -0.105551034 0.05402139 0.17797537
0000a0 fb 19 17 be 86 cd a5 3c 7a 94 13 bd 6d a8 f3 bd
       -0.14756005 0.020239603 -0.03603027 -0.11897359
0000b0 7c 0d aa 3d 43 cf 23 3c 0f ef 2a be 15 6a 3c bd
       0.08303353 0.0099981455 -0.16692756 -0.045999605
0000c0 ef 03 fc 3b ef 47 af 3d 09 a1 fe 3d f3 78 1d be
       0.0076908986 0.08558642 0.12433059 -0.1537817
0000d0 5a 24 61 3d f9 e1 51 bd dd da a8 3d 62 73 14 be
       0.05496631 -0.051240895 0.0824487 -0.1449714
0000e0 a5 9f dc 3d 33 be f9 3d d7 da 8b be f1 2e 17 3e
       0.10772637 0.12194481 -0.273154 0.14764
0000f0 4d ac 69 3e a3 e5 75 be 16 69 f1 3d 34 94 2e be
       0.22819634 -0.2401338 0.11787622 -0.17048723
000100 41 c1 63 bd 1d a3 2a be 64 02 1c be 8b ca 03 3e
       -0.055604223 -0.16663785 -0.15235287 0.12870233
000110 33 5c 7f 3d de 24 3e be f6 2e 85 bc 9f f0 24 3d
       0.062343787 -0.18568751 -0.016257744 0.040268537
000120 83 60 54 3d 93 c5 1c be 5f c6 bd 3d 4a 87 93 bd
       0.051849853 -0.15309744 0.09266352 -0.07203539
000130 f6 b5 21 3d 87 40 38 3d ec 28 75 be 3d db 23 3e
       0.039480172 0.044983413 -0.23941392 0.16001602
000140 28 12 35 bc d2 c7 91 bd 10 e9 ce bd a3 24 63 3d
       -0.011051692 -0.07118191 -0.10103047 0.05545486
000150 b2 47 cf bd 99 b1 11 be fc 0b 18 bd b6 01 0a bd
       -0.10121097 -0.14227904 -0.037120804 -0.033693038
000160 43 f8 3f be 52 60 31 bd 06 ca 1c be 4d 91 f4 3d
       -0.18747048 -0.04330475 -0.15311441 0.119417764
000170 e4 16 ba bd b6 bd fb 3d 2b a3 59 b9 ae 05 4e 3c
       -0.09086397 0.12292044 -0.00020755517 0.012574596
000180 62 19 64 3c b4 40 bc 3d c7 30 08 3e a5 4f dc 3d
       0.013922067 0.09192029 0.13299857 0.107573785
000190 9b c7 2c be c6 0f 52 bc 88 ab 1e 3e 82 77 b4 bd
       -0.16873018 -0.0128211435 0.15495121 -0.08811857
0001a0 18 c9 dd 3d 6e 64 4e 3e 3f de 13 be 56 9f 94 bd
       0.10829371 0.20155498 -0.14440249 -0.072569534
0001b0 38 15 f6 bc b7 ad 41 bc c9 19 60 3e 7f ae 63 3d
       -0.030039415 -0.011821202 0.21884836 0.055586334
0001c0 e9 5c 9f be 40 63 5f 3e c1 4e bc 3a c9 d1 9d be
       -0.31125572 0.21815205 0.0014366732 -0.30824116
0001d0 47 62 9e 3e 11 4d b8 ba b1 8d 57 bd db 87 ae bd
       0.30934355 -0.0014061054 -0.05262536 -0.08522006
0001e0 c7 85 74 3c c4 f3 c7 3d 41 d4 ea bd 90 e9 0b 3e
       0.014924473 0.097632915 -0.114662655 0.13663316
0001f0 80 c0 46 bc 97 48 94 3d e1 cd 19 3e 7d 3f 5d 3c
       -0.0121308565 0.07240408 0.15019943 0.013503906
000200 4a 28 96 3d 78 0c d6 bd dd 87 6f 3e a2 b9 18 be
       0.07331903 -0.10451597 0.23391671 -0.14914563
000210 3a 14 e3 bd 5b b4 e3 3d 6b 98 43 be 9a ee da 3b
       -0.11087842 0.111183845 -0.19101112 0.0066812756
000220 3e 88 f2 bd 5b 74 7d bd 4e 6a 4d 3e 6a 15 3d be
       -0.118423924 -0.061878543 0.20060083 -0.184652
000230 01 94 ee 3d cf f6 d2 3d f4 6b 45 be b8 34 96 3d
       0.11649323 0.10300981 -0.19279462 0.07334274
000240 fa e2 68 be 58 de ba be c9 47 f1 be 35 ec 7d be
       -0.22742835 -0.3649776 -0.4712508 -0.24797137
000250 64 b4 69 be be bc a5 be d0 08 16 bd f9 e4 19 be
       -0.2282272 -0.3237056 -0.036629498 -0.15028752
000260 dd 3b b1 bd 87 6c 84 3d f3 03 10 3e 59 44 45 bc
       -0.08653996 0.064660124 0.14064007 -0.012040221
000270 3a 76 cd 3d b3 f2 ce 3c a4 40 39 3d 9b 4a 99 3d
       0.100323156 0.025262212 0.04522766 0.07484933
000280 0c 11 1e 3e 74 10 46 3e 3d 9d a3 be c1 6f 59 be
       0.1543619 0.19342214 -0.319559 -0.21234037
000290 ca 31 f2 bd e6 93 7c be 66 55 58 be 65 59 48 3c
       -0.11825903 -0.24665794 -0.21126327 0.012228345
0002a0 86 b2 a4 bd 79 50 c1 bd 6d ab 53 bd e6 53 c7 bd
       -0.08041863 -0.09439177 -0.051677156 -0.09732799
0002b0 87 5d 76 bd 63 1d 1d be 57 df 6d be 11 34 66 be
       -0.06014779 -0.15343241 -0.23229729 -0.224808
0002c0 cb 04 44 be 84 b9 b9 bd cf 5b 17 be fe 07 d2 bd
       -0.19142453 -0.090685874 -0.14781116 -0.10255431
0002d0 be 68 43 bd 17 de 31 bd 5a 1d 49 be 47 28 18 be
       -0.04770731 -0.043424692 -0.19640103 -0.14859115
0002e0 93 85 72 be 93 bf 8c be 10 98 23 be 4a 88 91 bd
       -0.23683767 -0.2748991 -0.15975976 -0.07106073
0002f0 54 4c ef bd f4 0b 03 3e 80 d5 34 3e 4f ca 99 3c
       -0.1168448 0.12797529 0.17659569 0.018773226
000300 df bf af bc d5 3c 42 bb ba ad 08 3e f5 4d 96 3d
       -0.021453796 -0.002963831 0.13347521 0.07339088
000310 ad 22 8c bd f6 08 13 be 60 24 65 bc d3 94 5d 3c
       -0.068425514 -0.14358887 -0.013985723 0.013524252
000320 58 47 4b 3d 89 d3 1f 3e 8c 1c 38 3d 0a 86 fb bd
       0.049628586 0.15608038 0.0449491 -0.12281425
000330 6d 18 e2 3d 5b dd 8c bd f3 e9 51 bb 32 f3 e4 3c
       0.11039815 -0.06878158 -0.0032030314 0.027947996
000340 2c 03 a7 bd 32 55 0d bd 7f 79 b2 bd 2e e5 a1 be
       -0.08154902 -0.034505077 -0.0871458 -0.31620163
000350 92 7d 2b be 67 c0 53 3c 4d 5e 5a be 2c b6 ed bd
       -0.1674712 0.01292429 -0.21325035 -0.11607012
000360 49 73 b1 bd ca a7 ea 3d 82 3a 09 3e de a3 53 3d
       -0.08664567 0.114577845 0.13401225 0.051669948
000370 cf 03 1c 3d be 87 cc 3d 5e fc 1e bb f4 88 ae 3d
       0.03808957 0.09986828 -0.002425931 0.085222155
000380 ac 52 52 3e 2f bd f7 3b b5 a4 1e 3e 66 34 b0 bd
       0.2053935 0.0075603942 0.15492518 -0.08603744
000390 06 d7 7d 3d d8 c0 ab bd 43 82 70 3d 71 ce 48 bd
       0.06197264 -0.083863914 0.058717977 -0.049025003
0003a0 c0 e8 f8 ba a0 32 e1 bc 6d 87 b2 3d 2b b8 0a 3e
       -0.0018990263 -0.02748996 0.08717237 0.13546817
0003b0 70 28 3d 3e 5b d2 01 3e 5b 0a fc bd 67 45 53 3e
       0.18472457 0.126779 -0.12306663 0.20631944
0003c0 bf e8 a8 bd 64 91 aa 3d c4 14 b8 3d fd fa 48 3d
       -0.08247518 0.08328512 0.08988336 0.049067486
0003d0 02 7f 0e bd 0b 4b 8f bd 02 50 47 3d b8 57 4e 3d
       -0.034789093 -0.06996735 0.048660286 0.050376624
0003e0 28 f9 c2 bc 8c ed 8d 3d fd dd cd 3c 7b d0 4f 3d
       -0.023800448 0.06930074 0.025130266 0.05073593
0003f0 07 c5 6a 3b eb 72 7c 3d 1d ec be 3d dd d7 23 3b
       0.0035823004 0.06163303 0.09322379 0.002500049

layer1.0.bn2.weight f4 [16]
000000 1d 3d 9e 3f 2b a1 ca 3f 57 32 8c 3f 84 77 54 3f
       1.23624 1.5830435 1.0952863 0.82994866
000010 ca 9d 95 3f 9e e9 38 3f 30 af 1c 3f f7 55 84 3f
       1.1688778 0.7223147 0.61204815 1.0338734
000020 96 58 1a 3f 0c 0c 45 3f 28 94 27 3f dd e2 8b 3f
       0.6029142 0.7697151 0.65460443 1.0928608
000030 e3 56 7f 3f 66 20 6d 3f 2a e2 38 3f 96 65 45 3f
       0.99741954 0.9262756 0.722201 0.7710813

layer1.0.bn2.bias f4 [16]
000000 40 f2 c3 be 8b 78 6c 3d bc f7 f1 3d cd e8 42 3e
       -0.3827076 0.057732146 0.1181483 0.19034119
000010 fb fe 96 bd 3e 96 41 bd 1b bb ec 3e d4 c9 99 3e
       -0.073728524 -0.047262423 0.462365 0.30036795
000020 01 9c 1f 3e be 9b 2e 3e 1a 19 b5 3e f0 0e 19 bd
       0.15586855 0.17051598 0.35370713 -0.03736776
000030 51 80 bf be 55 e2 9f 3e 34 d4 aa 3d 4d 72 2f 3e
       -0.37402585 0.31227365 0.08341256 0.17133446

layer1.0.bn2.running_mean f4 [16]
000000 07 23 70 bd 22 06 71 bf b8 64 72 bf c0 45 a1 3d
       -0.058627155 -0.9414998 -0.94684935 0.07874632
000010 52 cd 41 bf ec 72 6c 3e 6c 9b 2c 3e 17 27 91 be
       -0.7570392 0.23090714 0.16856164 -0.28350136
000020 90 72 15 3f e1 e8 47 be 98 81 b8 3e ca 53 11 3f
       0.58377934 -0.1952243 0.36036372 0.56768477
000030 0a 9c 41 be bc ed a2 bf c7 c0 a6 bf 3a 3b 02 3f
       -0.1890718 -1.2728801 -1.3027581 0.5087162

layer1.0.bn2.running_var f4 [16]
000000 38 bf b4 3f af af 0c 40 f3 01 c7 3f 4b b3 81 3f
       1.4120855 2.1982229 1.554747 1.0132841
000010 1a e7 93 3f 67 37 29 3f 83 48 40 3f 16 fb 9d 3f
       1.1554902 0.6610016 0.75110644 1.234225
000020 4e 65 2d 3f 89 4f 24 3f 93 df 14 3f af 83 18 3f
       0.67732704 0.6418386 0.5815365 0.59575933
000030 1d 19 2d 3f 75 8d 58 3f df 4a 67 3f 7f fc 2e 3f
       0.67616445 0.84590846 0.9034862 0.6835403

layer2.0.conv1.weight f4 [32, 16, 3, 3]
000000 03 d8 b6 3c 8e b7 04 3e b8 70 79 3d 83 02 05 3e
       0.0223198 0.12960646 0.060898513 0.1298924
000010 ef 30 2d 3e 51 6c 91 3d 31 68 b1 3c 2f 62 92 3d
       0.16913198 0.07100738 0.021656128 0.07147633
000020 7d 1b 0d 3d 36 9e 3c 3c a6 63 3c bd d9 4b 3c be
       0.034450043 0.01151233 -0.04599347 -0.18388309
000030 87 68 9d 3d b0 44 cb bd 06 be 46 be 19 c6 6c 3b
       0.07685953 -0.099252105 -0.19408426 0.0036128818
000040 05 ea 67 be ec e8 4a be 18 09 04 3d 97 ef d3 3d
       -0.22647865 -0.19815415 0.032235235 0.103484325
000050 a8 dc c2 3d be aa 97 3d 29 83 0a 3e 28 87 48 3d
       0.09514743 0.07405613 0.13526596 0.04895702
000060 c5 4e 39 3e 6c 66 87 3c d3 26 ef 3d 4e 07 85 bd
       0.18096454 0.01652833 0.11677327 -0.06495534
000070 ba 1f 88 bd 11 aa 9f bc af d0 1e be cd e0 34 be
       -0.06646676 -0.019490274 -0.15509294 -0.1766388
000080 d9 70 1a be 74 11 17 be 58 65 a6 bb ff 7d 9b 3d
       -0.1508211 -0.14752752 -0.005077999 0.07592391
000090 98 69 fe bc 84 88 5d 3d 24 64 bf bc e6 f5 9a bd
       -0.03105621 0.05408527 -0.02336318 -0.07566433
0000a0 74 26 89 3c a7 5b 67 bc 7d c5 3c bd 8f 2c 9c 3b
       0.016741969 -0.014120973 -0.046086777 0.004766054
0000b0 fb 76 18 bd 18 9d 5e 3e 60 86 ec 3d 04 8b d3 3c
       -0.037222844 0.21739614 0.115490675 0.025823124
0000c0 69 f6 9f 3d 8a c8 17 3b 68 5d 8b bd 91 c6 df 3d
       0.07810671 0.0023160302 -0.06804925 0.109265454
0000d0 93 41 8f 3d 37 1d 56 3d a9 cb 45 3e c8 a4 bd 3d
       0.06994929 0.052273955 0.19315971 0.09259945
0000e0 b8 54 aa 3d 37 9b 2a 3d b5 a1 dd 3d a7 5f 4e bb
       0.0831694 0.04165193 0.10821859 -0.0031490119
0000f0 3e d0 f1 3d 31 13 8c 3c c8 bc 74 3d 74 43 e2 3d
       0.11807297 0.017098995 0.05975035 0.11048022
000100 c9 d3 07 3e 83 31 88 3a e6 11 c7 3d 22 e3 0b 3d
       0.13264383 0.0010390732 0.09720211 0.034152158
000110 8e da 00 bd 26 97 4c 3c 50 56 cd bd 60 67 3b be
       -0.03145843 0.0124872085 -0.100262284 -0.18301153
000120 1f 62 2a bd 45 48 32 bd 2a 5d 53 bd 35 88 88 bc
       -0.04159748 -0.043525953 -0.05160252 -0.016666511
000130 60 1f a2 bd 50 85 4b bd 9f 20 dc ba 1b 31 64 3d
       -0.079161406 -0.049687684 -0.001679439 0.055710893
000140 52 83 98 bb cb 86 34 bc 98 36 17 be 36 d6 18 be
       -0.0046543265 -0.011018465 -0.1476692 -0.14925465
000150 5c 4f 94 3b 41 58 ee bd 3a e1 f8 bd fc 11 b7 3c
       0.004526062 -0.11637927 -0.121523336 0.022347443
000160 58 e9 e0 bc 92 61 0e be 12 06 c2 bc fe 4c 93 bd
       -0.027455017 -0.13904408 -0.023684535 -0.071924195
000170 d6 d2 71 3c db d7 cd bc ac a2 a7 bd f5 42 b0 bd
       0.01475974 -0.025127342 -0.08185324 -0.08606521
000180 85 a4 cf bb 63 18 5d bd 81 f1 5b 3c 28 8c 95 ba
       -0.006336751 -0.053978335 0.013424278 -0.0011409568
000190 55 a5 7a 3d f0 72 d4 bc 4a 98 c4 3c a3 23 b5 bd
       0.06119283 -0.025933713 0.023998398 -0.08844688
0001a0 0e 26 aa bd 54 8e 59 be 8d 42 79 be c0 fd 50 be
       -0.083080396 -0.212457 -0.24341793 -0.20409298
0001b0 84 ba c7 bd 0d 35 95 3c 9a b5 0f 3d de cc de bc
       -0.09752372 0.018213773 0.035085298 -0.027197298
0001c0 a4 e4 d0 3b a8 26 1c 3d a1 c0 a1 bc 21 32 50 bd
       0.0063749123 0.038122803 -0.019745173 -0.050829057
0001d0 dc 38 86 bc b5 b4 12 bd d8 3f 86 3d 8f dc e5 3c
       -0.016384535 -0.035816867 0.06555146 0.028059272
0001e0 c7 8f ae bd 85 42 cb ba 44 8b 32 3d d7 36 33 bd
       -0.08523517 -0.0015507495 0.043589845 -0.04375347
0001f0 12 88 d8 3c 94 10 06 3d eb ea cb 3c 03 a8 c8 3b
       0.02643207 0.032730654 0.024892291 0.006123544
000200 35 f4 55 3d 2e 00 6b bd d0 1d d9 3c ad 56 ab bd
       0.052234847 -0.05737322 0.026503474 -0.083661415
000210 c7 38 f8 bd b0 38 5a bd f9 4b b2 3d bc c9 0f 3d
       -0.121202044 -0.053276718 0.08705897 0.0351045
000220 0c 55 33 bd 7c d7 da 3b 90 9a 3e 3d ff 32 eb bd
       -0.04378228 0.00667852 0.04653412 -0.11484336
000230 c7 30 ab bb 05 ac c7 bb 4d b2 ce bd a4 a0 bb bc
       -0.0052243206 -0.0060935044 -0.10092602 -0.022903748
000240 5b c4 a8 bd 05 55 df bd c8 2d b9 bd 0b 6a 9b 3b
       -0.08240577 -0.10904888 -0.09041935 0.004742866
000250 cc 19 87 bd 04 eb 95 bd 2c a0 5e 3c 5c e4 51 3c
       -0.06596717 -0.07320216 0.013587993 0.012810793
000260 b9 b7 d5 bc d9 c5 26 bd 10 6c fe 3c c8 e6 14 3a
       -0.026088582 -0.040716026 0.031057388 0.0005680141
000270 d8 05 51 bd 2a 62 80 be 18 c9 92 be 12 0c a0 bd
       -0.051030964 -0.25074893 -0.28669047 -0.07814802
000280 99 51 68 be 5a 2a 1c be b0 b3 8a bd fe a5 b9 bd
       -0.22687377 -0.15250531 -0.06772554 -0.090648636
000290 13 ce cd bd 3a f9 c2 3d ab cc c0 3c c7 39 c4 bd
       -0.10049071 0.095201924 0.023535093 -0.09581333
0002a0 42 05 1e 3d df b1 d4 3d 2b 48 70 bd 42 8e 01 3e
       0.038579233 0.10385489 -0.058662575 0.12651923
0002b0 93 fe 3d 3e b7 77 6e 3d 81 32 f7 3d 38 d6 90 3d
       0.18554144 0.058219638 0.1207018 0.07072109
0002c0 b9 f9 0a 3e cc 0f 68 3d e2 28 75 bd 57 c6 16 be
       0.13571824 0.05665569 -0.059853442 -0.14724098
0002d0 c7 a3 ed bd a0 56 07 be fe b1 af bd 88 e2 af bd
       -0.11603504 -0.13216639 -0.08578871 -0.08588129
0002e0 d6 a3 7c 3b 21 6c 0d be 2b d3 66 bd 46 5c e8 3c
       0.0038549802 -0.13810779 -0.05635373 0.028364312
0002f0 fb ca a4 3d e5 bd fc 3d 46 31 45 3e a7 36 e2 3d
       0.08046528 0.12340907 0.19257078 0.1104558
000300 3f 52 c0 3d f1 21 ce 3d fa 8a 24 3d 60 93 78 3c
       0.09390687 0.100650676 0.0401716 0.015171856
000310 e9 2e 8d bb 58 fb 71 3c 2a b2 e0 3a 2c f2 0e 3d
       -0.0043085706 0.014769398 0.0017142941 0.03489892
000320 57 51 fb 3c e6 ad be 3d e7 aa ab bd 02 52 7c bd
       0.030678434 0.09310512 -0.083822064 -0.061601646
000330 6b 71 17 3b dd 09 89 bb 54 87 1a be eb 56 83 be
       0.0023108374 -0.004182084 -0.15090686 -0.2565225
000340 8c 1f 8f be 2d 15 9f bd 8c 39 18 be 89 c5 d1 bd
       -0.27953756 -0.07767711 -0.14865702 -0.10242755
000350 69 0d 91 bd 7a 71 07 3e fe d5 47 3d 84 cc f0 3c
       -0.07082636 0.13226882 0.048788063 0.029394396
000360 46 b7 c7 ba d3 9d e0 ba 8a 1e 29 3d 69 b5 bf 3a
       -0.0015237115 -0.0017136879 0.04128889 0.0014626208
000370 64 f9 e9 bd 31 e5 0d be 67 4d c6 bd 5f 29 b8 bd
       -0.114245206 -0.13856961 -0.09682732 -0.08992266
000380 9a 58 3f bd c0 e4 72 3d d3 63 c1 3d 2f 7a 85 3c
       -0.046715356 0.059300184 0.09442868 0.016293613
000390 4f 3a 12 bc 09 e7 4f 3d 75 09 b1 3d 7e 12 e4 3d
       -0.008925035 0.05075744 0.08644382 0.111363396
0003a0 02 7b 00 3e 18 38 23 b9 aa 4d 1f bc 06 4f 1d be
       0.12546924 -0.00015565788 -0.009723106 -0.15362176
0003b0 84 2f 1a bd 7c 53 83 bd 22 b3 c1 bd 43 fe 2a be
       -0.03764297 -0.06412408 -0.09457995 -0.16698556
0003c0 ab 31 42 bd 97 c7 f6 bc ff f3 62 bd 8c bb 78 3d
       -0.04741065 -0.030124469 -0.055408474 0.060725734
0003d0 de 8f 28 3e d0 9d 12 bc 18 1e 39 3d e9 d8 93 3c
       0.16461131 -0.008948758 0.045194715 0.018047767
0003e0 d9 a9 c3 bd a0 65 38 bc 53 e6 37 be c0 47 19 be
       -0.0955388 -0.011254698 -0.17958955 -0.14968777
0003f0 a6 f2 6e bd 49 05 f4 3c a5 d3 02 bd e9 26 6b bc
       -0.058336876 0.029787676 -0.03194012 -0.014352539

layer2.0.bn1.weight f4 [32]
000000 28 32 36 3f ac 49 30 3f 0c cb 53 3f 54 b6 48 3f
       0.7117028 0.68862414 0.827317 0.7840321
000010 ee 7b 4f 3f d9 90 73 3f 48 3b 78 3f 0c 0c 46 3f
       0.81048477 0.95142895 0.96965456 0.7736213
000020 12 01 41 3f 04 4a 44 3f 70 89 3b 3f 04 69 42 3f
       0.7539226 0.7667544 0.7325659 0.7594149
000030 64 45 54 3f 87 54 3a 3f 8f 6c 3a 3f 7f 17 4a 3f
       0.8291838 0.7278523 0.728219 0.789421
000040 f2 1d 56 3f c0 0a 51 3f 15 bb 58 3f d7 a2 49 3f
       0.8363944 0.8165703 0.84660465 0.787641
000050 0e a0 5d 3f 8b 9f 57 3f a1 f0 34 3f 6c 23 50 3f
       0.8657235 0.8422782 0.7067967 0.8130405
000060 bb 13 64 3f 42 a1 2a 3f 1f ee 70 3f 55 a5 16 3f
       0.89092606 0.6665231 0.94113344 0.58846027
000070 7e 8a 33 3f 7f 66 2e 3f e3 6a 74 3f 70 5d 28 3f
       0.701332 0.68125147 0.95475596 0.65767574

layer2.0.bn1.bias f4 [32]
000000 01 fc 17 3e ea 6a 10 be a4 2c 69 be 9c 98 e3 be
       0.14842226 -0.14103284 -0.22770935 -0.4445237
000010 44 7f 89 be 42 4f 84 be 05 6e 8d 3c 43 a2 4e be
       -0.26854908 -0.2584172 0.017264375 -0.20179085
000020 a3 85 32 be f8 44 35 3d 47 90 57 be e2 66 91 bd
       -0.17433791 0.044255227 -0.21051131 -0.070997015
000030 50 86 0e bd 31 3b b5 bc e8 df fd bc 4a 85 46 bd
       -0.03479606 -0.022122951 -0.030990556 -0.048466958
000040 5d 7e e2 bd 97 3a 61 bd 7d 2f fc bd 19 15 95 bd
       -0.11059258 -0.054987516 -0.12313745 -0.07279415
000050 7b 22 04 be 0e ae be be 33 ee 10 be 54 f3 9a bd
       -0.12903778 -0.37242168 -0.14153366 -0.075659424
000060 49 d3 04 3e 46 6d 2b 3d 62 f8 26 bd b3 00 38 bd
       0.12971224 0.04185226 -0.04076422 -0.04492254
000070 a2 d0 3d be 17 d2 a4 bb a6 8b c6 be 4a 85 65 bd
       -0.18536618 -0.0050299275 -0.38778418 -0.056035317

layer2.0.bn1.running_mean f4 [32]
000000 a8 79 76 bf 59 c4 ae bf 04 77 10 bf 85 f9 6e bf
       -0.9627938 -1.365367 -0.56431603 -0.93349487
000010 37 c3 8b 3d 27 d0 d1 3e ad 9f a5 be 99 15 84 bf
       0.06824344 0.4097912 -0.32348385 -1.0319091
000020 81 4f b3 bf b5 f9 fd 3e 02 be a1 bf 95 a7 b8 bf
       -1.4008638 0.49604574 -1.2636111 -1.4426142
000030 d1 0d b4 bf 67 4e 92 bf 48 bc 31 c0 60 31 1b bf
       -1.4066716 -1.1430176 -2.7771168 -0.60622215
000040 5c a7 3b 3e 69 c5 6b bf 19 90 f4 be f9 14 e3 bf
       0.18325561 -0.920981 -0.47766188 -1.7740775
000050 3f 63 4a be 32 44 90 3e e2 73 c2 be 14 e9 0a bf
       -0.19764422 0.2817703 -0.37979037 -0.542619
000060 7b d4 a7 bf 0a 2b f2 bf e6 7c 26 c0 32 a2 ab bf
       -1.3111719 -1.8919384 -2.6013732 -1.3408873
000070 d4 a9 45 3f 59 76 e4 bf dd 87 34 c0 e4 bd 2e bf
       0.7721226 -1.7848617 -2.8207924 -0.682585

layer2.0.bn1.running_var f4 [32]
000000 3a 07 d5 3f 30 1d 8e 3f 11 a4 61 3f b4 02 8c 3f
       1.664283 1.1102657 0.8814097 1.0938325
000010 e9 fb 76 3f b8 5e b5 3f c3 54 27 40 bb 83 90 3f
       0.96478134 1.4169531 2.6145484 1.1290201
000020 65 63 a6 3f 75 47 5b 3f f6 1e 69 3f 81 eb 54 3f
       1.2999083 0.8565591 0.9106287 0.8317185
000030 fd 9d 91 3f e8 79 ee 3f 63 58 94 3f b3 c8 97 3f
       1.1376339 1.8630953 1.1589473 1.1858124
000040 a7 dc d5 3f 21 68 b5 3f 09 5f 62 3f 2e 17 46 3f
       1.6707963 1.4172403 0.8842626 0.7737912
000050 cb 07 66 3f ef 7f 4c 3f f3 34 48 3f c0 ab 14 40
       0.8985564 0.7988271 0.78205794 2.3229828
000060 f9 4e 82 3f fd f6 8e 3f ce 9b e4 3f d1 d0 63 3f
       1.018035 1.1169125 1.7860048 0.88990504
000070 16 38 8b 3f 6b 5d b1 3f 96 38 d2 3f 96 fa 6d 3f
       1.0876491 1.3856634 1.6423519 0.9296049

layer2.0.conv2.weight f4 [32, 32, 3, 3]
000000 68 66 9c bd 40 6f c2 bd f6 2d 26 bd 87 28 9f bd
       -0.0763672 -0.094938755 -0.040571176 -0.07771402
000010 df ce ef bd 27 44 59 bd 19 ec 6a 3b 0d c1 bb 3d
       -0.117093794 -0.05304351 0.0035846292 0.09167681
000020 59 15 1a 3d e6 af 35 3d 1f e4 1a 3d ff 91 6c bd
       0.037618015 0.044357203 0.03781521 -0.05775642
000030 20 7c 39 3d 55 93 60 3d a6 55 bb bd 15 71 94 bd
       0.04528439 0.054828007 -0.091471955 -0.07248131
000040 43 e7 11 3d 09 b6 ae bb b5 57 1f 3d 01 c2 3e bb
       0.03562094 -0.005331759 0.038902003 -0.0029107335
000050 a3 56 02 be a2 1c 07 3d d9 95 5a 3d d8 20 d1 bd
       -0.12728362 0.03298629 0.053365562 -0.102113426
000060 ef 70 29 3d 75 fb 2e bd 52 80 a3 bc 50 a3 6b 3c
       0.041367467 -0.042720277 -0.019958649 0.014382198
000070 db 3c 3c 3d c1 c0 a5 bc 3b c2 a6 bb 09 a7 a7 3d
       0.045956474 -0.020233514 -0.005089072 0.08186156
000080 91 a6 3d bb e6 dc b4 3c f2 34 c3 3c dc e3 be 3c
       -0.0028938393 0.022077989 0.023828957 0.023302011
000090 b1 5b 21 3e a9 7f 8d 3d fb ed 76 3d 81 43 8f 3d
       0.15757634 0.06909115 0.06028555 0.06995297
0000a0 90 43 55 bc 90 7c 23 bd 3b 07 d2 bd 0a 13 31 be
       -0.013016596 -0.039913714 -0.10255285 -0.17292419
0000b0 1d b3 0e be 06 52 85 bd 59 e0 6a be 4c 4a 44 be
       -0.13935514 -0.06509785 -0.22937144 -0.19168967
0000c0 4c 8a 11 be f4 0e 7f bd dc 56 03 be a0 31 c0 3d
       -0.14212912 -0.06227012 -0.12826103 0.09384465
0000d0 52 5a 85 3d 66 a2 64 3d 63 98 b3 3d ff e0 c9 3d
       0.06511368 0.055818938 0.087693 0.09857368
0000e0 d2 e4 6a 3e 37 5e ac 3d 6e d1 f8 3d 2d 39 5a 3e
       0.2293885 0.084164076 0.121493205 0.21310873
0000f0 f9 f3 d7 bc 18 00 f5 bc 0d 11 de 3d 6e 29 6c bd
       -0.026361452 -0.029907271 0.10843096 -0.057656698
000100 b3 5c 53 3d 13 d0 41 3d 44 e2 f6 bc f8 41 4c bc
       0.051602077 0.047317576 -0.030137189 -0.0124669
000110 fe 99 51 3d b3 3d dd bb bb 8f 13 bd bd e1 e6 bd
       0.05117225 -0.00675174 -0.036025744 -0.11273525
000120 66 76 ab bd 4c a1 64 3c 18 14 36 bb 6a 55 0a be
       -0.08372192 0.013954472 -0.0027782973 -0.13509145
000130 6a 17 47 bb d6 4f c7 bb 01 4a 12 be 26 07 3b be
       -0.0030378946 -0.006082515 -0.14286043 -0.18264446
000140 4c ce 39 bc 65 45 c1 bd b1 0a a1 bc 0f 32 97 bc
       -0.011340689 -0.09437064 -0.019658418 -0.018456487
000150 6d df 6c bd fb 63 dd 3c 22 93 35 bd 62 08 ed bd
       -0.057830263 0.027025213 -0.04432977 -0.115738645
000160 22 ba f4 bd 31 d4 10 be 82 2c 34 3d e3 27 ef 3d
       -0.119495645 -0.14143445 0.04398776 0.1167753
000170 e7 9d a7 bd 2e 58 17 3e ca 50 db 3d 15 79 c7 3d
       -0.08184414 0.14779732 0.10708769 0.097398914
000180 2f 52 a1 3d 5a ec b4 3d 3f c3 2e 3d 2c a1 54 3d
       0.078770034 0.08834143 0.04266667 0.051911518
000190 c0 27 a3 3d 73 94 ce 3d ba 4b 2a be df 31 c8 bd
       0.07966566 0.10086908 -0.1663045 -0.09775137
0001a0 e9 c2 f2 b9 b4 76 01 be c9 d3 25 be bb b6 66 be
       -0.00046303056 -0.12642938 -0.16194071 -0.22530644
0001b0 f8 26 b9 bd 1a 05 39 bd 6f 58 6a bd 24 d1 f1 bd
       -0.09040636 -0.04517088 -0.057213243 -0.118074685
0001c0 ab 66 3c be 94 20 e7 bd 66 a6 02 be f5 d1 9b 3d
       -0.1839854 -0.11285511 -0.12758788 0.076084055
0001d0 03 03 ce 3d c4 ca 8d 3d 0c d9 ae 3b 23 fa 92 3d
       0.10059168 0.0692344 0.0053359326 0.07176616
0001e0 48 c8 cd 3d 4d ac bc bc 2b bc c4 bd 66 c6 c4 3d
       0.10047966 -0.023031378 -0.09606203 0.09608154
0001f0 35 88 68 3d 93 07 34 bd 8a 13 91 3c 57 9c 97 bd
       0.056770522 -0.043952536 0.017709512 -0.07402866
000200 d9 f2 a0 bc 4d 68 6b bd 95 03 5d 3d d7 87 4b 3c
       -0.019647049 -0.057472516 0.053958494 0.012422523
000210 8e 54 c2 bc df f6 0f 3d b4 fa ed 3d e6 a1 06 be
       -0.02372196 0.035147544 0.116200835 -0.13147697
000220 d6 62 57 bd 19 30 62 3d 9c 7f c4 bc 5e cf 7a bd
       -0.05258449 0.05522165 -0.02398663 -0.061232917
000230 f4 a7 8a bd 01 de 88 3d fc f4 60 bd 1f 2c 19 3c
       -0.06770316 0.06682969 -0.054921135 0.009348898
000240 80 cd df bd e8 ed 59 3d 2d b8 c8 3c a7 67 45 bd
       -0.10927868 0.0532054 0.024501884 -0.048194554
000250 9b 00 bf bb 3d 9a e6 3b e4 a0 8e 3c 14 c2 33 bc
       -0.0058289296 0.0070374296 0.017410703 -0.010971565
000260 1e d3 18 3e ee 3f d6 bd 4a 04 a0 bd 20 12 48 bd
       0.14924285 -0.10461412 -0.07813318 -0.04884541
000270 47 07 d6 bd ee c3 69 bd 25 ad 2d 3d 0c 7a b0 3d
       -0.10450607 -0.05707162 0.04240145 0.086170286
000280 47 5e 76 bd 53 88 41 3e d7 6f a9 3d ee 0d 1a bd
       -0.060148504 0.1889966 0.08273285 -0.03761094
000290 27 21 50 3a 7f 60 a8 bd c1 12 74 bd 32 09 55 bc
       0.00079395104 -0.0822153 -0.059588198 -0.013002681
0002a0 6c 5a fc bc c0 e1 bb bd 59 06 81 bd 80 4f 63 bd
       -0.030804835 -0.09173918 -0.06300039 -0.05549574
0002b0 09 21 c8 3d 1b 52 2e 3e e3 96 1e 3d b6 a2 36 3c
       0.09771926 0.17023508 0.038718116 0.011147192
0002c0 cc 9a d0 3d dd 2e 79 3d f0 60 01 3d 3b 3a b6 3d
       0.10185775 0.060835708 0.031586587 0.08897825
0002d0 0b 68 42 bd d3 36 ef bb 1c 12 81 3c 27 43 d0 3c
       -0.047462504 -0.0073002367 0.015755706 0.025422646
0002e0 22 16 23 3d 58 ba c2 3d e3 82 bf 3c c4 5e c0 3d
       0.03981603 0.095081985 0.023377841 0.09393075
0002f0 6c 24 cc 3d e3 79 bb bd b8 d0 33 bd 95 c0 4d 3d
       0.099678844 -0.091541074 -0.04390022 0.05023249
000300 e3 23 a4 bc ab ae c0 bd 21 40 f5 3d 51 a4 00 3e
       -0.020036643 -0.09408315 0.11975122 0.12562682
000310 e3 35 65 3d 28 ba 47 3e 58 4b 0d bc b9 85 a2 bd
       0.055959594 0.19504607 -0.00862392 -0.07935662
000320 49 b3 05 3d 92 64 7f 3d e9 4f 36 bc b0 b5 37 bc
       0.032641683 0.06235177 -0.0111274505 -0.011212751
000330 98 2a 9d 3d 6a a0 a7 3d e9 56 17 3e 66 5a b3 3d
       0.0767414 0.081848934 0.14779247 0.087574765
000340 9d 20 bb 3d 9e 82 b0 bd 56 c5 7f bd af 05 c6 3b
       0.0913708 -0.08618663 -0.062444054 0.006043158
000350 c1 b2 c8 bc 85 12 a1 3d ba 2c 02 3e 6e b7 d3 bc
       -0.024499299 0.078648604 0.12712374 -0.025844302
000360 e2 a6 ef bd d0 72 73 3c 81 02 3d be f2 cd e1 bd
       -0.11701752 0.014858916 -0.18457986 -0.11025609
000370 ff e0 0a bd c0 85 ba bd 2b a5 70 3d f4 92 10 bb
       -0.03390598 -0.09107542 0.058751266 -0.0022060247
000380 4e 0e 27 bd 37 e3 dc 3c e5 a2 0b 3c 85 31 d3 3d
       -0.040785126 0.026963813 0.008522724 0.103121795
000390 d1 56 cd 3d f0 0d 10 be e1 a9 93 3d 39 f3 8a 3d
       0.100263245 -0.14067817 0.07210136 0.06784672
0003a0 68 c1 08 be f1 5b ad 3c ac f1 36 3d 8b e3 11 3d
       -0.13355029 0.021162005 0.04466407 0.035617393
0003b0 02 f6 db 3b 32 f1 32 3d b3 cb e7 bd ff a0 cd bb
       0.006712676 0.043687053 -0.113181494 -0.0062752957
0003c0 60 12 b6 3d c2 d3 a8 3d a8 ba 7a bd a0 3b f5 3b
       0.088902235 0.082435146 -0.061213166 0.0074839145
0003d0 d1 2d 3f 3d 41 80 96 3d 9f 9e ca 3d 08 30 a3 3b
       0.046674553 0.07348681 0.09893536 0.004980091
0003e0 e3 c9 d1 bc 1f 6a b1 bd 19 20 13 bc de 87 e7 bb
       -0.025608962 -0.08662819 -0.008979821 -0.007065757
0003f0 2c bd a3 3c bd 48 7f bc 0d 97 f9 bc e0 24 1e bc
       0.019987665 -0.015581307 -0.030467534 -0.009652346

layer2.0.bn2.weight f4 [32]
000000 88 e3 3b 3f 89 0a 6d 3f 51 a5 64 3f a0 f6 80 3f
       0.7339406 0.925942 0.8931475 1.0075264
000010 d3 00 95 3f b8 71 7a 3f 62 be 59 3f 2f 86 93 3f
       1.1640877 0.9782977 0.85056126 1.1525325
000020 46 a9 8f 3f bb a6 62 3f b5 45 96 3f 45 58 a3 3f
       1.1223533 0.8853566 1.1740023 1.2761313
000030 55 18 86 3f c7 43 70 3f d0 02 89 3f 42 20 5a 3f
       1.0476176 0.9385342 1.0703983 0.8520547
000040 e1 59 83 3f dd a7 81 3f 56 bc 8d 3f 4e 3c 77 3f
       1.0261804 1.0129353 1.10731 0.9657639
000050 14 cc 92 3f db 2a 8e 3f 61 41 80 3f 85 d5 7c 3f
       1.146853 1.1106828 1.0019952 0.98763305
000060 21 a8 80 3f 6b fc 85 3f 63 62 7a 3f f1 71 97 3f
       1.0051309 1.0467657 0.97806376 1.1831647
000070 13 0a 94 3f ee 53 65 3f ab 78 7f 3f b4 84 4a 3f
       1.1565574 0.8958119 0.997935 0.7910874

layer2.0.bn2.bias f4 [32]
000000 ec 0d 03 3e 18 48 08 bd 04 81 1e be 24 80 08 3e
       0.1279828 -0.03327188 -0.15478903 0.13330132
000010 b6 83 79 be da c2 42 be 8f dd 06 be fb 27 5b be
       -0.2436665 -0.19019642 -0.13170455 -0.2140197
000020 01 86 14 be 68 08 97 bd bf a3 01 be bc 35 d1 3d
       -0.14504243 -0.0737465 -0.1266012 0.10215327
000030 5a 2c 69 bd 91 6e c8 3b 19 ff 6d 3d 99 75 09 bd
       -0.056927063 0.006116696 0.05810461 -0.033559415
000040 6a 66 51 3b 12 f6 a2 bd 17 7c 05 be 93 d9 ee 3d
       0.0031951913 -0.079570904 -0.13035618 0.11662593
000050 f1 ab 04 be d1 07 f2 bd 64 99 1a be 57 4f 3c be
       -0.12956215 -0.11817897 -0.15097576 -0.18389641
000060 f5 55 49 bd 9a fe ec bd 63 c2 09 be 47 b1 6e be
       -0.04915424 -0.11571999 -0.13453059 -0.23309813
000070 09 71 50 be c6 87 03 be b1 39 40 be 8f a5 e2 bd
       -0.2035562 -0.12844762 -0.18772008 -0.11066734

layer2.0.bn2.running_mean f4 [32]
000000 c5 b6 3b be 41 75 3a bf bf 51 b1 3e 4f 16 a5 bf
       -0.1833144 -0.72835165 0.3463268 -1.2897433
000010 d1 73 0b bf c9 88 6f be c4 4a cf be f8 ae 48 be
       -0.54473597 -0.23392023 -0.4048673 -0.19597995
000020 45 c8 ec be 71 77 18 bf 57 5f 50 bf 28 48 80 bf
       -0.46246544 -0.59557253 -0.8139548 -1.002202
000030 28 2a 86 be 22 9b e3 be 5e aa 9e 3e ab b5 b7 be
       -0.26204038 -0.44454294 0.30989355 -0.3588079
000040 c4 98 9c bf b5 cd 84 3d be 46 80 bf f1 33 ab be
       -1.223412 0.06484548 -1.0021589 -0.33438066
000050 6e 25 22 bf fc af 82 bf 97 de 0f bf 63 0a 28 bd
       -0.63338363 -1.0209956 -0.5619902 -0.04102553
000060 60 17 cc be 0f e7 3f 3e 66 9c cd be f4 d9 39 bf
       -0.39861584 0.18740486 -0.40158385 -0.72598195
000070 b9 f1 04 bd ab 7d 34 bf 9a 58 c2 be 5d 12 3e 3e
       -0.032457087 -0.70504254 -0.37958223 0.18561693

layer2.0.bn2.running_var f4 [32]
000000 67 4a 0a 3f 4a a2 cc 3e 46 f5 cb 3e 00 00 25 3f
       0.5401978 0.39967567 0.39835566 0.64453125
000010 40 64 37 3f 99 94 f6 3e 92 df df 3e f0 b0 18 3f
       0.71637344 0.48160246 0.43725258 0.59644985
000020 1d 32 58 3f d5 2d d4 3e 5b ca 10 3f 59 8a 1e 3f
       0.84451467 0.41441217 0.5655877 0.6192985
000030 8e d8 20 3f 1a 82 01 3f 84 72 fe 3e d5 2f c7 3e
       0.62830436 0.50589144 0.49696743 0.3890368
000040 6c 6f 0f 3f 22 3a 49 3f 81 a9 2d 3f f1 14 1e 3f
       0.5602939 0.7860433 0.6783677 0.61750704
000050 a5 7e 3b 3f f1 32 51 3f cf 99 1f 3f c6 26 0f 3f
       0.7324012 0.81718355 0.6234407 0.5591854
000060 b6 2f 67 3f ff 5e 3a 3f 64 b6 1a 3f f6 3f 07 3f
       0.90307176 0.728012 0.60434556 0.5283197
000070 b8 69 21 3f 18 dd ea 3e d9 3b 00 3f ca 86 18 3f
       0.6305194 0.45871806 0.5009132 0.5958067
