Result/student/resnet8_0.025_0.025_3_Acc _ 84.89_2CH_31_128 # 1_best.pth.tar (torch_old, 324199 bytes, 47 tensors)

conv1.weight f4 [16, 3, 3, 3]
00000000: b4cd e93e a753 2c3f 4576 213f 5be4 aabd
00000010: 40a7 3e3e 3def 8a3d 8c04 0fbf 6b56 d3be
00000020: a5a4 f6be 0432 4a3e 62fd 93be 5207 0ebe
00000030: ce73 81be 5908 26bf fc90 50be 7e48 993e
00000040: 6f49 7d3e 15c1 a23e 0a1c 9dbe a240 dfbe
00000050: 4972 1fbe 48f7 52be aca6 88be c1e3 0bbd
00000060: e2d0 d23e 9c5f 123f 46d9 863e 9dc8 98be
00000070: 2a66 13bf 4cd7 5ebf c4c4 1c3f 0458 94bf
00000080: 8cb3 5a3f 4e40 263f 933d 0b3f 10c4 fc3e
00000090: a9ab bf3e 0d0e 1d3e 9bab 53bd f335 d23e
000000a0: 90ff b2bf babd 723f 662e 8bbd 9e0c 21bf
000000b0: fe63 b33d 2b30 333c 4837 1d3f 1846 9b3d
000000c0: 1b07 db3e 4956 42bf 9ee2 723f c2aa 20bf
000000d0: a11b 22bf 99b5 06bd 1d5b 3c3e e2b8 a13e
000000e0: 3e19 27be eb75 1b3e 0e88 0a3f ed33 88be
000000f0: 10c7 653f 788a 86bf 6b3d 14bf 19ba f1be
00000100: df5b 42be d338 253e 1982 d8be d02f 433e
00000110: 3809 223f c4a2 963e aa32 5abf cd69 2e3f
00000120: 2ef9 ce3e 3af3 2a3e c19a 82be fba0 f63d
00000130: cc28 213f 47f7 29be 57ca 123d a611 75bf
00000140: 8500 9dbd d325 06be a747 2dbe b8ec 673b
00000150: 8a34 b03e 36f6 2bbe 66a3 86be f607 c23e
00000160: 6ce8 40bc 62e8 0dbf 8318 8f3e f03c 003d
00000170: 7c79 4f3e 9964 273e 266d b03d 4e20 47be
00000180: dd2f 4b3e 30b6 cabd 2aa2 18be b24e 01be
00000190: 1dc1 f5bd 6b5c 623e 11be abbe 0575 73be
000001a0: 9658 19be 1b21 96bb 2b36 d4bd 08d6 86be
000001b0: f92a c1be ca9d 0bbf a16f aabe 8d72 a7be
000001c0: b677 4abe 4168 18be ad90 fc3b 0956 72bd
000001d0: 6a71 37bd c428 093f ce8f 013f a568 ce3d
000001e0: 385b 3c3f e418 7c3f 171d 2c3e 3fc9 613e
000001f0: 524a c03e 73cd b23d 89b8 88be dcd7 9dbe
00000200: bc4a 383e 925c c5be f8da 84be 3194 c7bd
00000210: 2b0d 99be 23bd ebbe 6c8e 13be f399 99be
00000220: 9651 ed3e d607 8b3e 3423 2abf 2e72 a13e
00000230: 005b 1e3f 6b73 bebe d284 98be 2da9 c43e
00000240: 3f41 f2bd babc 3dbe d1ce 04bf f523 85be
00000250: 6a2f 0ebf ad51 d6be ce97 1c3f 74b9 6ebe
00000260: d259 433c de4c 403e 1ff4 633e 6c23 d23b
00000270: 769a d33e 6bff f83e a4f1 92be a195 f03e
00000280: d1b7 69be 9f29 e6be 17af df3e 9d3d c6be
00000290: 50df 75bd a1e0 12bf 714f 6b3f 9698 7d3f
000002a0: 071c 463e 9cf3 04bf ae66 86bf 5436 863e
000002b0: c451 14bf bfcd bcbe 5a7c 1dbf 9058 a43f
000002c0: 59af a43f 7154 d93d 5620 01bf 3b15 5bbf
000002d0: e27e 173e 26de 8cbf 6323 3abf 42fa 88be
000002e0: b9e8 573f f68e 9a3f ecc8 eb3e a42c 1abe
000002f0: 98d0 d7be df4b acbd a99f c4bb a582 2f3c
00000300: 3eeb 04be dd36 413f 5e31 17bf 2e1d 82be
00000310: 9c2d 3a3f 9c6e f2be 51f5 363e a2c6 f03c
00000320: 3ac8 1abd fe5a db3e 0f9b 533f 606a 9dbf
00000330: c52b d03e 2cd9 063f c57a 87bf 903e 69be
00000340: 8ed9 a2bd b48d 573e 197f cb3d e11b 203f
00000350: 7e28 39bf 9ee5 b53d 4870 263f b22b 29bf
00000360: a3d5 263e 8ab6 9f3e d7e6 9e3e 20c0 18be
00000370: 2bd8 e2bd f0c5 e13c 28fb 56be 84a9 d7be
00000380: f341 d5be d71a d93c 5297 053e cbf9 9a3e
00000390: 94b9 00bf d84f 6f3d 2cc4 4abd f9dc 7ebe
000003a0: 8a9c c3be 7c5c 6abe 8e35 e13d de16 f13e
000003b0: f89f d53e d7bc 4bbe c26e 723e 20e9 d83e
000003c0: 66dd ddbd 1f24 813d bbb1 fbbc 0f3d fbbc
000003d0: bc4b 2fbf 4f12 72bf 76fb 813d f0ea ff3e
000003e0: a762 a5bd b1a6 96bc 14c0 8f3e 4cbf 453f
000003f0: fd9a 403e 6f93 02bf f5d9 4dbf e8c0 373e
0.45664752 0.67315143 0.6307109 -0.083443366 0.18618488 0.06783912 -0.55866313 -0.4127687
-0.4817249 0.19745642 -0.28904253 -0.1386998 -0.25283664 -0.6485649 -0.20367807 0.2993812
0.24735044 0.31787935 -0.30685455 -0.43603998 -0.1557094 -0.20602143 -0.2668966 -0.03415275
0.4117499 0.5717714 0.2633764 -0.29840556 -0.57577765 -0.87047267 0.6123774 -1.158936
0.85430217 0.6494187 0.5439083 0.49368334 0.37435654 0.15337391 -0.051677328 0.41056785
-1.3984241 0.9482075 -0.06795959 -0.6290988 0.08759306 0.010936777 0.6141248 0.07581729
0.4277886 -0.7591291 0.9487704 -0.62760556 -0.6332341 -0.03288803 0.18394132 0.31586367
-0.16318223 0.15181701 0.5411385 -0.26602116 0.8975687 -1.0511007 -0.57906216 -0.47212294
-0.18980359 0.16134958 -0.42286757 0.19061208 0.63295317 0.29421055 -0.8523356 0.6813019
0.40424484 0.16694346 -0.25508693 0.12042423 0.62952876 -0.16598235 0.035837498 -0.95730054
-0.07666115 -0.13100366 -0.16921864 0.0035388898 0.34415084 -0.16793141 -0.26296538 0.378967
-0.011774164 -0.55432713 0.27948388 0.031308115 0.20261186 0.16346969 0.086145684 -0.19445917
0.19842477 -0.09898031 -0.1490561 -0.12627676 -0.11999724 0.22105567 -0.33543447 -0.23775108
-0.14975199 -0.004581583 -0.10361894 -0.26335168 -0.37728098 -0.5453764 -0.3328829 -0.32704583
-0.19772229 -0.1488352 0.0077076764 -0.05916408 -0.044785894 0.5357783 0.50610054 0.10078553
0.7357669 0.9847548 0.16807972 0.22049426 0.37556702 0.087305926 -0.2670329 -0.3082875
0.17997259 -0.38547188 -0.2594831 -0.09745062 -0.2989286 -0.46042737 -0.14409798 -0.30000266
0.46351308 0.27154416 -0.66459966 0.31532425 0.61857605 -0.37197432 -0.29788834 0.3841032
-0.11828851 -0.18529025 -0.51878077 -0.26003996 -0.555411 -0.4185919 0.61169136 -0.23312932
0.01192327 0.18779323 0.22261094 0.006412914 0.41328782 0.48632368 -0.28699982 0.46989158
-0.22824027 -0.4495363 0.4368827 -0.38718882 -0.06002742 -0.57374007 0.9191809 0.9906095
0.19346629 -0.5193422 -1.0500085 0.26213324 -0.57937264 -0.36875722 -0.6151787 1.2839527
1.2866012 0.10611809 -0.50439966 -0.8557927 0.14794496 -1.1005294 -0.72710246 -0.26753432
0.8433948 1.2074878 0.4605173 -0.15056092 -0.42151332 -0.08412909 -0.0060004783 0.0107123
-0.12980363 0.7547434 -0.59059703 -0.25412887 0.72725844 -0.47350013 0.17867018 0.02939159
-0.037788607 0.4284286 0.82658476 -1.2298088 0.40658394 0.5267513 -1.0584341 -0.22777772
-0.079516515 0.21050149 0.09936351 0.6254254 -0.7232741 0.08881687 0.6501508 -0.660823
0.16292433 0.31193954 0.31035492 -0.1491704 -0.11076387 0.027560204 -0.20994246 -0.42121518
-0.41651878 0.026502056 0.13046005 0.30268702 -0.5028317 0.058425754 -0.04950349 -0.24888982
-0.38205367 -0.22886842 0.10996543 0.4708776 0.4172361 -0.19896255 0.23675063 0.4236536
-0.10833244 0.06305718 -0.030724397 -0.030668763 -0.68474936 -0.94559187 0.063467905 0.4998393
-0.08075457 -0.018390032 0.2807623 0.7724502 0.18809123 -0.51006216 -0.804107 0.17944682

bn1.weight f4 [16]
00000000: 0ba9 143f 89d6 8b3f b91e 733f 982c 843f
00000010: 610d d13e 1e4e e03e 659b 873f f0f7 6b3f
00000020: ffb6 d53e 07fa 343f b76e 4e3f cc7a 523f
00000030: ae1b b23e 1505 273f aacd dd3e 9199 4f3f
0.5807044 1.0924846 0.94968754 1.0326109 0.4083052 0.438096 1.0594298 0.921752
0.41741177 0.7069401 0.8063769 0.82218623 0.34786743 0.6524213 0.43320972 0.810937

bn1.bias f4 [16]
00000000: a552 e3bd e3b1 243f 78de 483f eadc 32bf
00000010: bca9 453d bc1c 643e e493 9cbd 41b5 f5bc
00000020: 78ac 78bc 9cdf 8a3c 301a 263d a1b1 683d
00000030: b9c8 f73d b969 8fbe 06c5 743c 61da 113f
-0.110997476 0.64333934 0.7846446 -0.6986834 0.048257574 0.22276586 -0.076453954 -0.029993655
-0.0151778385 0.016952328 0.040552318 0.056810025 0.12098832 -0.28010347 0.014939552 0.56973845

bn1.running_mean f4 [16]
00000000: 3512 5d3d 1b49 7e3d 582e 243c 8070 783e
00000010: 0d0e dabc 3541 183e 204e f5bd dba0 d9bd
00000020: 3bc6 d83d 5294 50bd 0096 303d 8a8e be3d
00000030: 83a1 b83d 7832 b63e 0567 5bbe f8f0 fcbd
0.05397244 0.062081438 0.010020815 0.24261665 -0.026618028 0.14868625 -0.11977792 -0.10626384
0.105846845 -0.0509227 0.0431118 0.09304531 0.09015181 0.3558538 -0.21426018 -0.12350649

bn1.running_var f4 [16]
00000000: 1547 163f edbc 2040 96ae 963f 61ba df3f
00000010: 6450 493f 870b 063f ee92 7d40 1b0e b040
00000020: 603a 4840 95e8 a140 afbe 7640 42ed f240
00000030: d1ba aa3f 352d 3240 0d82 793f bf50 4340
0.5870221 2.511531 1.1772029 1.7478753 0.7863829 0.5236134 3.9620929 5.501722
3.128563 5.0596414 3.8553884 7.591462 1.3338262 2.7840092 0.97464067 3.0518034

layer1.0.conv1.weight f4 [16, 16, 3, 3]
00000000: 13b0 97be 1b5d 03bc 5301 a9bd 14ea 41be
00000010: 371a afbb 3322 0fbe a7ec 4fbe 322c 08be
00000020: 5d0f 3bbe 1ed3 153d 2eac 4bbc fb6d abbc
00000030: bedb ee3d f1a5 973d 6c1b 2cbd 7783 babd
00000040: cf51 a0bd ee0c 9c3c a66f 97be 990b dbbe
00000050: b05f cabd f428 babc 1bf7 3d3e 8e77 693e
00000060: 559c ad3b a24a d9bc 7f8f e53d f882 4b3e
00000070: e10f aabd cba1 93bd 7ea4 f13d ab55 81be
00000080: 87db 07be 9e59 0c3e 84e8 11be 43c4 e2bb
00000090: 4cac fdbb 9769 743d d72e 263e bd16 51be
000000a0: c9dc 2a3e ab6d 5f3d ce55 15be 62c5 81be
000000b0: 12b0 0dbd 4697 e23e 243c 8f3c 76f9 1c3d
000000c0: f7e7 4d3e c01d 0f3d acd6 d3be c062 7e3e
000000d0: b0af 54bd b670 c7be 0e74 23be ae6a 98be
000000e0: 7e14 10be f35b fdbd ee0b 9fbd e3c6 5bbe
000000f0: 6c1f 22be 554c 27be ec83 f03d 850a 1bbe
00000100: d964 093e 8adc 703e 3255 a9bd 1e54 47bd
00000110: a951 463e 7464 6dbd 36ef 52be 7d92 5c3e
00000120: 97ce 49be 12e3 5abd 5b8a 2e3e ad74 ad3d
00000130: 292e 2abe 405a 05be 875b eebd f250 28be
00000140: a98e 65bd 2990 43be c336 08be f7ab 89bd
00000150: 318d 85be 6cac c63d 4d8e fa3d c7f8 80be
00000160: d76c 89bd 6c17 56bc 0077 0d3e 6401 a23e
00000170: 5620 813d db3e e9bc 81bf 523e 9031 f13b
00000180: b84f 73bb 6b8d 98bb e5e3 88be 8413 403e
00000190: fce4 e7bd de47 bbbd 0738 683d dc00 9dbd
000001a0: 6849 f93d 18a4 0f3d 99e0 a6bd 6e40 423b
000001b0: ec59 2e3e 5811 babc 952d 093d d769 0dbe
000001c0: fd47 7ebe 89db 9d3b 0a3e c7be 81a8 97be
000001d0: 4b9e bcbe c656 ebbc 47ca 003e f48d 7ebd
000001e0: 5ccf 0dbe 8dbd f1bb 8dbe c03d 0751 07be
000001f0: b46a 543e 002f 66bd e172 9dbd 631f bbbd
00000200: 7a5c 35be b1ee 9a3d 4f83 24be cff5 32be
00000210: 1a06 33bb 12f9 1f3d 3b66 693e b0bc c33d
00000220: e818 d1bd 9103 f5bc cbbd 623e df8e 8f3d
00000230: b25d 96bd 53ce 363e e5e1 01bd 377a 0f3e
00000240: 7de7 c83d 43c8 00bd b8bf 0d3e f4ad d93c
00000250: 07de 9abe fc78 22be 4ac8 753e 0367 cebc
00000260: 99b7 6cbc 85a5 81bd 6eba 803e eec7 42be
00000270: 1db1 0fbf 0058 653f 773f 2bbf aaf0 94be
00000280: 2643 983e 9703 35be 164a 8ebe 1dd9 1f3f
00000290: e1d6 c4be 24b2 a6bd d8b0 fc3e e468 c4be
000002a0: 98c6 1b3e 0f23 e33c 30fa 81bd 3102 9dbd
000002b0: 6bb5 bd3d c9c1 07be 8e46 503e efb2 30be
000002c0: c7fe e53b 60bb a5bd eecf ea3c b9a2 9238
000002d0: 1657 203d 3395 24be 34eb d43d ee9d 0ebd
000002e0: 2ee6 20be 3fa9 4e3e 4ae2 6d3d e056 bfbe
000002f0: a150 243e 818e f0bc 8eec 263e 1ab2 00be
00000300: fc47 b9bc 3b45 0b3d 432d b6bc 3acf 09bc
00000310: e63f a7be c660 0e3e 03f7 b33d 1777 01be
00000320: 2f6a 403c e791 4abe 1b12 33bb 95f6 ca3d
00000330: c1c2 4f3b cfbe 1ebd 6149 813b d533 50bd
00000340: 1c8c 71be 039d 08be 576e d93e ecd2 90be
00000350: db95 be3e 803c de3d 2445 2abe d35e 05be
00000360: 19c9 8a3e 5981 c13c 0403 cfbc 2893 c1bd
00000370: 84ce 403d b282 38bd db63 1abe 9836 0bbe
00000380: 6264 c63d 5343 acbd 5eff 7d3e f97b 7dbd
00000390: de3a bcbd b64f f53d ea6f 76bd d0b5 c7bd
000003a0: 175a d13d b319 663d 78d1 43be 5d56 3b3e
000003b0: b452 0dbe 3422 babe 7cc8 bb3e 659b 25bd
000003c0: 34e7 2fbe d4fa 9c3d cbb2 923d b088 b8bd
000003d0: d119 043d c474 163d d3e7 d3bc 149b 183e
000003e0: c50d 57be 5bfa 06be 8a88 c73d 42ef 283c
000003f0: 8697 063e 7e80 413e 6e0d 723d e77b 3cbd
-0.2962652 -0.008017804 -0.08252206 -0.1893695 -0.005343701 -0.1397789 -0.2030512 -0.13298109
-0.1826758 0.03657829 -0.012431188 -0.020926466 0.11663006 0.07404698 -0.04201834 -0.09107106
-0.07828104 0.019049134 -0.29577368 -0.42782286 -0.09881532 -0.022724606 0.18551295 0.22799513
0.0052981772 -0.026524846 0.1120901 0.1987418 -0.0830381 -0.07208594 0.117989525 -0.25260672
-0.13267337 0.13706061 -0.14248854 -0.006920369 -0.0077414867 0.05967101 0.16228805 -0.2041883
0.16685785 0.054547947 -0.14583513 -0.25345904 -0.03459174 0.44256037 0.017484732 0.038323842
0.20108019 0.03494048 -0.4137472 0.24842358 -0.05192536 -0.3895318 -0.1596224 -0.2976889
-0.14070317 -0.123710535 -0.07765947 -0.21462588 -0.15832299 -0.16337712 0.11743912 -0.15140732
0.13417377 0.23521629 -0.08268203 -0.048664205 0.19367088 -0.057957128 -0.20599064 0.21540256
-0.19707714 -0.053439207 0.17044966 0.0846952 -0.16619171 -0.13022709 -0.11638551 -0.16437128
-0.056044254 -0.19097961 -0.1330214 -0.06722253 -0.26084283 0.097008556 0.12234173 -0.25189802
-0.06710213 -0.013067108 0.13814926 0.31641686 0.06304996 -0.028472355 0.20580865 0.0073606446
-0.0037126373 -0.00465553 -0.2673637 0.18757445 -0.11322972 -0.09144567 0.056694057 -0.076661795
0.12172204 0.0350686 -0.08148307 0.0029640454 0.1702649 -0.022713348 0.033490736 -0.13809906
-0.24832149 0.0048174304 -0.3891452 -0.29620746 -0.36839518 -0.0287279 0.12577163 -0.062147096
-0.13848633 -0.0073773325 0.09411345 -0.13214503 0.20743829 -0.056197166 -0.07687927 -0.09136846
-0.17711058 0.07565058 -0.16065715 -0.17476581 -0.002731687 0.03905589 0.22792904 0.09557474
-0.102098286 -0.029908927 0.22142713 0.070096724 -0.0734209 0.17852144 -0.03170957 0.14011465
0.09809778 -0.031440984 0.13842666 0.026572205 -0.30247518 -0.15866464 0.24002185 -0.025195604
-0.01444807 -0.063303985 0.25142235 -0.1902158 -0.5612963 0.895874 -0.66893715 -0.29089862
0.2973873 -0.1767715 -0.27790898 0.62440664 -0.3844519 -0.081394464 0.4935367 -0.38361275
0.15212476 0.027726678 -0.063465476 -0.076664336 0.09263118 -0.13257517 0.20339414 -0.17255758
0.007018897 -0.080923796 0.028663602 6.992132e-05 0.03914555 -0.1607254 0.10396424 -0.034818582
-0.15712807 0.2018175 0.058077134 -0.37370968 0.16046382 -0.029364826 0.16301176 -0.1256794
-0.022617333 0.03400157 -0.02223838 -0.008411223 -0.32665938 0.13904104 0.08787348 -0.12643085
0.011744066 -0.1978222 -0.0027324024 0.09910313 0.0031701776 -0.038756188 0.003945515 -0.05083068
-0.23588604 -0.13341145 0.42466995 -0.2828592 0.37223706 0.10851383 -0.16627938 -0.13024454
0.2710655 0.023621248 -0.025269993 -0.09451896 0.04707195 -0.045046516 -0.15077154 -0.13595045
0.09687115 -0.084112786 0.24804446 -0.061885808 -0.091909155 0.11978094 -0.060165323 -0.09751475
0.102222614 0.056176852 -0.19122875 0.18294664 -0.1380108 -0.3635422 0.36676395 -0.0404314
-0.1717804 0.07665029 0.07163008 -0.09010446 0.032251183 0.03673245 -0.025867378 0.14902908
-0.21001346 -0.1318144 0.0974284 0.01031095 0.13143739 0.18896672 0.05909484 -0.0460166

layer1.0.bn1.weight f4 [16]
00000000: 4f40 373f b3ff aa3f 1f18 083f fe1b a13f
00000010: 30f7 463f 62da 6c3f 3ea5 603f ee8e 363f
00000020: 1458 733f 5569 433f 8e61 7f3f ce99 613f
00000030: 9f8f 793f dfe1 823f 0364 893f 5ac7 723f
0.715825 1.3359283 0.53161806 1.2586668 0.7772093 0.92520726 0.8775214 0.71311843
0.9505627 0.763326 0.9975823 0.8812531 0.97484773 1.022518 1.0733646 0.94835436

layer1.0.bn1.bias f4 [16]
00000000: 209d 623e b53e db3b 54e4 b33e 4db8 5abe
00000010: 01c5 7e3d 0de8 a2bd 7aae 883d 68d0 0dbe
00000020: 1f78 e4bd 366f 67be eeb2 adbd 38f8 6e3d
00000030: a7a3 c03d 5e2b 0b3d a87a 72be 59c5 5abe
0.22130251 0.006690825 0.35135138 -0.21359368 0.062199596 -0.079544164 0.06673904 -0.13849032
-0.11155724 -0.22601017 -0.08481394 0.05834219 0.09406214 0.033976905 -0.23679602 -0.21364345

layer1.0.bn1.running_mean f4 [16]
00000000: f6ed 55bf 4684 d1be 5686 c43f 9841 21bf
00000010: e629 20bf 7603 34bf 1c56 79bf 1755 a63e
00000020: cdc2 afbe f5c8 5cbe 486b d2bf 19a2 b6be
00000030: 9389 a8bf a54c 99bf 6b21 ccbe 59c3 e0bf
-0.83566225 -0.4092123 1.5353496 -0.62990713 -0.6256393 -0.7031778 -0.9739702 0.32486793
-0.3432831 -0.21561034 -1.643899 -0.35670546 -1.3166984 -1.1976515 -0.39869246 -1.7559615

layer1.0.bn1.running_var f4 [16]
00000000: 91e3 a63f 84af 2441 30ee ad3f 37e0 2a40
00000010: 1233 b93f 4323 0b40 654e ab3f ab36 df3f
00000020: 6666 4b40 7fe5 9b3f cb75 f63f e4c0 b03f
00000030: de2e 0e40 f7c9 fd3f 7956 2f40 d208 d23f
1.3038198 10.2928505 1.3588314 2.669935 1.446871 2.1740272 1.3383299 1.7438558
3.178125 1.2179412 1.9254698 1.3808866 2.2216105 1.982726 2.7396529 1.6408942

layer1.0.conv2.weight f4 [16, 16, 3, 3]
00000000: cee9 36be 8cb3 13be 77cc 39bd 33bf 36be
00000010: 42f9 0a3e fc5e 843e 74b1 42be 35dc e1bd
00000020: 85c1 6f3d 3d0d 373e 9d79 02be 4b6f 2e3c
00000030: 0cb3 1c3e 4300 613e 392f 9d3e e071 d23d
00000040: 7444 a03e 7fba 703e 6274 a9be 7edd 63be
00000050: cafb aabd 337d a0be 5d90 08bf 42da 8bbe
00000060: 365b a33d 013c c2bb 99a7 8cbd edaa 2abe
00000070: f64c 43be ce88 313d 87d6 13be 3b99 17be
00000080: 74f0 fe3d e5dc ce3d 40ee fd3a ec99 bf3c
00000090: 6908 b73d 65f7 523e 8f6b 6c3e ff1c 6dbc
000000a0: 8287 14bc 5628 923e c1b3 edbd d040 f0bd
000000b0: b7d3 8ebd fdc1 08bd 0990 8ebd 1923 35be
000000c0: eb9b 64be 93cb c1be a3c1 62be fef2 9bbe
000000d0: 1f2b acbe dbcf f0bd 445b 4bbe 7bdb 60be
000000e0: 9ad6 0b3e cca5 a03c aada a2bd 4ec2 903e
000000f0: 9013 9e3d 774c 36be 464f a3bc fc83 e93d
00000100: b541 6d3e cddc 6f3e 08dc 143e c04d 373e
00000110: 1113 8cbd 0ac2 e5bc 8c5f c9bd d399 dd3d
00000120: bfa4 dbbd 232d a6bd 3f3f 98be 6f2a d2b9
00000130: 964c 12be dc52 76be 28e4 983c add5 96bd
00000140: 59e0 5dbd 93da 81be 0bd3 4fbe c797 06be
00000150: bca4 81be 31ae a3bd a388 c73d 5f94 673d
00000160: 4bd9 ecbd ded1 173e 8a16 08be e518 4b3d
00000170: cc3e 6ebe 6d7a 25be 0f3a 823b 840d 60be
00000180: 5f23 c2bc 714d e4bc d1db 8cbd e4fc 4dbe
00000190: a706 d3bd ce42 8dbc facf 023e beb0 923e
000001a0: 7f6f 593c 3597 ac3d 4ca0 a73d 8039 9e3d
000001b0: 570a 32be 088c 5cbd fa56 173d 942f 47be
000001c0: 39e6 85bd f0cd 5c3e a9fc cbbe 112f 093e
000001d0: 0443 d03d c592 6a3e e532 b7bd 037e 32be
000001e0: 1f6e 1d3e a96e 8c3d 7371 553d 2f24 df3d
000001f0: 96c7 923d e038 cb3d e724 583d 55c1 8fbe
00000200: 5c8c 1dbd 63a1 d8bd 105a 1dbe fcc4 e43d
00000210: 5c61 503d 579e dfba 8e07 613e 7911 f8bd
00000220: e089 383d 6619 79be 98bb 16bd bf7a 9a3c
00000230: e86a 3abe 40f9 213e 64d8 2f3e f8a4 203e
00000240: 5ac2 1fbe 4da9 03be 4efd 063d 4ca5 073e
00000250: 68b7 7e3e 6aa1 843d b5e3 383d 9bf8 003e
00000260: 09aa bd3e 8a97 533e 3137 bf3d 1668 203e
00000270: 05bd c23d cbf7 0fbe d882 e93c 4772 5bbe
00000280: 75ac 0fbe 1c75 0bbe 52eb 5cbe 0368 c5be
00000290: f1c2 87be ec89 f5bc 22ae 563d 9bec f7bd
000002a0: 4343 c3bd ecf2 503e 28fd 023d 5b86 89bc
000002b0: 2ed1 32ba 09be 17be d950 e7bd 738b 783c
000002c0: e21a 91bc f759 13be 5aa3 013d d22b 783d
000002d0: b6a4 913e b91f 393e 8fb3 e33d 0acc 4e3e
000002e0: 9ee0 443e 0349 df3d 8560 543d 8b20 80bd
000002f0: 1f26 99be 894b 4f3e 1197 9a3e b1b0 383e
00000300: 2ae0 3a3e 78c8 573e f303 623e 7e45 b1bd
00000310: 9dd5 b73c 28ae 8c3d ff6c 2cbe 954d 13be
00000320: 9325 e13d 6119 2e3e 2cd4 31be 9a4b b43d
00000330: 2b7b aabd e7cb cf3d e290 2cbc 7890 90bc
00000340: e9ea 3abe d2c9 213d 73cf ebbb cb70 56be
00000350: c20a 01be 6b3e 243c 41b4 7dbd a7c5 febc
00000360: a44b 25bd 2f0f f73c 8648 df3c 8999 fa3c
00000370: 7a4d eb39 be18 a33e eb6f 1f3d e019 9d3e
00000380: d292 ac3e 78c6 5cbd 0993 7f3c d7a2 8dbe
00000390: f34e 45be 6518 a13e 4892 c4bd 78e7 433d
000003a0: 8807 493e 26df 113c 2d5c 123e a7d6 943e
000003b0: f6c8 403e cfb4 17bd a540 8bbe 4d89 d2be
000003c0: 7280 2e3c 17e0 f2bc f5a4 80be a2d4 6abe
000003d0: fe89 2c3d 94cb 8ebd 4ce2 dbbc c769 2f3e
000003e0: 0461 8f3e 4d4c 8d3c 5798 173e 421b ee3d
000003f0: aa74 22be 2f3a ddbe 689c 06bf f939 2f3e
-0.17862627 -0.1442396 -0.04536101 -0.17846374 0.13571647 0.25853717 -0.19013005 -0.11028329
0.058534164 0.17876144 -0.12741704 0.0106466515 0.15302676 0.21972756 0.3070009 0.10275626
0.31302226 0.23508643 -0.33096606 -0.22252461 -0.08348806 -0.3134552 -0.5334528 -0.27314955
0.079763815 -0.005927563 -0.06867904 -0.16666766 -0.19072327 0.043343358 -0.14437304 -0.14804547
0.124482065 0.10100726 0.0019373372 0.023388825 0.08937151 0.20602186 0.23087905 -0.014472245
-0.009065511 0.285464 -0.11606551 -0.11731112 -0.06973975 -0.033388127 -0.06961066 -0.1768917
-0.22325103 -0.37850627 -0.22144179 -0.30458826 -0.3362665 -0.11758395 -0.19859034 -0.21958725
0.13656083 0.019610308 -0.07951863 0.28273243 0.07718575 -0.17802607 -0.019935261 0.11402127
0.23169596 0.23424073 0.1453706 0.17900753 -0.06839574 -0.028046627 -0.09832677 0.10820355
-0.10724782 -0.08114078 -0.29735753 -0.00040085937 -0.14287028 -0.24055046 0.01866348 -0.07364974
-0.054169033 -0.2536207 -0.2029535 -0.13143836 -0.25320995 -0.07992209 0.09742858 0.056537982
-0.11564883 0.14826152 -0.13289848 0.04958429 -0.23266143 -0.16159983 0.0039742063 -0.21880156
-0.023698507 -0.027868958 -0.06877864 -0.20116001 -0.10304003 -0.017243769 0.1277465 0.2865047
0.013271212 0.08427278 0.08184871 0.07725811 -0.17386757 -0.05384448 0.03694818 -0.19451743
-0.06538052 0.21562934 -0.39841202 0.1339686 0.10169032 0.2290755 -0.08945254 -0.17430882
0.15374039 0.06857044 0.052110147 0.10895573 0.07166974 0.099229574 0.052769568 -0.28077188
-0.038463935 -0.10577657 -0.15366387 0.11170384 0.0508741 -0.0017060739 0.21975538 -0.12112708
0.045053363 -0.24326095 -0.036799997 0.018857358 -0.18204844 0.15817738 0.1717239 0.1568793
-0.15601483 -0.12857552 0.032956414 0.1324665 0.24874651 0.064761 0.045139033 0.12594835
0.3704379 0.20663276 0.09336699 0.15664706 0.09508709 -0.1405937 0.028504774 -0.21430312
-0.14030631 -0.13618892 -0.21574143 -0.38555917 -0.26515916 -0.029972993 0.05241216 -0.12105676
-0.095343135 0.20405167 0.03197971 -0.016787698 -0.00068213313 -0.14818586 -0.11294717 0.015169966
-0.017713014 -0.14389788 0.031649925 0.060588665 0.28445977 0.18078507 0.111182325 0.20195022
0.1922631 0.10902598 0.05184986 -0.06256207 -0.29911897 0.20243658 0.3019338 0.18036152
0.18249574 0.21072567 0.22071819 -0.08655833 0.022440726 0.06869155 -0.16838454 -0.14385064
0.10993495 0.17001869 -0.17366093 0.08803482 -0.08324274 0.10146313 -0.01053259 -0.017647013
-0.18253674 0.03949911 -0.0071963607 -0.20941465 -0.1260176 0.010024647 -0.06193948 -0.031100107
-0.04035534 0.030158607 0.027256262 0.03059079 0.00044880417 0.31854814 0.038925093 0.30683804
0.33705765 -0.053900212 0.015599021 -0.276633 -0.19268398 0.31463924 -0.095982134 0.047828168
0.19631779 0.0089033 0.14292975 0.29070017 0.1882666 -0.037037667 -0.27197757 -0.41120377
0.010650741 -0.02964787 -0.25125852 -0.22932675 0.042123787 -0.06972423 -0.026841305 0.17130195
0.28003705 0.017248297 0.14804207 0.11626293 -0.15864816 -0.43208453 -0.52582407 0.17111959

layer1.0.bn2.weight f4 [16]
00000000: ddf9 9f3f ff8a 673f 701f 883f 96f6 5b3f
00000010: 3196 4e3f 3533 353f e291 443f fcc2 a03f
00000020: 83e0 aa3f 7595 a33f c13b 483f 0275 983f
00000030: c085 a63f 8bcc 813f 1428 353f 09bd 843f
1.2498127 0.90446466 1.0634594 0.85923135 0.80697924 0.7078126 0.767851 1.2559505
1.3349766 1.2779986 0.7821618 1.1910708 1.3009567 1.0140547 0.7076428 1.0370189

layer1.0.bn2.bias f4 [16]
00000000: 1cbd 913e 269b 2ebf 4b46 f03c 8f99 0f3e
00000010: e2d1 963d 71a4 933e 643b 7c3e e511 0f3e
00000020: bfac 093f 2f76 edbe 4237 de3e d1b6 8fbe
00000030: 3ca1 7b3d 9baf 0a3f 1c63 043f 5c45 983d
0.28464592 -0.6820549 0.029330393 0.14023422 0.07364251 0.28836396 0.2463203 0.1397167
0.53779215 -0.4637923 0.43401533 -0.28069165 0.061433062 0.541742 0.5171373 0.07435104

layer1.0.bn2.running_mean f4 [16]
00000000: 90a7 90bf 6e65 d4be 2974 a73f 9b4e 6d3f
00000010: e314 453d a96d df3e f089 ac3e 7066 96bf
00000020: d0ca 88bf f99f 81bf 2578 92bf 1b01 b3bf
00000030: 3643 4cbe b94c ddbf f357 20bf 452f 9ebe
-1.1301136 -0.41483635 1.3082324 0.9269807 0.048115622 0.43638352 0.33698988 -1.1750011
-1.0686893 -1.0126945 -1.1442915 -1.3984712 -0.19947514 -1.7289039 -0.626342 -0.3089544

layer1.0.bn2.running_var f4 [16]
00000000: 0c4c c33f 34b9 7d3f 1686 d53f 77b3 893f
00000010: a7b9 943f 4ece 833f 0fb3 873f 3ef9 ae3f
00000020: 89d9 3540 8830 ec3f 7149 c63f 38b4 f93f
00000030: dd16 be3f e7f8 1e40 fd3b 543f 1a90 f83f
1.5257583 0.9911072 1.6681545 1.0757893 1.1619157 1.0297334 1.0601519 1.3669813
2.8414023 1.845231 1.5491163 1.9508123 1.4850727 2.4839418 0.82904035 1.9418976

layer2.0.conv1.weight f4 [32, 16, 3, 3]
00000000: f506 2a3d d11c e0bd ef25 16be c98b ecbc
00000010: 5056 e73c 3a75 85bc 85e5 223e 4bc0 773d
00000020: bb38 bb3c c288 4fbc 7f04 93bb ef55 c23d
00000030: 83b9 993d fce2 d1bb fa28 dd3d a32b 77bd
00000040: 3b91 afbd 8b0a 9ebc b060 c4bd 6691 59be
00000050: 2f8f 8bbe 62b8 88bc 336d efbd 4f1e 6fbe
00000060: d140 ebbc a2fa 8cbd 9eb4 a8bd b39a c43d
00000070: 574f c23b b16e 073e 7a03 8abd 0700 29be
00000080: 73c8 5dbd b9f7 94be fbda 81be 1ce6 56be
00000090: 2f54 67bd e33a fa3c 5385 a63d 1bc6 6d3e
000000a0: 8420 5b3e 98a0 b73d 1ba1 1f3e bc67 5e3e
000000b0: a0fc 3bbb 7f5f bc3d b6f9 313d e7aa 1a3e
000000c0: 2380 073c e0f3 07bd 369e 36bd 2487 45bd
000000d0: 1897 c7bd 9cc9 66bd ff92 8cbd 872f dc3d
000000e0: eed9 a1bc 5972 e53b 569a 033e e804 cc3d
000000f0: d0c6 c0bb f42a 19bd f961 743d f33c 15bb
00000100: 4c5b 923d 8717 623d aa8e 1a3e 3ede 103e
00000110: f06b ec3d 76e9 e33d 74be 793d f5ca 4e3d
00000120: b1b2 a8bd 64e7 66be d293 09be 7a76 62bb
00000130: ca30 d9b9 4056 b9bd fcfd 23be 7f47 69bd
00000140: ba87 4a3b f605 6f3d dcdd 2b3a 19fb b23c
00000150: 00a1 8d3c e713 9c3d 019e 9e3d eac6 943d
00000160: ea4d 813d 6367 763d 7752 7e3d d0da 20be
00000170: ebf6 38be 6cf7 bfbd 4158 fb3d bae3 e3bd
00000180: aecc 47bd d3d7 3c3d 75d2 89bd dbff 64be
00000190: 778c 96be 6329 d2bd 033f 63be 15e4 82be
000001a0: a385 76be cfa1 a3bd e5e3 12be a2a6 00be
000001b0: 37e1 473d 1d07 8a3e e2bc 9f3e 46b1 ba3c
000001c0: d198 a1bd c469 273d df5e b0bd 85ea 60be
000001d0: db52 b9bd 8837 363d 8a4d b23d a2cd bc3c
000001e0: 42ea 84bb c764 393d 4166 573c 4906 22bd
000001f0: f3d2 5cbd 4663 68be cb14 2abd cd44 b4bd
00000200: 2a64 97bc f2f8 c9bc e095 a93d 1e30 753d
00000210: 2eca a9bd 26b8 44be 7404 6abe 6357 23be
00000220: a06e 8ebe 639c 90be a8d3 18be 4f21 5ebe
00000230: df52 23be 84ac 793d bb12 c53c 24b1 67bd
00000240: edfc 3dbd 968b 1bbd 6ec9 08be c8e7 e63d
00000250: 2c44 653d 2311 ea3b 05db 6a3d a85c a03d
00000260: 84ea 843d 5710 67bd 930e 8fbe 62b4 00be
00000270: 91c7 b4bc 531b bbbd bdf1 b8bd e6fb 1fbe
00000280: 9817 e9bd 0767 863d 10fb 003e 3e72 a5bc
00000290: 63c0 503d 952f 173e 17e0 0e3c efdd 993c
000002a0: bc06 2c3e 6657 e6bc ffbf 26be aa61 51bd
000002b0: 8be6 2bbd 73ab f3bd de17 0c3c d863 5c3e
000002c0: f32a 013e 2b74 7f3c 975e a73d 8c8f 093d
000002d0: b17b 423d 7b78 e73d c773 1c3e 1a31 8fbd
000002e0: 747a 083e 95c8 303e 50e4 1c3c 2861 063e
000002f0: e63c cc3d 78fb eebd a374 64bd 7e3e 5e3c
00000300: c550 59bc 3c3e da3d de5d 303e 89b0 783c
00000310: 24e5 c5bc 47df f93d 1364 a9bd 7cc9 d13c
00000320: a99f 433d 889c 3bbd 41bb e1bd 1109 6abd
00000330: 6927 8abc b0c1 bebd 32f8 0c3d 8ecc 2c3e
00000340: 53fd 86bc 2853 dfbd bb33 97bd de80 02bb
00000350: e886 003e 796a 21be 7cb5 c93d 4f02 183e
00000360: adcb 6fbe f721 11be 59df 4fbd ed23 91bd
00000370: f056 3fbc 4448 133e 2a31 27be 9b7f 22be
00000380: 5d6e 2bbe cd50 6e3d a866 f53b 679a 64bd
00000390: 3f97 01be af49 babd 5e44 a2bd 2f7e f0bd
000003a0: c005 4fbb 0b84 db3d d87f 0a3a d4dc 1abe
000003b0: 0001 80bd acc9 a03d 2454 213d 3be0 293e
000003c0: 6645 84bc 1764 0b3e 7f8a 963e f25a b8bd
000003d0: 8f17 303d 28e7 103d c279 1c3e e459 cf3d
000003e0: 5ec0 a73d 3093 043e 72ab 0b3e 5a19 96bd
000003f0: 099b 063e 388c 813d 2ce4 28bc aed5 d9bd
0.04151054 -0.10942996 -0.14662908 -0.028875249 0.0282394 -0.01629125 0.15907867 0.06048612
0.0228542 -0.012666883 -0.00448662 0.09489047 0.07506087 -0.0064052325 0.10798831 -0.06034435
-0.085726224 -0.019292137 -0.09588754 -0.21246871 -0.27257678 -0.016689483 -0.1169075 -0.23351406
-0.02871743 -0.06883742 -0.08237575 0.09599819 0.005929868 0.13225819 -0.06738944 -0.16503917
-0.05414624 -0.29095247 -0.2536238 -0.20986217 -0.056476768 0.030545658 0.08130898 0.23220102
0.21399122 0.08966178 0.155888 0.21719259 -0.0028684512 0.09197902 0.043451034 0.15104257
0.008270296 -0.03319156 -0.044584475 -0.048224583 -0.09745616 -0.056344613 -0.06863975 0.107512526
-0.019757237 0.0070021567 0.12851843 0.09961873 -0.0058830753 -0.03739448 0.059663747 -0.0022771924
0.0714632 0.05519822 0.15093485 0.14147279 0.11544025 0.111285135 0.060972646 0.050486524
-0.08237208 -0.22549206 -0.13435295 -0.003455548 -0.00041425816 -0.09049654 -0.16014856 -0.05695295
0.0030903653 0.058355294 0.0006556192 0.021848248 0.017288685 0.076209836 0.077449806 0.07264502
0.06313689 0.06015719 0.062090363 -0.1570847 -0.18062942 -0.09373364 0.122726925 -0.1112742
-0.048779182 0.046104264 -0.067295946 -0.22363226 -0.2940404 -0.102618 -0.22192006 -0.25564638
-0.24074416 -0.07989847 -0.14344747 -0.12563565 0.048798766 0.26958552 0.31198794 0.022789609
-0.078904755 0.04087235 -0.08611845 -0.21964462 -0.090490066 0.044486552 0.08706196 0.023047272
-0.004056246 0.045262124 0.013146938 -0.039556775 -0.053912114 -0.2269412 -0.041523736 -0.08802185
-0.01848038 -0.02465484 0.082805395 0.05986034 -0.08290516 -0.19210872 -0.22853261 -0.15951304
-0.27818775 -0.28244314 -0.1492449 -0.21692394 -0.15949582 0.06095554 0.024056783 -0.05656542
-0.046383787 -0.037974916 -0.1335809 0.112746775 0.055973217 0.007143156 0.05733778 0.07830173
0.06490043 -0.056412067 -0.27940807 -0.1256881 -0.022067817 -0.09136071 -0.09030483 -0.15623435
-0.11381453 0.0656262 0.12595773 -0.020196076 0.050964724 0.14764245 0.008720419 0.018782584
0.16799444 -0.028117847 -0.16284178 -0.05111853 -0.04196791 -0.11897936 0.008550612 0.21522462
0.1261404 0.015591661 0.081723385 0.033584163 0.047481243 0.11302277 0.1527854 -0.06991787
0.13327962 0.17264016 0.009575918 0.13123 0.09972553 -0.116690576 -0.055775296 0.013564704
-0.013263886 0.106564015 0.17223307 0.015178808 -0.024157114 0.1220079 -0.08271041 0.02560877
0.047759686 -0.045803577 -0.11022044 -0.057137553 -0.016864495 -0.09314287 0.034416385 0.16874906
-0.016478216 -0.10904533 -0.07382914 -0.0019913237 0.12551463 -0.15763272 0.098490685 0.1484463
-0.2341754 -0.14173113 -0.05075011 -0.070869304 -0.011678442 0.14383036 -0.16327348 -0.1586899
-0.16741319 0.058182526 0.007489044 -0.055811312 -0.12655352 -0.09096085 -0.07923196 -0.117428176
-0.003158912 0.107185446 0.00052833324 -0.15123302 -0.06250191 0.07850966 0.039386883 0.16589443
-0.016146373 0.136124 0.2940254 -0.090017214 0.042991217 0.035376698 0.15280822 0.10124567
0.08190988 0.12946773 0.1363962 -0.07329054 0.13145079 0.06325573 -0.010308307 -0.10636459

layer2.0.bn1.weight f4 [32]
00000000: a26b 483f 2e5e 593f a462 473f b3e4 4c3f
00000010: 3df8 683f 5e9f 743f fad6 5f3f 9b77 623f
00000020: 9e51 3c3f 203e 6f3f b800 5b3f d268 563f
00000030: 1131 493f 51b8 3c3f 37e8 2a3f 479d 6b3f
00000040: 5758 5e3f 66ab 6c3f beab 643f 26b0 3d3f
00000050: 83ab 573f 0943 743f 4152 773f dcd6 643f
00000060: 9932 5f3f eb3a 463f b185 623f 68f4 7f3f
00000070: dbd3 4e3f 57df 473f 4723 383f 0ef3 6e3f
0.78289235 0.8490933 0.7788489 0.8003647 0.9100378 0.95555675 0.87437403 0.88463753
0.7356204 0.9345417 0.8554797 0.83753693 0.78590494 0.73718745 0.6676058 0.9203686
0.86853546 0.92449033 0.8932456 0.74096906 0.8424608 0.9541479 0.96609885 0.8939035
0.8718658 0.7743365 0.88485247 0.9998231 0.80792016 0.78075165 0.7192883 0.9333962

layer2.0.bn1.bias f4 [32]
00000000: 944d 29bd 0246 2cbe 2661 38be ff62 86be
00000010: 0384 95be 31f7 b5be e093 3abe a23e 1fbe
00000020: 75da 953d ace1 b2be 25f0 98be 7510 85bb
00000030: d6d6 fdbd 486e 803c 7c90 27be cbde 82be
00000040: 95c2 51be a550 97be b0c0 9bbe 790f 14be
00000050: 0c30 2fbe a995 0cbe c4b9 5abe 4e52 a7be
00000060: 18a3 14be ff6e f8bd 61b1 85be 6066 9dbe
00000070: 2bb4 6bbe bc5c ff3c abf4 a6bc 2713 9dbe
-0.04133375 -0.16823581 -0.18005809 -0.26247403 -0.2920228 -0.35540155 -0.18220472 -0.15551236
0.07317058 -0.349378 -0.29870716 -0.0040607997 -0.12394492 0.015677586 -0.1636371 -0.25560603
-0.20484383 -0.29553714 -0.30420446 -0.14459027 -0.17108172 -0.13728966 -0.21359926 -0.3267998
-0.1451534 -0.12130546 -0.26111892 -0.30742168 -0.23017947 0.031172149 -0.020380339 -0.30678675

layer2.0.bn1.running_mean f4 [32]
00000000: 7584 5ec0 a136 0a3f 97d4 51bf 87d1 81bf
00000010: cc7b 0140 afd0 eabf c80e 86bf 0020 34c0
00000020: 86fe 3dbf 64b4 d0bf fb6d d2be 40b5 5bbf
00000030: c36f 403f 7956 48be 910f 51bf ac66 1f3f
00000040: 261b eabf 26d6 19c0 3e8d 20c0 46c2 0bc0
00000050: b048 32c0 b518 133f a841 8ec0 da7b a7bf
00000060: e7c4 dbbf 3719 403f da12 6abf 33c6 debf
00000070: a9d6 97bf e826 c6c0 33ad febf dbe8 25bf
-3.4768345 0.5398961 -0.8196501 -1.0142068 2.023181 -1.8344935 -1.0473261 -2.8144531
-0.74216497 -1.6305051 -0.41099533 -0.8582344 0.75170535 -0.19564237 -0.8166438 0.6226604
-1.8289535 -2.4036956 -2.5086207 -2.1837325 -2.7856865 0.57459575 -4.4455147 -1.3084671
-1.7169465 0.75038475 -0.91435015 -1.7404236 -1.1862384 -6.1922493 -1.9896606 -0.64808434

layer2.0.bn1.running_var f4 [32]
00000000: 60c3 4140 6939 1240 bb2f 1e40 a8a9 fc3f
00000010: 4261 3140 1671 3a40 78bb 0140 111c 7940
00000020: 976e 2c40 2570 6f40 ce9a 0c40 4589 2540
00000030: c1eb c73f 8ee6 5140 8d4a f83f 3205 0f40
00000040: a7d6 7c40 da2e 1740 62ba 7e40 f280 6040
00000050: 7506 5240 6a82 ad40 9e43 d340 28ea 1940
00000060: 040c 5540 25bc 1640 fca2 8140 52e3 5a40
00000070: 5ec1 2740 d423 8d40 df23 e33f 1698 2640
3.0275497 2.284754 2.4716632 1.9739275 2.7715611 2.9131522 2.0270672 3.892338
2.6942499 3.7412198 2.1969485 2.5865033 1.5618821 3.279697 1.9397751 2.234692
3.9506013 2.3622346 3.980126 3.5078702 3.281644 5.4221697 6.602004 2.4049168
3.3288584 2.3552334 4.0511456 3.4201245 2.6211772 4.4106236 1.7745322 2.6030326

layer2.0.conv2.weight f4 [32, 32, 3, 3]
00000000: b4ba ecbc b971 01be 813b 31bd ca52 c93d
00000010: 2146 01bd 949e 01bd 9eb2 973d 3d70 aa3d
00000020: 5bb5 123c ccfb fabc 58bf 98bd 84ed 43be
00000030: 6632 6dbd 40cf 5cbd 041c 41be 2d39 cabd
00000040: 4362 193c 6915 0e3e 6cc9 233e 0279 103e
00000050: 1d73 01be 58a1 9e3d 88db 95bc 15ae 823d
00000060: 2cda 143e ef32 473c 9f9b 203d 4d37 8f3b
00000070: af43 ac3d 4bcb 37bc 3178 5cbd d8d9 883d
00000080: 66f9 303d 098e 0d3e a099 823d a45f 283d
00000090: d663 f73d 9a28 ec3d 7c8b ee3d 1ae3 343d
000000a0: e602 183d a4ac 44be d623 6fbd 35c0 57be
000000b0: 7fc4 fabd c6cf 4bbd b7a6 123d 0874 973e
000000c0: 5b93 a8bd abe1 1fbd 2cf0 e53d 8220 08be
000000d0: 44d3 3cbe 5c64 33be 6928 843d fa85 85bd
000000e0: 8676 72be 7e28 8abb d77f d3bd 1e3a e8bd
000000f0: 6791 393e 94fd 133d 74dd 8e3d 364a 76bb
00000100: 7724 29be b218 debd 5b26 04be 5e38 bcbd
00000110: 1d55 eebc 1a41 113e 65ae 2e3c 536a 3eba
00000120: 2b74 a3bd 1cbc 8ebb 0a9a babd 79c9 e53c
00000130: 251f ea3d 833a bf3c be29 b5bd ef4e 5fbd
00000140: eb99 6cbc 5b0f b5bd b40f 8fbc 0948 66bc
00000150: f28d a3bd 7a4d 8abe 0e03 8fbd 9eda 57bd
00000160: edc9 92bd 8901 8ebd 524b 20be 6fb5 5c3c
00000170: efdc 993a 906d 1dbe e39c ecbc c7fc 683d
00000180: 0e7c 0a3d 61ca 3abc 9341 b6bd ab5d 20be
00000190: b7c4 07be 3e47 3ebd 094b c7bc e91d 02bd
000001a0: 34ae 2a3b 9d1d f6bd 550a 24bd 6970 a73d
000001b0: 1e92 27be 648a 863d b24f 253e e642 30bc
000001c0: c2f6 b63d a0d5 1d3e 5cb6 2ebc 0ac3 08bd
000001d0: c899 483d 07a4 dfbc e82d 0a3e e9fe 7e3e
000001e0: c5a0 c13d eaae bd3d 9099 a43d 334d 2d3d
000001f0: ea9a 91bd 4476 d1bd 83a0 ecbc 3857 f1bd
00000200: 0d50 d6bc a854 79bd 0add 50be b49a 43be
00000210: fd97 0fbe e429 b2bd 82c3 34bd 892c d33d
00000220: d562 5b3e 3f34 2b3e 7396 b93d 80a2 163d
00000230: 0231 59bc e738 c0bd bd1a cebd b845 c7bd
00000240: abcb 04bb 8eca cbbd 8099 613d 8ff3 76bc
00000250: 8026 74bc bd69 573d 85d3 703d 948e afbc
00000260: 9b7b 2bbd b29d 70be 6d9c 15be 320d 853d
00000270: be23 cb3d 92a6 b2bd 10ca 45bc 634c 673e
00000280: 12f4 c13d 05a7 76bd 941f 7d3e 0f84 223e
00000290: 9a6e 23bd f905 163e 8ae3 153e cc79 083e
000002a0: 3a0e 6b3d 46f3 443b 538e 933d d183 25bd
000002b0: 50ea 09be 56b6 46be 72be cb3d 77b0 07bb
000002c0: 4a26 bfbc 50c9 b23d 335f a53c acec 47bb
000002d0: 2557 d53d 372c cd3d 739d 4d3c ade2 f03d
000002e0: 532e 173d a540 cebc 595b 1fbe 1521 0bbe
000002f0: e0ea 17be 9577 e73d 70c2 673d a23f 4c3b
00000300: 5db6 25bd 903d 15be 0b0a 2cbe f0f7 94be
00000310: 7a2c e4bd fb69 70bd 9085 fc3d fdd3 90bd
00000320: b0c2 c1bd c4c8 003e 0af1 bc3b fe81 17be
00000330: c688 533d c9b0 f0bc a6f8 63bb 7c01 023e
00000340: bc46 0f3e c118 a3bb 20b6 c13d 0cf4 b03d
00000350: 0b60 adbc fee1 4cbd cad6 c3bb 7b2d 8bbb
00000360: 45aa be3d 102d 983d 8929 d53c 83ea 963d
00000370: 4462 34bd ae80 a7bc 88af 333b 3181 3bbd
00000380: 9008 1dbe 2a14 0cbe 9ad8 9b3d ac05 203d
00000390: 80f0 05bd 6f81 9e3d fb74 a5bd 452a db3b
000003a0: 7a90 fcba 43dc 82bd dd12 7bbc e824 2b3e
000003b0: 741a cc3d 24c8 923c 7770 e33c d202 74bc
000003c0: aa48 12be 4f93 053d abc1 31be d636 813d
000003d0: ea79 283d 14f9 22bd 5dd4 e63d 5dbc 223d
000003e0: 520a 863b 712d 98bd fe4c 3fbd 130b 3cbd
000003f0: 1ed6 c0bd f64c 27be af59 b3bd d3c1 d3bc
-0.02889762 -0.12641038 -0.043269638 0.09830244 -0.03156102 -0.031645373 0.074071154 0.08322189
0.008954371 -0.030637644 -0.07458371 -0.19133574 -0.05790939 -0.053908587 -0.18858343 -0.09874187
0.009361806 0.13875355 0.15994805 0.14108661 -0.12641568 0.07745618 -0.018293157 0.0638086
0.14536351 0.01215814 0.03921091 0.004370606 0.08411347 -0.011217902 -0.05382556 0.066821754
0.043206595 0.13823713 0.06376958 0.041106835 0.12079589 0.11531182 0.11647698 0.044161893
0.03711214 -0.19206482 -0.058383785 -0.21069415 -0.1224451 -0.049758695 0.035803523 0.29580712
-0.08231231 -0.039033573 0.1122745 -0.13293651 -0.18439966 -0.17518753 0.0645302 -0.065196946
-0.23678026 -0.004216253 -0.10327118 -0.1133921 0.18121873 0.036130503 0.069758326 -0.0037580854
-0.16517816 -0.10844554 -0.12905256 -0.09190439 -0.02909332 0.1418499 0.010661696 -0.00072637683
-0.07981142 -0.0043559205 -0.09111412 0.028050171 0.114317216 0.02334333 -0.08845852 -0.054518636
-0.014440994 -0.088408194 -0.017463543 -0.01405526 -0.07986058 -0.27012235 -0.069830045 -0.052698724
-0.071674205 -0.069338866 -0.15653732 0.0134709915 0.0011738817 -0.15373826 -0.028883403 0.056881692
0.033809714 -0.01140079 -0.08899226 -0.15660731 -0.13258635 -0.04645466 -0.024327772 -0.031766806
0.0026043775 -0.12017367 -0.040048916 0.081757374 -0.16364333 0.06569365 0.16143683 -0.010758137
0.08933784 0.15413523 -0.010663595 -0.03338913 0.048974782 -0.027299894 0.13494074 0.24901928
0.094544925 0.09261878 0.08037102 0.04230995 -0.07109626 -0.102276355 -0.028885132 -0.11784214
-0.026161218 -0.06087175 -0.2039682 -0.19101983 -0.14022823 -0.08699396 -0.044131763 0.10311229
0.2142442 0.16719149 0.09061899 0.036776066 -0.013256313 -0.09385853 -0.10063694 -0.09730095
-0.0020262997 -0.099507436 0.05507803 -0.015072717 -0.014901757 0.052591074 0.05879547 -0.021430291
-0.041865926 -0.23497656 -0.14610453 0.064966574 0.09918927 -0.08723177 -0.012072101 0.22587733
0.09470381 -0.060217876 0.24719077 0.15870689 -0.0399004 0.14650716 0.1463758 0.13327712
0.057386614 0.0030052229 0.072048806 -0.040408913 -0.1346829 -0.19405493 0.09948434 -0.0020704546
-0.023333687 0.087298036 0.020186996 -0.0030506058 0.10417012 0.10018199 0.012549746 0.11761985
0.036909413 -0.02517731 -0.1556219 -0.13586839 -0.14835691 0.11302105 0.056581914 0.0031165858
-0.04045712 -0.14574265 -0.16800706 -0.2909541 -0.11141296 -0.05869482 0.123301625 -0.070716836
-0.09460962 0.12576586 0.005766039 -0.14795682 0.05164411 -0.029381173 -0.0034785657 0.12695879
0.13991827 -0.004977316 0.09458566 0.08640298 -0.02116396 -0.05002021 -0.0059765326 -0.004247365
0.0930982 0.0743047 0.026020782 0.07368948 -0.044039026 -0.020447101 0.0027417857 -0.045777503
-0.15335298 -0.13679567 0.07609673 0.03906791 -0.03270006 0.07739531 -0.08078953 0.0066883885
-0.0019269132 -0.06389668 -0.015324322 0.16713297 0.09965983 0.0179177 0.027763588 -0.014893251
-0.14285532 0.032611188 -0.17359035 0.06309287 0.04113189 -0.03978832 0.11270974 0.03973042
0.0040905857 -0.07430542 -0.046704285 -0.045909 -0.094158396 -0.16337952 -0.0875734 -0.025849259

layer2.0.bn2.weight f4 [32]
00000000: 3fdb 7d3f 05d9 8c3f 6e65 753f 8155 893f
00000010: 1cb3 7d3f c797 8a3f 2079 963f 9e68 913f
00000020: d731 3f3f d56e 7f3f 67f3 913f bd10 ae3f
00000030: f75b 933f b124 813f b4ea 8d3f 7ac2 913f
00000040: a0f8 993f 8da4 a83f 3b01 823f 5638 903f
00000050: 8829 6f3f 5081 853f cfcf 5f3f 5ee0 813f
00000060: 175e 813f f0fe 843f 917b 873f 44f2 8b3f
00000070: 19b3 673f 876b 893f a50b 7e3f 7242 943f
0.9916267 1.1003729 0.95857894 1.0729219 0.99101424 1.0827569 1.1755714 1.1360052
0.74685425 0.9977849 1.1402406 1.3598858 1.151244 1.0089322 1.1087251 1.1387475
1.2028999 1.3175217 1.0156626 1.1267192 0.93422747 1.0430088 0.87426466 1.0146596
1.0106839 1.0390301 1.0584584 1.0933309 0.90507656 1.073594 0.9923652 1.1582778

layer2.0.bn2.bias f4 [32]
00000000: 2695 f2bc 1f28 6ebe 0ef1 50be 156c cf3c
00000010: 8729 4abd 7a66 533e 3229 88bc b05d 30be
00000020: 82d3 7a3b 055f 0fbe cf77 d43c 4bf6 31bd
00000030: a6bd a7bd b67f 17be 998e 96be e5e6 05be
00000040: 8704 06be 6a27 9ebe 3261 0dbe 6bad c9bd
00000050: 364a ed3c 5dbf 04bc ef72 1cbd c4d9 a6bd
00000060: c891 92bd 4646 003e 5630 fabd a86f 4dbe
00000070: fea9 c73b 9643 eebd 5387 07be 7871 05be
-0.029612135 -0.23257492 -0.20404455 0.025320092 -0.04935601 0.2064456 -0.016621206 -0.17223239
0.003827304 -0.14001091 0.025936035 -0.043447774 -0.081904694 -0.14794812 -0.29405668 -0.1307636
-0.13087665 -0.30889446 -0.13806608 -0.0984753 0.02896605 -0.008102265 -0.038195547 -0.08147004
-0.07156712 0.12526807 -0.122162506 -0.20062125 0.0060932627 -0.11633985 -0.13235216 -0.13031566

layer2.0.bn2.running_mean f4 [32]
00000000: 141a 2ebe 13c6 d8bd 5e9c 8a3e 12bd c7be
00000010: bac9 bf3d e639 3cbf 4178 0bbf 5d17 4cbe
00000020: 45ca cbbe 2b9e 6dbe 2395 a8bf 1c6a 89bf
00000030: 3039 afbd b855 15bc 42dc a8be 6553 a9be
00000040: 107d 24bf 6994 d8be a631 3f3f 25bf be3e
00000050: ea96 f3be bb37 22bd 9c3e 25bf 18c0 00bf
00000060: f3e1 dabe 2648 a8bf d25f 0ebf cb2c 25be
00000070: c10a 5fbd 640e 443f 8068 c43d 7dad 79bf
-0.17002136 -0.10584655 0.27072424 -0.39011437 0.09364648 -0.73525846 -0.5448037 -0.19930787
-0.39802757 -0.23204868 -1.3170513 -1.0735507 -0.085558295 -0.009114675 -0.32980543 -0.33071437
-0.6425333 -0.42300728 0.7468513 0.37255207 -0.47576076 -0.03960393 -0.6454866 -0.5029311
-0.4275051 -1.3147018 -0.5561496 -0.16130368 -0.054453615 0.7658446 0.09590244 -0.9753035

layer2.0.bn2.running_var f4 [32]
00000000: f281 6c3f 458e 743f f116 6b3f 8a2a 8a3f
00000010: b238 ac3f 66b3 773f 0c41 6a3f 4c24 be3f
00000020: cbed 6b3f 2edc a53f 813d 6f3f daf5 d73f
00000030: 393b 533f 1624 393f 4eb2 6e3f b96d f03f
00000040: c57f 873f e928 563f ce5e a73f d00a f83f
00000050: b618 833f e9b4 873f 2f6c 453f f1b5 983f
00000060: 68f3 853f 96ee c63f dcce 583f 4838 4f3f
00000070: fe32 5d3f a75a 593f b3fb 0d3f d9ab 943f
0.9238578 0.95529586 0.9183188 1.0794232 1.3454802 0.96758115 0.91505504 1.4854827
0.9215972 1.2957819 0.9345322 1.6871903 0.8251224 0.7232069 0.9324082 1.8783485
1.0585867 0.83656174 1.3075807 1.93783 1.0241916 1.0602084 0.771182 1.1930524
1.0464907 1.5541561 0.8469064 0.80945253 0.8640593 0.8490395 0.5546219 1.1614944

layer2.0.downsample.0.weight f4 [32, 16, 1, 1]
00000000: 6e7a 673e 7082 333d 313d e83d 7a77 91be
00000010: eb9a 303d 8bfa 26bd 4d0b edbd a858 ff3d
00000020: ae47 893e ef8f 44be 0ff7 92bd 4314 85be
00000030: d63d 94be a4b7 3f3e fa1d b0be 213a fd3d
00000040: 4a35 adbe edf5 25be f368 2ebd 2872 1bbe
00000050: 0d6f 383d c5d8 f7bd 90be 20bd 3828 c8be
00000060: 613f ba3e 6e63 fe3d 7694 cabd a843 abbd
00000070: 146f fa3a ef40 273e c6f7 a3be 3a14 193e
00000080: 5510 f6bd d950 28be 28d9 48be 1d47 ecbe
00000090: 38c8 d2be a5b9 2cbd 4bf8 1c3e 7a8b 343d
000000a0: fc69 d33e eb1f d93c 515c 2ebe 7bc0 b93d
000000b0: 4cac b0bd d589 dbbc 040e 113d 5b84 69bc
000000c0: 8d63 a3bc bb1e 0c3e fb63 1cbe 80de adbe
000000d0: 3d61 51be c9a7 cf3c 3e15 c6be 6256 00be
000000e0: 97e3 463e 684f 863d af51 96be b182 193b
000000f0: 8c25 9cbe f2c2 da3d 748d be3d 8650 963c
00000100: ed8f ba3c 56e0 aabe a59c 0abe 4bac 75be
00000110: cdab 873d c2d4 1ebe 9e6c 26be fe69 b8bd
00000120: 8e48 32be ba25 5d3e 7d45 96bd 4ceb 5c3e
00000130: a1c4 19be a766 d3be 2499 03be 6503 b4bd
00000140: 1ce6 7c3e 4fb8 4e3e 45dd 073e 5f96 cd3d
00000150: a1ff a83d 9fcd 963e e8ca 7a3e 63c7 38be
00000160: 0fdb 683e 5ea9 19be 308e 2bbe 81f2 d53c
00000170: a147 8b3e 8fff af3d 58c3 01be 474a 593d
00000180: b70a 00be 62db 2fbd 482d 143e ed9f c8be
00000190: 5567 cdbc e13a 3d3e 7ba7 6a3e 618a fc3d
000001a0: ebc1 72bd 6e10 6fbe 9603 083f 8454 203e
000001b0: cb45 abbe 0b02 d8bd 80cc 213e 9083 573e
000001c0: b635 30be da8d 053e 186d 16be 47dd 8cbe
000001d0: 6381 5f3c ec10 123e e5d5 093d 0288 863d
000001e0: 1559 c8be bce1 7fbd c52c 82bb d279 71bd
000001f0: 2bb7 a7be d94f 6a3e 8e46 15be 4778 533d
00000200: d43b d53c 599b 5fbe 6656 39be 60f8 a83b
00000210: ee0d c03e 65af d6be 1300 82bd 59ab 82bb
00000220: 4dd8 163e 459b ab3b ca21 abbe bfa6 873d
00000230: fdc7 d1be ef2b 853e f3a8 8bbc 7a9c 983e
00000240: 42f8 c33b 276e 9bbe 0f97 96bd 9fee 26bd
00000250: d3fc 79bd 7ab6 63bd d6e2 adbe d440 05bd
00000260: ca50 01be 1794 0fbe bebd 853d 32dd 2fbe
00000270: bdef 8fbe f4aa 2d3e f99f 7c3e 5f71 96be
00000280: 9518 a03c dae2 cdbc 092a 643e 5fc9 3bbe
00000290: 6d7f b7bd df7b b9be 7092 45be 274f b53c
000002a0: b6c6 763e 9ec7 c6bd f2cc 9ebe 9cf0 a33d
000002b0: dff8 7abe ae66 bc3d 498c 743e e468 c8bd
000002c0: 3b24 b13d 23a9 553d 72fe edbd 41a6 29be
000002d0: 8d91 fbbe f868 16be 5097 a3bd 0e2e fe3d
000002e0: 491b 033f 16d7 8cbb 7d28 20be 681c 903e
000002f0: d95c 32bc b3c4 723d 67ac 96be efc6 dc3d
00000300: 1bac 323e bbcf b3be 9d20 d33e 448d 58b9
00000310: f195 6b3d 9c43 93bd df73 87bd a0d0 ca3d
00000320: 3c31 e03d b9cb c3bd 4af1 1cbe 42c0 71be
00000330: 537c 19bd 5c6e a4bd 524d d93d c3dd 25be
00000340: 8cb4 d03e 9256 aabe 5140 0b3e a8a9 58bd
00000350: a376 c5bd 4649 8e3e a2cd 77be 479f 4a3e
00000360: 2836 9dbe 0b94 053c 9da0 8a3e 240e 8abd
00000370: 4af0 d1bc f290 d93d 22b3 dfbd a9fe 843e
00000380: b0d6 353d a88b 273e dc8a 623e 97ca 883d
00000390: 6687 1cbd 9ddf 5ebe a93f 0abe cdd1 ffbd
000003a0: ba70 cd3e dc01 f53d d221 2cbe f095 2c3e
000003b0: ff0a 85be 9f70 9d3e ce4b a13d 6456 5b3c
000003c0: 21f7 153e 5fd5 8abc 2428 83be 3360 d13d
000003d0: 5556 02bd ccdd 52be 4b1f d8bd b2e7 27be
000003e0: b094 8fbe 2916 873e 0efd 87be 7e5f 42bc
000003f0: e978 fbbe 4586 d2bd 91cf 333e b76f aabe
0.22605297 0.043825567 0.11339796 -0.28411466 0.04311649 -0.04076628 -0.11574421 0.12468082
0.268125 -0.19195531 -0.07176029 -0.2599202 -0.28953427 0.18722397 -0.3439787 0.12364603
-0.3382972 -0.16207094 -0.042580556 -0.15180266 0.04502778 -0.121018924 -0.039244235 -0.39093184
0.3637648 0.124213085 -0.09891598 -0.08362514 0.001910659 0.16333364 -0.32024974 0.14949122
-0.12014834 -0.16437091 -0.19614089 -0.46148005 -0.4116838 -0.042169232 0.15329091 0.044078328
0.41291797 0.026504477 -0.17027403 0.09069916 -0.08626613 -0.026799122 0.035413757 -0.014252747
-0.01994493 0.13683598 -0.15272515 -0.33958817 -0.2044725 0.02534856 -0.38688082 -0.12532952
0.19422756 0.06558114 -0.29359195 0.0023423845 -0.30497396 0.10681714 0.09304324 0.018348943
0.022773707 -0.3337428 -0.13536318 -0.23991506 0.06624565 -0.15510848 -0.16252372 -0.090045914
-0.1741049 0.21596423 -0.073374726 0.21574134 -0.15016414 -0.41289255 -0.12851387 -0.0878971
0.24697155 0.20187496 0.13268001 0.10038447 0.08251882 0.2945375 0.24491465 -0.1804481
0.22739814 -0.15006015 -0.16753459 0.026116611 0.27203086 0.08593666 -0.12672174 0.053049352
-0.12504087 -0.04293383 0.14470398 -0.39184514 -0.025073687 0.18479492 0.22915451 0.12331081
-0.059266966 -0.23346111 0.5313047 0.1565724 -0.33451685 -0.10547265 0.15800667 0.21046281
-0.17207989 0.13042393 -0.14690053 -0.2751257 0.013641688 0.14264268 0.03365125 0.0656891
-0.39130464 -0.062471136 -0.003972622 -0.058954068 -0.32756934 0.22882022 -0.14577696 0.051628377
0.026029505 -0.21836604 -0.18099365 0.0051565617 0.37510628 -0.4193069 -0.063476704 -0.0039877114
0.1473095 0.0052370154 -0.33424217 0.06623601 -0.4097289 0.2601008 -0.017048335 0.29806882
0.0059805224 -0.30357477 -0.07353031 -0.04075491 -0.061032128 -0.055593945 -0.33962125 -0.032532528
-0.12628475 -0.14021336 0.06530331 -0.17174223 -0.28112593 0.16959745 0.246704 -0.2938337
0.019542972 -0.025132585 0.2228166 -0.18338536 -0.089598514 -0.3622732 -0.19294143 0.02213247
0.2409924 -0.09706043 -0.31015736 0.08004877 -0.24509 0.09199272 0.2388164 -0.09785631
0.086494885 0.052163254 -0.11620797 -0.16567327 -0.49134484 -0.1468848 -0.07987845 0.12411128
0.5121351 -0.004298101 -0.15640445 0.28146672 -0.010886394 0.05926962 -0.29428408 0.10780131
0.17448466 -0.35119423 0.4123582 -0.00020651991 0.057516042 -0.0719063 -0.066138975 0.09903073
0.10946891 -0.095603414 -0.1532642 -0.23608497 -0.03747208 -0.08028862 0.10610451 -0.16197877
0.40762746 -0.33269173 0.13598754 -0.05289617 -0.09641769 0.27790278 -0.24199536 0.19787322
-0.3070538 0.008152972 0.27075663 -0.06740978 -0.025627274 0.10623349 -0.10922839 0.2597554
0.044394195 0.16361868 0.22123283 0.06679266 -0.038215064 -0.21764989 -0.13500847 -0.12491188
0.40125066 0.11963245 -0.16809776 0.16854072 -0.25984952 0.30749986 0.07875787 0.013387296
0.14645053 -0.016947446 -0.25616562 0.10223427 -0.031820614 -0.20592421 -0.10552844 -0.16396978
-0.28043127 0.26384094 -0.26560253 -0.011863587 -0.49115685 -0.10279516 0.17559649 -0.33288357

layer2.0.downsample.1.weight f4 [32]
00000000: 2ad3 e93e ba67 ed3e 589b 263f b940 aa3e
00000010: cf76 4c3e 71e2 113f bba6 c43e ed90 a43e
00000020: 135e f23e 8916 ec3e 2d85 f33e 90e4 473e
00000030: c206 093f 464c 0b3f 9127 123f 6dc8 be3e
00000040: fe73 3e3e d837 c03e 47bf ae3e 7f16 9f3e
00000050: d0e6 613e 2811 503e fab2 143f 6da9 b83e
00000060: 1c6d bc3e d157 623e 19e1 fc3e 9273 d73e
00000070: fc1f 253f cadc 0e3f 1237 2e3f b4e7 be3e
0.45668918 0.463682 0.65080786 0.33252504 0.19967197 0.5698615 0.38408455 0.3214182
0.47337398 0.46110943 0.47562543 0.19520783 0.53525937 0.5441326 0.57091624 0.37262288
0.18598935 0.37542605 0.34130308 0.3107185 0.22060704 0.20319045 0.58085597 0.36066762
0.36801994 0.22103812 0.49390486 0.4208036 0.6450193 0.5580565 0.6805278 0.3728615

layer2.0.downsample.1.bias f4 [32]
00000000: 2695 f2bc 1f28 6ebe 0ef1 50be 156c cf3c
00000010: 8729 4abd 7a66 533e 3229 88bc b05d 30be
00000020: 82d3 7a3b 055f 0fbe cf77 d43c 4bf6 31bd
00000030: a6bd a7bd b67f 17be 998e 96be e5e6 05be
00000040: 8704 06be 6a27 9ebe 3261 0dbe 6bad c9bd
00000050: 364a ed3c 5dbf 04bc ef72 1cbd c4d9 a6bd
00000060: c891 92bd 4646 003e 5630 fabd a86f 4dbe
00000070: fea9 c73b 9643 eebd 5387 07be 7871 05be
-0.029612135 -0.23257492 -0.20404455 0.025320092 -0.04935601 0.2064456 -0.016621206 -0.17223239
0.003827304 -0.14001091 0.025936035 -0.043447774 -0.081904694 -0.14794812 -0.29405668 -0.1307636
-0.13087665 -0.30889446 -0.13806608 -0.0984753 0.02896605 -0.008102265 -0.038195547 -0.08147004
-0.07156712 0.12526807 -0.122162506 -0.20062125 0.0060932627 -0.11633985 -0.13235216 -0.13031566

layer2.0.downsample.1.running_mean f4 [32]
00000000: fa72 b3bc fe74 01bf 1525 e5be 5bb7 3dbf
00000010: 8c51 aabf 7c5a 833f 9e05 033f 91f8 40bf
00000020: 0acb 9fbe efe3 57bf 68ce 81be 69d7 cf3c
00000030: 3633 c03d 0302 fd3e 5009 1d3f 5f20 b1bf
00000040: 13e1 3c3f e3a8 00bf 0fbf e6be 9e6b 9e3e
00000050: c69f 083e 6566 c43d 0a49 b23f 4474 9b3e
00000060: a6d1 92bf ff45 b8bf 5f4a 16bf 0459 0cbf
00000070: b22b 6fbe 0e31 41be 22dc 863f 2bf8 aabe
-0.021905411 -0.5056914 -0.44754854 -0.74107903 -1.3306136 1.0261989 0.51180446 -0.7537928
-0.31209594 -0.84332174 -0.25352788 0.02537127 0.09384768 0.49415597 0.61342335 -1.3838004
0.73780936 -0.502577 -0.4506764 0.3094148 0.13342199 0.09589843 1.392854 0.3036214
-1.147023 -1.4396361 -0.5870723 -0.5482333 -0.23356512 -0.18866369 1.0535929 -0.33392462
