Result/student/resnet14_0.2_0.05_3_Acc _ 88.23_graph2_31_128 # 1_best.pth.tar (torch_old, 721086 bytes, 77 tensors)

conv1.weight f4 [16, 3, 3, 3]
00000000: 2ab4 cebd ce9f 953e 5dc8 9fbe 6f10 493e
00000010: a712 c23d efd7 8ebe ed46 7e3f 56fa 88bf
00000020: 589a 0c3e ac64 42be 67ac 673e 6a8d 25bd
00000030: 5370 ddbd 9f0e 21be fb73 6ebd acec 373f
00000040: e0d9 5abf 2db3 ae3e 4b7a 71be ff20 063f
00000050: a59e 70bd da45 2cbe 28f6 9a3e d2ca 503d
00000060: 30fd 933e 8eff 47bf a669 4a3e 3712 b83e
00000070: 5ac0 0f3f cd55 363e 97b5 6c3e 5c86 303e
00000080: f849 d8bc 60d9 c7be a8ef 27bf 235a 8dbe
00000090: 1d31 1b3e 4158 e83e 78e0 623e 0872 473e
000000a0: c062 f13c 5a10 af3d bc93 4fbe 6f85 21bf
000000b0: 70be c3be 120a 893d 12a3 883e 2502 e23d
000000c0: 185f 303e 0f8e f63d 6cb0 b93d c9db 6dbe
000000d0: 0640 01bf 4788 6dbe a143 72be b049 623d
000000e0: 4e2a 2ebd c915 6a3e 0b77 46be 559b 303e
000000f0: 4e7c 0bbe a633 ea3e d525 383f 915d 223e
00000100: 9533 d03d c579 54be f951 4e3d acec 6fbf
00000110: 0dd7 f0be c1ba 89be eaa2 7dbe 579c 6dbe
00000120: 486d 843e bda2 b03e c568 f03d 4fa6 ec3e
00000130: 956b 85be 0636 36be d9a1 483e 2b5c 3b3d
00000140: a929 09bd e84f 8cbe 552e 7dbe bd9b 77be
00000150: 0cb2 a43e 36fe 4b3e 283f 483f 5ef0 a03e
00000160: 2549 1a3e 2c20 4a3e 8da8 8c3e 3617 f73d
00000170: d266 8a3e cfe1 853e 5786 0bbf dac6 01be
00000180: 27e5 753e 49be fdbe 9dcd 07bf 63f3 89bd
00000190: d243 323c 2533 bfbd 5f4e 033e cae0 d3be
000001a0: b0ff 023a c990 8c3e a401 8ebe 9569 8bbe
000001b0: f216 28be c0e4 c1bc 5154 3abe 6010 8dbb
000001c0: aa38 283e 9647 453e 63d5 a3bc d723 d43e
000001d0: 0691 2b3f 2c89 14be 98fd 6b3d c48e abbd
000001e0: 65f0 ddbc 2060 50be d3c3 b83d 0fc6 de3d
000001f0: ab8f 46be 208a 8fbc 8399 6e3d bf46 d33e
00000200: 330b a23e 7d79 a83d d074 16bd 7d6c 603e
00000210: cd23 5fbd a3dc ccbe fb85 b0be 0bb6 743e
00000220: d07f 2c3e 14e1 40be 9d8d a33e 7a92 9c3a
00000230: 9b04 f1be 41dd bfbd 974b 353c 6eca 4ebe
00000240: 736a 743e e9e2 9fbd 3246 0bbf 7150 113f
00000250: 479e 853e 66f0 34bf 13b5 cc3e 5ed9 873a
00000260: c20e 59bd d9b8 dd3e 05bd 39bd a68f 05bf
00000270: 4e42 283f d0f0 c83d 75f1 4cbf 713a a13e
00000280: 5dbc 803d 7ccc 80be e633 07be 87c9 033e
00000290: 923e 38be 0251 59be c19c aebe 35e1 0dbf
000002a0: 651d 483e d61b 143f a8a8 813e d6d8 d03d
000002b0: e6c1 3b3f 889c 113e ce8f 0fbe 246e 8fbe
000002c0: 026c 94be 1275 18be 9db5 94bd 5eff ff3d
000002d0: bc39 ac3d b248 1d3f 8273 ce3c 8b9e 1bbe
000002e0: 8b7b 92be bb5f 2fbe 18f9 26be d7d4 d03d
000002f0: 4196 12be 3e8c f9bd df51 ecbb 5c5c 4c3e
00000300: 306b 72be 491c e7be 7e7a 01be bb65 93be
00000310: d09e bebe 46f7 a4bd 483b b8bd 17bc 393e
00000320: 2cf8 883e 3cd5 9a3d 7501 143d 6066 af3c
00000330: 1ef9 383e 506a 69bd 2594 503e 84fb 083e
00000340: 88ae d9bd c921 e43d 98b1 4f3c fd1b bb3b
00000350: 4c74 68be 2d17 3b3e 436f 2fbe 7f56 0cbe
00000360: beb6 f33d b161 f43c 58dc dbbd acec efbd
00000370: c40c 2c3e 6369 9abe 4762 4abe 98f4 bcbd
00000380: ff16 65bd e835 0c3d 9cd1 883d 1181 08be
00000390: d1e4 3abe a6fd 71bc 56a5 73be 0d31 7bbe
000003a0: c154 383d 81fa b5bd 8fa3 193e 418f a43d
000003b0: 8976 a3bc d196 133e 7fea b0bc f7e4 f73c
000003c0: 1e1f d33c 7c76 4abb 8d6c 053d 59f8 b73c
000003d0: c260 063f e53a 803e 4519 a2bc 6378 453e
000003e0: f794 4f3e e66b 4dbe bedf 82be 7336 37bc
000003f0: 2213 2cbe 2a6e 803d f2bb a3be b25f 67bd
-0.10092957 0.29223484 -0.31207553 0.19635175 0.09476214 -0.2789912 0.99326974 -1.0701396
0.13730752 -0.18983716 0.2262436 -0.040418066 -0.1081244 -0.15728234 -0.058216076 0.7184551
-0.854887 0.34121075 -0.23581807 0.523941 -0.058745045 -0.16823521 0.30265927 0.050974675
0.28904104 -0.7812432 0.19766864 0.35951397 0.5615288 0.17806168 0.23116146 0.17238754
-0.026402459 -0.3903303 -0.6560006 -0.2760783 0.15155454 0.45379832 0.2215594 0.19477093
0.029466033 0.08548041 -0.202712 -0.6309423 -0.3823123 0.06691374 0.26686913 0.11035565
0.17223775 0.12038814 0.09066853 -0.23228373 -0.50488317 -0.23196517 -0.23658611 0.055246055
-0.042520814 0.22859873 -0.19381349 0.17246754 -0.13621637 0.4574253 0.7193273 0.15856005
0.101660885 -0.20749576 0.050371144 -0.9372051 -0.4703907 -0.26900294 -0.24769178 -0.2320417
0.25864625 0.3449916 0.11738733 0.46220633 -0.2605864 -0.17794046 0.1959299 0.045742195
-0.033486996 -0.27404714 -0.24724706 -0.24180503 0.3216709 0.19921193 0.7822137 0.31433386
0.15066965 0.19738835 0.27472344 0.12064974 0.2703157 0.2614884 -0.5450186 -0.12673512
0.24013196 -0.4955924 -0.53048116 -0.067358755 0.010880427 -0.09335927 0.12822865 -0.41382438
0.0004997207 0.27454212 -0.27735627 -0.2722899 -0.16415003 -0.023668647 -0.18196227 -0.0043049306
0.16427866 0.19265589 -0.019999212 0.41433594 0.67018163 -0.14505452 0.057614893 -0.0837684
-0.027092168 -0.20349169 0.090217255 0.108776204 -0.19390742 -0.017521918 0.05825187 0.41264912
0.3164917 0.08226297 -0.036732495 0.21916385 -0.0544775 -0.40012082 -0.3447722 0.23897569
0.16845632 -0.1883586 0.3194398 0.0011945509 -0.47073826 -0.09368373 0.011065385 -0.20194408
0.23868732 -0.078069516 -0.54403985 0.5676337 0.2609732 -0.7067932 0.399819 0.0010364463
-0.05299259 0.4330509 -0.04534628 -0.52172315 0.6572617 0.09811556 -0.80055934 0.314899
0.062859274 -0.2515601 -0.13203391 0.12869845 -0.17992619 -0.21222308 -0.3410397 -0.55421764
0.19542463 0.57854974 0.25323987 0.10197608 0.7334274 0.14219868 -0.14019701 -0.28013718
-0.28988653 -0.14888409 -0.072612025 0.12499879 0.084094495 0.6143905 0.025201563 -0.15197198
-0.2860988 -0.17126362 -0.16305959 0.10196846 -0.1431513 -0.12184952 -0.007211908 0.19957107
-0.23673701 -0.45138767 -0.12644383 -0.28788552 -0.3723054 -0.08054976 -0.08995682 0.18138157
0.2675184 0.075602025 0.036134202 0.02141112 0.1806378 -0.056986153 0.20369013 0.13377196
-0.10628992 0.111392565 0.012676619 0.0057101236 -0.22700614 0.1827056 -0.17132287 -0.1370487
0.1190009 0.02983174 -0.107353866 -0.117150635 0.16801745 -0.3015853 -0.19764052 -0.0922634
-0.055930134 0.034231097 0.06680605 -0.13330485 -0.18251349 -0.014769947 -0.2379354 -0.2453043
0.045002703 -0.088856705 0.15003799 0.08035136 -0.019953983 0.14413 -0.021596191 0.030260546
0.025771674 -0.0030893376 0.032574225 0.022457289 0.5249139 0.25044933 -0.01978744 0.19284205
0.2027167 -0.20060691 -0.25561327 -0.011182415 -0.16804174 0.06271012 -0.31979328 -0.056487747

bn1.weight f4 [16]
00000000: 93b6 2b3f 2b3e 4d3f a81e 113f 50f2 fa3e
00000010: 4d48 1f3f 5322 4e3f 9ed8 293f b4ad 0c3f
00000020: dd4c 153f 1f29 2c3f 9750 323f 0272 843f
00000030: 1675 813f be40 883f d9aa 053f e029 0e3f
0.6707546 0.80172986 0.566874 0.49012995 0.622197 0.80521125 0.66346157 0.5495255
0.5832041 0.67250246 0.6965422 1.0347292 1.0113857 1.0644758 0.5221382 0.55532646

bn1.bias f4 [16]
00000000: 27b8 9f3e 3e46 2a3e 1cdf 2a3e b8ab c93e
00000010: 00a5 74bd 982b 9d3d ac7d c33e 3a46 393d
00000020: a7f7 b4be f7bd 1bbe c76c 8e3c b77a 8e3f
00000030: 303d 133d 4a2a 1b3f 6a99 043e 146d de3d
0.31195185 0.16628358 0.16686672 0.39388824 -0.05972767 0.076743305 0.38181818 0.04523299
-0.35345194 -0.15209185 0.017385853 1.11312 0.035947025 0.60611403 0.12949148 0.10860649

bn1.running_mean f4 [16]
00000000: a734 873d 7771 46bc 6287 c43d 63c3 5abd
00000010: bd3e 6bbe b138 f13c 4ab2 a63d f10a 8d3e
00000020: c2e5 813e 4e6d 393e d7a9 893c 1d67 833c
00000030: 4e70 b23d 1afc c73d 72da 353d 6000 073c
0.066018395 -0.012112013 0.09596135 -0.05340899 -0.22973152 0.029445978 0.08139475 0.2754741
0.25370604 0.18108103 0.016804619 0.01604038 0.08712827 0.097648814 0.04439778 0.0082398355

bn1.running_var f4 [16]
00000000: b4c8 513f 6054 9c40 6335 313f 9b3d 723f
00000010: dcfb 4e3f 91af b040 feda 8c3f 7d9e 883f
00000020: 20a8 613f 5c0e a83f a586 2940 512f 2a3f
00000030: 3046 af40 494b ab3f 74c9 b13f bc58 383f
0.81946874 4.8852997 0.69222087 0.9462525 0.80853057 5.5214314 1.1004331 1.0673367
0.88147163 1.3129382 2.648843 0.6647845 5.477318 1.338235 1.3889604 0.720104

layer1.0.conv1.weight f4 [16, 16, 3, 3]
00000000: a9b1 0a3e 3d12 45be a8d9 8c3e 964c 993d
00000010: b102 953d ca29 2d3e 84a0 5e3d a860 063e
00000020: c992 91bd c10e 30bd fb5c 483c aa72 f33d
00000030: ce49 a63d abb0 73bd ae0b 233e 5e4e f3bd
00000040: 1291 8abe 1c98 dbbd ba3f fb3d 5ce3 40be
00000050: a81f 54be bd1b 0b3e 5b74 aabe 5106 8abd
00000060: c750 3a3d a6fd 893c 50d4 81bd d281 88bc
00000070: 2320 3fbe 2cc9 483d 54b5 4e3d 8535 22be
00000080: d5fb 4cbe 118d ed3d d313 063e 2d09 d43d
00000090: a60c 39bc c39c 7ebd ab9b a0bd 98dd 08be
000000a0: 89a3 bfbd f998 5d3c 50f1 80bd e7a4 0d3c
000000b0: 98fe 7d3e d4aa 3cbd c2fc 493b 17e2 2e3e
000000c0: 2fc4 6f3d 6ed1 e3bd 1fca 563d b80d 07be
000000d0: cdce 39be 7f05 d33c bc3e cabd dbda 62be
000000e0: abde e93c 02f9 d73d d8a2 98bc a0f4 2d3e
000000f0: 6e19 36be 11ad c83d dc9f 33bd 4a1c 06be
00000100: 411a d6bd bf27 87bd 70e3 1d3e 5054 263e
00000110: a00d 8f3d 6eb9 0bbe f0ba 493d 31a7 6fbd
00000120: 3c8a 95bd f32c 48bc fe78 2a3e 8729 ea3c
00000130: 2e9c f9bd 3935 493e 027b cebd 5f1c d4bd
00000140: dd50 af3d 8d04 093e 7e53 73be ad09 1bbe
00000150: 3555 c63d 5a5d 11bd 0ced ad3c ecd2 c8bd
00000160: 09ed 85bd f940 82be 2fe1 11be 96f2 8fbd
00000170: 6e92 23be fcdd 8c3e 636e 703e 87ba 003e
00000180: efe3 193e 4fb9 80bd ca3f 5abd 9139 623d
00000190: 79c7 b13d f267 5abe f6b5 653d 45fa 35be
000001a0: e13e 8bbd 1e6a 323d d5be 883a 6da9 0d3d
000001b0: 6c2c d33d a236 0a3d f692 d6be ad93 b53d
000001c0: 3040 2fbe 1c17 dcbe fa61 243e c8bf 67bd
000001d0: 0736 7eba 26b0 95bd 7fd8 453e 4dd6 3dbe
000001e0: 8594 dabb cc4e 643d 5220 b23d 344a 5dbc
000001f0: 554e 9fbd b50b eabd 2e31 25be bd3a 7e3b
00000200: d02b 2e3d 8ec1 e5bd bd6c 88bb 2192 61be
00000210: e52a 98be ea25 17bd 10e8 4abc 0e80 33be
00000220: 6968 1fbe 1319 65bd 9576 4c3d a43b 193e
00000230: fa71 cdbd 4ebe b93d d9fe 233e 4caa 00bd
00000240: 6d1c 53bd 9338 003e aad3 adbd 77a9 b83d
00000250: d69b ff3d e0ad de3d 7682 c5bc 3755 4ebe
00000260: f502 4abe a376 873c 6f8c 323d f476 683e
00000270: ce03 6d3e 9a28 893e dfe6 8f3d 6344 0ebd
00000280: da3f 16be 6e8e e4be 9e15 f8bd e490 b7be
00000290: 2977 2dbe 5ebd 08be deeb 63be 34f8 8abe
000002a0: 15fa 4fbd 48b5 523b 8d64 f83d 6398 d23e
000002b0: 2ffa af3e e83f fd3d 4dc8 433e 4a6d 14be
000002c0: 0565 73bc 1faa 20be c3f5 6dbe 8214 31be
000002d0: 9e94 453d 7dd3 37be e021 02be e7ed 6b3e
000002e0: a94b 5dbd cbfa 243d 67c5 e33c 840e 803c
000002f0: 7811 603d b489 aabc 2884 afbd 333d b0bd
00000300: 8402 043e 14be 5c3e 7bce af3d c08f 613e
00000310: f3ca 3f3c 307d 98be dfe7 d33c c5c3 90bd
00000320: 89b0 85be 7ee6 98bd 37d6 373e 9ffb edbd
00000330: 98fd 7cbd 0ad7 cd3d 4df8 a7bd c8e4 21bd
00000340: a042 903d f759 973d 5950 1fbd 24da 923d
00000350: 83b1 6d3e 3d2c 103d 14cc cdbc 9884 c7ba
00000360: 9eb7 2fbe 56e1 ce3d 894b 7e3d b249 a9bd
00000370: d371 353d 1354 8d3d 3c7c ee3d e249 623e
00000380: 8f82 543d 8924 1d3e 316e 023e c493 a43e
00000390: 9ab7 9fbd a250 803d b554 db3d fb87 e7bd
000003a0: 8fc8 3bbe 911f 8fbe 0b26 1bbe 529d 87bd
000003b0: b48c 14bd 5a90 f73c 254b 453e 1b58 9abb
000003c0: 2532 88bd 7cbc 013e 32f6 953d 27c3 0ebd
000003d0: 7bc7 083e 2d67 f33c 27c2 a0be 4cf8 76be
000003e0: 6348 d2bd 546c 7a3e b52d 1b3e edae e83d
000003f0: 33ce 9dbc 3c30 7dbd d285 b8be ef26 64be
0.13544334 -0.19245239 0.2750981 0.07485311 0.07275904 0.16910473 0.0543523 0.13122809
-0.07108075 -0.04298282 0.0122291995 0.11887105 0.08119546 -0.059494656 0.15922424 -0.11880182
-0.27063805 -0.10722372 0.12268014 -0.1883673 -0.20715201 0.135848 -0.33291897 -0.06739486
0.04548719 0.016844582 -0.063393235 -0.016663466 -0.18664603 0.049019977 0.050465897 -0.15840729
-0.20017941 0.11599172 0.130935 0.10353313 -0.0112945195 -0.06216122 -0.07842191 -0.13365781
-0.09357364 0.013525241 -0.06296027 0.008645273 0.24804151 -0.046061352 0.0030820821 0.17078434
0.058536705 -0.1112393 0.05243885 -0.13188827 -0.18145294 0.025759457 -0.09875247 -0.22153799
0.02854856 0.10545541 -0.018632337 0.16987848 -0.17783138 0.09798635 -0.043853626 -0.13096729
-0.10454226 -0.06599378 0.15418792 0.162431 0.06985021 -0.13644955 0.049250543 -0.058509056
-0.07301757 -0.012217748 0.16647717 0.028584255 -0.12187992 0.19649209 -0.10082056 -0.10356974
0.08560345 0.13380642 -0.23762318 -0.1514041 0.09684221 -0.035489418 0.021231197 -0.09805855
-0.065393515 -0.25440195 -0.14246057 -0.070286915 -0.15973827 0.2751311 0.23479609 0.12571155
0.15028356 -0.06285345 -0.05328349 0.05523068 0.086806245 -0.21328714 0.056081735 -0.17771251
-0.067991026 0.043558232 0.0010432849 0.034585405 0.10311207 0.03374351 -0.41908997 0.088660575
-0.1711433 -0.4298638 0.16053 -0.05657938 -0.0009697382 -0.07308988 0.19320868 -0.1853878
-0.006670537 0.05573921 0.08697571 -0.013506461 -0.077786125 -0.11428014 -0.16132042 0.0038792335
0.04252225 -0.11218558 -0.0041633532 -0.220284 -0.29720226 -0.036901392 -0.01238443 -0.17529318
-0.15567173 -0.055932116 0.049917776 0.14964157 -0.10031505 0.09069501 0.16015185 -0.031412408
-0.05154078 0.12521581 -0.08487637 0.09016698 0.12480895 0.10873008 -0.02411006 -0.20149694
-0.1972769 0.016536063 0.04359096 0.22701627 0.23145983 0.2678879 0.07026457 -0.034733187
-0.14672795 -0.44639915 -0.12113498 -0.3585273 -0.16939987 -0.13353488 -0.22257945 -0.2714249
-0.050775606 0.003215151 0.121285535 0.41131887 0.34370562 0.12365705 0.19119377 -0.14494815
-0.014855628 -0.15689896 -0.23238282 -0.1729298 0.048237436 -0.1795177 -0.12708235 0.23039971
-0.054027233 0.040278237 0.02780409 0.015631922 0.05470416 -0.020817615 -0.08570129 -0.08605423
0.12891585 0.21556884 0.08584305 0.22027493 0.011706102 -0.2978301 0.0258674 -0.0706859
-0.26111248 -0.07465838 0.1795281 -0.116202585 -0.061765283 0.10050781 -0.082016565 -0.039524823
0.07043958 0.07390206 -0.038894985 0.07170513 0.23212247 0.03519844 -0.025121726 -0.0015222011
-0.17159888 0.10101573 0.062083755 -0.082660094 0.044298004 0.069008015 0.116447896 0.22098497
0.051882323 0.15345968 0.12737347 0.32143986 -0.07798691 0.062653795 0.10709516 -0.11305233
-0.18338226 -0.2795377 -0.15151231 -0.06621803 -0.036266997 0.0302202 0.19266947 -0.00471021
-0.06650189 0.12669557 0.07322349 -0.03485408 0.13357346 0.029712284 -0.31398126 -0.24118155
-0.10267713 0.24455386 0.15154155 0.113614894 -0.019263363 -0.061813578 -0.36039597 -0.22280477

layer1.0.bn1.weight f4 [16]
00000000: 32f4 4a3f c58d 573f 1d42 683f 7ac6 3e3f
00000010: f84c b13f 48d8 873f 252b 8a3f dc6e 353f
00000020: ec0d 6c3f 9d6d 293f 4a67 0a3f f669 5e3f
00000030: cc74 1a3f 4abf 043f a472 293f 0813 413f
0.7927886 0.842007 0.9072588 0.745216 1.3851614 1.0612879 1.0794417 0.70872283
0.92208743 0.6618288 0.54063857 0.86880434 0.6033447 0.51854384 0.6619055 0.75419664

layer1.0.bn1.bias f4 [16]
00000000: ac88 113d a677 683e ec4c d3bd 76e6 2c3e
00000010: 74bc 4abe 119a f3bc abe4 a73c 29e0 aebe
00000020: 48ea 063e f4c9 a2bd 70da ad3d 7590 c53c
00000030: 9f61 853c 48af 1d3e 2521 9cbe fb56 9dbc
0.03553073 0.22701892 -0.10317406 0.16884789 -0.19798452 -0.02973655 0.02049478 -0.34155396
0.13175309 -0.07948676 0.08488929 0.024116734 0.0162819 0.15398896 -0.30494037 -0.019206515

layer1.0.bn1.running_mean f4 [16]
00000000: 0607 6dbf 2caa 0fbf 705c 0dbf f224 bebf
00000010: 36dc 29bf 350d 93bf 3848 05c0 cd8d 47bc
00000020: 46c9 84bf a057 b1bd 647d 903e a74b 4d3f
00000030: 682b 56be 698a 6ebd 4e26 6f3d 7ca7 113f
-0.9258884 -0.56119037 -0.55219173 -1.4855025 -0.6635164 -1.1488405 -2.082533 -0.012179804
-1.0373924 -0.08659291 0.28220665 0.8019356 -0.20914996 -0.058237467 0.05838614 0.56896186

layer1.0.bn1.running_var f4 [16]
00000000: e39e c63f 9ce8 b93f 60b6 ec3f 52ac 993f
00000010: 75bb 5741 cb7e d73f b50a 2c40 a756 a33f
00000020: 36e3 0640 b5d7 a63f 2bd6 f33e 3354 0a40
00000030: 99ec 023f dfb2 3e3f 3f26 9a3f f139 c93f
1.5517238 1.4524112 1.8493156 1.2005713 13.483266 1.6835569 2.6881535 1.2760819
2.1076179 1.3034579 0.47624335 2.161389 0.5114227 0.74491686 1.2042922 1.5720807

layer1.0.conv2.weight f4 [16, 16, 3, 3]
00000000: f2e6 b3be 7f82 353c 9935 953d b625 523d
00000010: 221f 33be 8d0a 2cbd 61d8 8bbd 26a8 83bd
00000020: 7eba 8e3d 218d b1bb 98c8 2fbc db96 02be
00000030: 6a41 333e 129f 65bd f131 963b 7344 a93b
00000040: 8588 95bd ec98 e5bd 6131 a6bd 6759 593d
00000050: ef0f 1d3e f066 9f3d 3477 c13d 89fe 933d
00000060: 806d 14bd 6101 8f3e 4402 763d 96b4 533e
00000070: 6e05 743d f61e 6dbb 41d6 98be 809a 733e
00000080: 3193 17bd 2a2d 6ebd fadf 08bd 0ca7 6abe
00000090: 0617 e33c 703e d5bc 1bbf fdbd 798d 4d3d
000000a0: 9bc5 563e 45ad b83d e4c3 503e 6d8c b6bd
000000b0: 8967 b03e d3c6 11be 6f92 883c 5f0f 3bbe
000000c0: 2e5c 683e c3fe 42be 7b75 8d3c 3ecc 733e
000000d0: f7a2 ce3d bc33 99bc a5de 093c 3c13 a63d
000000e0: 931e fbbd 6625 92be 149f 2ebc 62fd 853e
000000f0: 013e 0a3e 5fbb 26be 3023 eb3e 83f4 0ebe
00000100: 856e dabd 5663 133d 885d 5abe d748 11be
00000110: b37b 433e 6d8e 9a3d 3ff4 1b3d 4235 2d3c
00000120: c202 e93d 77b7 67be b3a3 a63d b267 4abd
00000130: 5b7d 8e3d 19c0 eebd a6de 3bbe d519 803a
00000140: 0ece 85bc cc21 83bd 8955 593d f821 56bd
00000150: 7481 44bd 3af5 7abe f7dc 03be a7e3 833d
00000160: 19b8 debd 940c 90be 95cd 453e c703 ca3c
00000170: e13d d23c 4407 b2bc e0ae 76bd 577f 12be
00000180: 3fcf 7ebd 6188 03be 7d23 94be 8e33 e2bd
00000190: aaf4 0cbe 5345 d1bd a62a 5d3e c5af e3bd
000001a0: c55a 233d a4da 3abc f239 573e 95b2 24bd
000001b0: 7255 5e3d 3cfe 08be 3a93 9f3d 4429 253d
000001c0: 63ca be3d afa5 9d3e 4fac 07be 84b8 c93e
000001d0: 2647 23bd 6b2c 4cbd e584 983e 521e b13e
000001e0: 2e3e 6abd 4929 803b 6387 10be 40d0 0abd
000001f0: 4eaa 4d3e 22bb 67be 1dae 66bd c822 693d
00000200: 016f d3bd 9ccf 6fbe 5763 d7bd 0c0f 27be
00000210: 77d7 fabd 2141 3e3c ab29 e03c 8601 123e
00000220: 4767 1dbd cca0 1ebe dd0e 19bd f814 353e
00000230: 0b80 a6bd 4ff1 4e3d 1063 5fbd afd4 413e
00000240: 101b 5f3d f460 afbd fa56 5e3c 7407 80be
00000250: efea 08be 56ab eebd c05d f2bd 6e53 3fbe
00000260: 099d 50be 0498 90be 3eaf b9bd d0d8 253e
00000270: 9050 b13d ff37 7f3b eba2 753d 1ea3 f53d
00000280: 44d6 94bd f4b8 4dbe 9450 463e 5be2 d2bd
00000290: f31f 12be e2bb e53d 0edc ccbd c288 a0be
000002a0: 229f 09bd 84ef 87bd a699 d4bd 70ec 813d
000002b0: ac2e 95bb bd30 e3bd ddf8 06be 01c9 6a3e
000002c0: 99ef 523d d425 613c 5233 0a3e 8838 d33c
000002d0: a23d 973d 265a 123d 9aa6 26bd f41d a3bd
000002e0: 8550 4ebe 7bb7 2fbe 6e6c 28be c8d1 43be
000002f0: b0df c2bb b203 78be 6dc8 51be 8d3f 58be
00000300: 0b70 393e 9ca2 bd3d b40e 2dbe f4b9 113e
00000310: b470 c23c 1209 81bd 9c0c 58bd 8d15 453d
00000320: df3e 173e 2b4a f33d c179 893c b9fd 983b
00000330: 6a01 41bd 8f21 c6bd d20c 28be a9a8 afbd
00000340: c72b f93d 41f0 5c3c 9d62 a3bd a86d 0b3d
00000350: 78cf 283e a4eb bb3c acbd 23bc 1220 8f3d
00000360: 233e 91bd a5c4 1bbe 05fc f1bc e15a a0bd
00000370: 89dc 7abd 6459 62be 220d 313e 0c60 0a3e
00000380: 0e74 b8bd 32da a13c cc5a cd3d b546 a63d
00000390: d239 203e 9809 803e 999b 073e 1df2 c63d
000003a0: 0fab 6d39 5552 eabd 916a 1b3d c9d5 38bd
000003b0: d3f1 123e cd21 80bc 2b64 43bd 1e28 08be
000003c0: 28f5 c83d 5460 a73d 227e c9bd f2ab 873e
000003d0: e0f9 d43c 2bfe 5dbe fc89 073e 5ca5 093d
000003e0: 2902 babe 75cb f4bd e089 a6bc 3180 2bbe
000003f0: 576e 7bbd de7b c9bd e40f 833d ebdc 7cbd
-0.35137135 0.011078476 0.072856136 0.051305495 -0.17492345 -0.04200225 -0.068283804 -0.06428556
0.06969164 -0.005418435 -0.010728978 -0.1275286 0.17505422 -0.056059904 0.00458359 0.0051656305
-0.0730143 -0.11210808 -0.08114887 0.053063776 0.1533811 0.07783306 0.09446564 0.07226283
-0.03623724 0.2793074 0.060060754 0.20674357 0.05957549 -0.0036181784 -0.29850963 0.23789406
-0.037005607 -0.05814854 -0.033416726 -0.22915286 0.02772094 -0.02603075 -0.12389966 0.050183747
0.20973818 0.090174235 0.20387226 -0.08913503 0.3445399 -0.14236002 0.016671387 -0.18267582
0.22691414 -0.19042496 0.017267933 0.23808381 0.10089677 -0.018701427 0.008414899 0.081091374
-0.12261691 -0.28544158 -0.010658044 0.26169878 0.13500215 -0.16282414 0.45925283 -0.13960461
-0.10665611 0.035983406 -0.21324742 -0.14187942 0.19090156 0.07546697 0.038074728 0.01057178
0.11377479 -0.2262858 0.08136692 -0.049415298 0.069575034 -0.116577335 -0.18346652 0.0009773324
-0.016333606 -0.064029306 0.05306009 -0.05227849 -0.04797502 -0.24507609 -0.1287726 0.064399056
-0.108749576 -0.28134596 0.19316705 0.024660004 0.025664272 -0.02173198 -0.060225368 -0.14306389
-0.062209364 -0.12844993 -0.28933325 -0.110449895 -0.13765207 -0.10218301 0.215983 -0.1111751
0.039881486 -0.011404667 0.21018198 -0.04020937 0.054280706 -0.13378233 0.07791753 0.040322557
0.09315946 0.3079047 -0.13249324 0.39398587 -0.039862774 -0.049847048 0.2978889 0.34593445
-0.057188205 0.0039111716 -0.14114146 -0.03389001 0.20084497 -0.22629979 -0.05631839 0.056917936
-0.10323907 -0.2341904 -0.105169944 -0.16314334 -0.12248128 0.011612208 0.027363619 0.14258394
-0.03842857 -0.15491027 -0.03736769 0.1768378 -0.08129891 0.0505231 -0.054537833 0.18928789
0.05446917 -0.08563414 0.0135705415 -0.25005686 -0.1337087 -0.116537735 -0.11834288 -0.1868417
-0.20372404 -0.2824098 -0.09066628 0.16195989 0.08657944 0.0038943288 0.059969824 0.11994003
-0.072674304 -0.20090085 0.19366676 -0.1029708 -0.1427 0.112174764 -0.100029096 -0.31354338
-0.033599027 -0.06637481 -0.103808686 0.06343925 -0.004552683 -0.110932805 -0.13180871 0.2292824
0.05149803 0.013741929 0.1349614 0.025783792 0.073848024 0.035730503 -0.040686227 -0.079646975
-0.20147903 -0.17159836 -0.16447613 -0.19122994 -0.005947076 -0.2422016 -0.20486613 -0.21117993
0.18109147 0.09259531 -0.1690014 0.14231092 0.023735382 -0.06300558 -0.0527464 0.048116256
0.14770077 0.11879381 0.01678169 0.004668918 -0.04712049 -0.096743695 -0.1641114 -0.08577091
0.12166553 0.013485015 -0.07977793 0.034040123 0.16485393 0.02293951 -0.009993952 0.06988539
-0.0709193 -0.15211733 -0.029539118 -0.07829834 -0.061245475 -0.22104412 0.17290166 0.13513201
-0.09006511 0.019757364 0.10027084 0.08118955 0.15647057 0.2500732 0.1324295 0.09714148
0.00022665806 -0.11441485 0.037943427 -0.045125756 0.14350061 -0.015641117 -0.04770295 -0.13296553
0.09812385 0.0817267 -0.09838511 0.2649837 0.025998056 -0.21678989 0.1323623 0.033604965
-0.36329773 -0.11952869 -0.020329416 -0.1674812 -0.061384525 -0.09838079 0.06399515 -0.06173412

layer1.0.bn2.weight f4 [16]
00000000: 14fe 523f d9f6 1e3f e4db 583f f22c 583f
00000010: 8b40 3a3f 112e 923f bf03 593f 0aef 073f
00000020: 7957 4c3f 171a 203f 9a19 873f c723 743f
00000030: 046c 863f a9f2 123f 926e 3e3f a529 1d3f
0.8241894 0.6209541 0.84710526 0.8444358 0.72754735 1.1420308 0.8477134 0.5309912
0.7982097 0.6253981 1.0554688 0.9536709 1.0501714 0.5740152 0.74387467 0.6139167

layer1.0.bn2.bias f4 [16]
00000000: 980e 1c3d 3c28 483b c358 9d3e 4e28 523e
00000010: 1ae5 d33e 39da 903e f8bb adbc 6c30 803e
00000020: 1af1 083f b801 8a3e e890 6f3d 1607 57be
00000030: df74 07be 1d28 18bd 1b7f 903e 4ae1 443e
0.038099855 0.003054156 0.30731782 0.20523188 0.41385728 0.2829149 -0.021207795 0.25036943
0.5349289 0.26954436 0.058487803 -0.20998797 -0.13228177 -0.03714763 0.28221974 0.19226566

layer1.0.bn2.running_mean f4 [16]
00000000: ed62 0e3d 57c6 8fbf 0972 d93e 0c39 8fbf
00000010: 8e21 c63c dac3 8ebf 692d 86be 35dc c23e
00000020: c535 87bf 7602 a03e c7ee 91bf 3d56 23bf
00000030: e926 2fbd 9fd0 613e 8116 29bf b731 b13e
0.03476231 -1.1232404 0.42469814 -1.1189284 0.024185922 -1.1153519 -0.2620652 0.3805863
-1.0563284 0.31251878 -1.1400994 -0.63803464 -0.042761717 0.22052239 -0.66049963 0.34608242

layer1.0.bn2.running_var f4 [16]
00000000: 4073 2c3f 56e2 473f 79df 893f b410 4b3f
00000010: ba2a 623f 6076 d03f 1508 5c3f 44cd 023f
00000020: dffc 823f dcab 4b3f bba6 de3f 367e 503f
00000030: 37d1 ee3f ad69 c93e ae06 853f 6883 d83e
0.6736336 0.78079736 1.0771323 0.7932236 0.88346446 1.6286125 0.8594983 0.5109446
1.023342 0.7955911 1.7394632 0.8144258 1.8657597 0.39338437 1.0392663 0.42287755

layer1.1.conv1.weight f4 [16, 16, 3, 3]
00000000: c788 94bd ce98 8d3c e19b 66bc 8352 3abd
00000010: 049d 673d 746a 403e 107a 00be 1a24 203e
00000020: 7cd5 9a3e 1994 c7bd 0fdf c5bd 8aac 663e
00000030: dc02 56be df91 26bd 47c9 46bd ed80 72ba
00000040: 05f0 12be 0c84 d93d 3800 fdbd aa09 cf3d
00000050: 235a ab3d 9795 03be d766 c93d 3254 ff3d
00000060: 7a01 5b3d abc9 9b3d 432e 16be e26d a43c
00000070: a255 5cbe 2642 48be 054a 8e3d 71ce e4bd
00000080: 14ca 07be a16e b33c 1ca4 3ebe 5a45 593c
00000090: ba47 0fbe 456a 91bd e472 3c3e 2f0c 37bd
000000a0: e5d4 f1bd 9b48 d2bd ef9c 17bb 0390 1d3d
000000b0: 85ef 98bd 1080 8c3e 3f81 4a3c ce9b 59be
000000c0: de86 633e 8ece 91bd a0cd 713b 1401 c63d
000000d0: 2e86 c6bd 682b aebc f427 a9bd 9b5c a9bc
000000e0: 0d85 643e 7e59 aabc d431 6b3d fe0c ce3d
000000f0: 5ce4 ae3d 1df0 ef3d 46b0 f33d 7f5d 15bd
00000100: eb45 04be dbbd ec3c b191 9cbc 1b49 9d3d
00000110: ceee 9e3d c476 003e 0bdb 6e3d 87a6 fc3d
00000120: 34dc 213d 6dc3 84be 6b25 d43d 778f ca3d
00000130: 348b bbbd 3dcd 7cbc c0df 46bd 6c0d bbbc
00000140: 26d5 5d3c c34c b6ba d7bb 0abe c226 213c
00000150: aaf7 af3d 0299 3abe ea8e 2f3d d79a 523e
00000160: 1cc5 663e 7f2b 273e e662 0fbe 4b82 bfbd
00000170: 3c83 1b3e 0bc5 21bd eaa7 22be 9aa9 b03c
00000180: a86d ac3d 8fe6 91bd 89b8 5a3d 016d 4e3d
00000190: cd65 673d 504f 62bd 685e 833c f611 ca3e
000001a0: 1bf0 bc3c 660d dfbd 899b 2a3e 668d 9cbd
000001b0: d08d c93d e3eb ff3d 7259 1abd a591 ddbd
000001c0: fc00 683e c5bd c7bd 76b5 95bd e49d 5f3e
000001d0: d6fc 743d a8d6 9ebb b1c2 323e c7a4 873e
000001e0: 3709 35be 8531 8c3d a752 7cbc 9a0d 45be
000001f0: 7b26 24bc 7fa2 463e ea80 16be bd0a 11be
00000200: 45ed 353e 5ceb 34bd 9184 233d 8730 b9bb
00000210: 08d4 c0bd d2d6 d1bd eb5c a9bd 804d 80bd
00000220: 0031 333d 7c2f 68be d5bc a5bd c62d a7be
00000230: ad24 3fbe d63e ec3d 7978 e23c db67 e2bd
00000240: c1b3 08bd 88e6 1bbe 57a2 0cbe ef08 f3bd
00000250: 22b0 0cbe 1015 babe b23f 653d df5f 56bd
00000260: 73cb f53c 4779 9dbd c38a 113e 95d9 3fbd
00000270: 1eba 9d3d a9cf 5c3e a9cd ec3d d94a eb3d
00000280: f8e7 4cbd 582b 9cbe b4b4 a33e 071e 08bb
00000290: e091 883b 7242 e0bd 4ebf 61be a84c afbd
000002a0: f048 ddbd db5c 1d3d c99d 56bd 2199 053e
000002b0: 3bf7 3d3e 209a 63bd d9b4 0a3d 942a 853d
000002c0: bcde b73c 08d6 12be 2ecb 08bd 432a a83c
000002d0: b633 efbd ad55 c6bd a930 2bbc ba26 9abd
000002e0: 0ded efbd e4e7 8c3e 7d45 f63d 3419 3cbd
000002f0: c9ba 193e dc4e a3bd 1769 d4bd c4e8 363c
00000300: 4f29 aebc a9a8 bfbd 8381 ae3d a81f 323e
00000310: 0eb0 6fbd b02c 60be 282c 673d fd6f 15be
00000320: e0b4 df3a f34b 05bd 4073 8c3d ee65 2cbd
00000330: fdf1 ef3c 91b6 2cbe c62b d4bd 21f3 17be
00000340: cb01 4bbe 4cfa 0abe 7770 1a3e d97a d63d
00000350: 0360 e83d c526 dd3c 580d 3e3e 440d 9e3d
00000360: 35e7 1c39 a379 97bc 6b7d 3d3e 7f3a c3bd
00000370: efc3 d23c 8bd9 95bd 579e 01be cf44 f2bd
00000380: d65a 3cbd ea9b 033e 53f1 cc3c 8794 82bd
00000390: 9685 593e 656a 913d 4aa4 debd cdf9 1dbd
000003a0: 62d7 22bd a6f5 bebd 6ce6 ffbd 87a2 1f3d
000003b0: adc9 05bc d452 623d c832 a93e b991 b53d
000003c0: e76b d939 1c5b 203d c34d a9bd e2e3 fcbd
000003d0: 6009 d23c a8a0 0ebc fdd2 1f3d 2b1f 953c
000003e0: e4b0 c2bc 6355 5cbd 9c6b 7a3c b127 d4bc
000003f0: 34a2 3dbe 809e d3be 8e7a edbd c9c5 06bf
-0.07252651 0.017284777 -0.01407525 -0.045488846 0.056546226 0.18790609 -0.12546563 0.15638772
0.30241 -0.09745044 -0.09661686 0.22526756 -0.20899528 -0.040666457 -0.048531797 -0.0009250779
-0.14349373 0.10620889 -0.12353557 0.10109265 0.083668016 -0.12850033 0.09834068 0.12467231
0.053468205 0.076068245 -0.14666085 0.020071927 -0.21517041 -0.19556484 0.06947712 -0.11172188
-0.1326068 0.021903338 -0.1861729 0.013261164 -0.13992205 -0.071003474 0.18403202 -0.044689354
-0.118081845 -0.10267755 -0.0023134311 0.03846742 -0.0746756 0.27441454 0.012359916 -0.21250841
0.22219416 -0.07119475 0.0036896244 0.096681744 -0.096935615 -0.021260932 -0.082595736 -0.02067404
0.2231638 -0.020794626 0.057420567 0.10061072 0.0853965 0.1171572 0.11898856 -0.036466118
-0.12917297 0.028899124 -0.01911244 0.076799594 0.07760392 0.12545305 0.058314364 0.1233645
0.039516643 -0.25930348 0.103586994 0.09890645 -0.0915741 -0.015429792 -0.04855323 -0.022833548
0.013539588 -0.0013908375 -0.13548218 0.009835901 0.0859216 -0.1822243 0.042860903 0.20566879
0.22536129 0.16325186 -0.1400257 -0.09351023 0.1518678 -0.039494555 -0.15884367 0.021565247
0.08419353 -0.07124054 0.053398643 0.050396923 0.05649357 -0.05525142 0.016036227 0.39466828
0.02306371 -0.108912274 0.16660894 -0.07644157 0.09841502 0.12496164 -0.037682958 -0.10818795
0.22656626 -0.097529925 -0.073100016 0.21837574 0.059811436 -0.0048473664 0.17457081 0.26492903
-0.17679296 0.068453826 -0.015400565 -0.1924347 -0.01001894 0.19397925 -0.14697614 -0.14164253
0.17766292 -0.04416977 0.039921347 -0.005651537 -0.09415442 -0.10246052 -0.08269676 -0.06264782
0.043747902 -0.22674364 -0.080926575 -0.3265211 -0.18666334 0.115354225 0.027645336 -0.11054965
-0.03337455 -0.1522466 -0.13733803 -0.11866938 -0.13739064 -0.36344194 0.055968948 -0.052337524
0.030004239 -0.076891474 0.1421309 -0.04683836 0.07701515 0.21563591 0.11562664 0.114888854
-0.05002591 -0.3050182 0.31973803 -0.002076985 0.0041677803 -0.109501734 -0.22045633 -0.08559543
-0.10804927 0.038418632 -0.05239657 0.13046695 0.18551342 -0.055566907 0.033863876 0.06502262
0.022445075 -0.14339459 -0.033396892 0.020527964 -0.11679785 -0.0968431 -0.010448613 -0.07526918
-0.11715136 0.27520669 0.120249726 -0.045922473 0.15012659 -0.079740256 -0.10371607 0.011163894
-0.021259932 -0.09358341 0.08520796 0.17394888 -0.05851751 -0.21892047 0.056438595 -0.14593501
0.0017067455 -0.032543134 0.0685792 -0.042089395 0.029290194 -0.16866519 -0.103599116 -0.1483884
-0.19824903 -0.13572043 0.15081964 0.1047265 0.11346438 0.026996026 0.18559778 0.07717374
0.0001496345 -0.018490618 0.18504874 -0.095326416 0.025728194 -0.07316884 -0.12658058 -0.118295304
-0.045985065 0.12852445 0.025017416 -0.063759856 0.21242365 0.07100371 -0.108711794 -0.038568307
-0.039756186 -0.093241975 -0.12495121 0.038973358 -0.008165759 0.055254772 0.33046556 0.08865685
0.0004146986 0.03914939 -0.08266785 -0.12348153 0.025639236 -0.008705296 0.039019573 0.018203339
-0.023765989 -0.05379237 0.015284445 -0.025897833 -0.18518907 -0.41331863 -0.11595641 -0.52645546

layer1.1.bn1.weight f4 [16]
00000000: f8de 453f 31fa 853f ffff 863f c7a4 3a3f
00000010: 63ff 2c3f 3315 2b3f da7c 353f 6661 413f
00000020: c55c 513f 4574 513f ff0a 403f 3c60 833f
00000030: 62d9 493f 749b 4c3f 6b55 4b3f 351f 693f
0.7729335 1.0466977 1.0546874 0.7290768 0.6757719 0.6682922 0.70893633 0.75539243
0.8178218 0.8181804 0.7501678 1.0263743 0.78847325 0.799247 0.7942721 0.91063243

layer1.1.bn1.bias f4 [16]
00000000: 1a2a 1b3e e77a 5fbe 4e96 8abd 8e81 0fbd
00000010: 35c1 abbc e5f5 4a3e b264 673d 3455 1dbe
00000020: bb9b d1bd e12f 4bbe 17db c73d 31ad b8bc
00000030: bc15 b4bc 7d8a a2bd 5370 71bd eb84 a4bd
0.15152779 -0.21824227 -0.067669496 -0.035035662 -0.020966152 0.19820364 0.056492515 -0.15364534
-0.10234781 -0.19842483 0.09758585 -0.022543522 -0.02198302 -0.07936571 -0.05894501 -0.080331646

layer1.1.bn1.running_mean f4 [16]
00000000: 27c2 d93e bffd 19c0 a21a 893e a2eb 09c0
00000010: cab8 c5bf dd70 4440 d9e4 82bf 31c7 49bf
00000020: 90bb d3be b9f6 9bbf f2e3 5f3e 045a 09bf
00000030: fc5b 9c3f 8106 adbf c1d8 1fbf dd8f 5cbf
0.4253094 -2.4061124 0.26778132 -2.155007 -1.5447018 3.0693886 -1.0226089 -0.78819567
-0.41354036 -1.2184669 0.21864298 -0.5365298 1.2215571 -1.351761 -0.62440115 -0.8615702

layer1.1.bn1.running_var f4 [16]
00000000: 4a5d 3040 31d0 a140 9bf8 b040 c78c 0640
00000010: ceae f63f c380 e33f 2f43 ab3f f152 c93f
00000020: 54c6 1740 73ea f33f 7ece 3540 5eb6 9a40
00000030: 0e84 2c40 87c9 0e40 287c f43f 63e5 2e40
2.755694 5.056664 5.5303473 2.1023424 1.9272096 1.777367 1.3379878 1.5728437
2.37148 1.9055923 2.8407283 4.8347616 2.69556 2.2310503 1.910039 2.7327507

layer1.1.conv2.weight f4 [16, 16, 3, 3]
00000000: 6bef 0b3c d655 d0bd 763d cd3d 8f09 07bc
00000010: f19e 143e c198 3bbd 8227 603c c9cd 0f3e
00000020: 23a9 56be 2cec 25bc 4685 abbd 87d4 e3bd
00000030: af49 813d 9a5e 283d f50e 3bbe 28de 25bc
00000040: e6f6 50bd 7fa7 2e3e a920 27bc e841 aabe
00000050: 0072 0b3b ebd9 f9bd fd10 c9bd fe00 db3d
00000060: aa68 083d 184f a3bd 7e2e 1cbe b785 1d3e
00000070: d325 2b3e 4f54 313d 0436 b7bd 2a85 123e
00000080: e3f1 2b3e 0ed4 d7bd 4df4 9fbd 699c cebd
00000090: 30f1 823e c83c 0ebd 72b3 9f3d 194d 963d
000000a0: ed6e dabd 616d 173e bbf9 3cbc 2477 24bc
000000b0: b321 b4bd a0ca c23b 7687 37be daa1 c13d
000000c0: 0ca9 f6bd f6e8 38bd eb8c 9c3e 0f12 1c3e
000000d0: 8c48 b73d d382 cfbd 38c2 66bc 6aa9 37be
000000e0: f4e0 a53e 3332 c43d 9d4f 10be 69db fdbc
000000f0: c305 3fbe ed9a 403e 1682 68be fdb4 2b3e
00000100: 990f 3b3c c637 0dbe 6f03 c0bc 06dd 733e
00000110: 7c2c 12bd a8d4 763d 14cd 4d3e 6bd9 bf3c
00000120: d9f9 0e3e 7241 83bd 6c2e 05be 07fe 903d
00000130: 97ea 093e 34bf cebc 0fc3 babd 20fd 1c3e
00000140: 1835 14be fcc8 d9bd 83a0 103e 3525 3cbe
00000150: 35ce 5fbd 60c9 2c3e 4111 323e 9577 a43d
00000160: a93e 17be 93f0 3e3e 0fc5 a3bc 40f0 903d
00000170: 77c6 61bd 275b e9bd 781e 953b 6715 e9bd
00000180: 6af0 13be 4cfd 50be abdd fbbd 65ac b0be
00000190: 190c 5f3e 2234 14be 3422 053d 6bd9 ac3e
000001a0: 752a 103d 84ec 503e 4e60 f8bd 4b0d 0a3e
000001b0: dffa 95bd 1fcc 00be b2ca b53c 0da3 f03c
000001c0: d253 a9bd 908d cabd 4190 a5bb 04d2 7c3c
000001d0: 1b5f 20bd d3ef 0c3d 19c5 19be ca7f c5bd
000001e0: 791f 09be ade6 78bd 06ef 313c 1209 2fbe
000001f0: 3cca 433d 5bd2 dfbc ad48 2b3e c447 99bc
00000200: d6c3 05be 4b1e 1dbe 9284 e4bc a435 72bb
00000210: e50e b5bd 34a8 60bc 5862 ec3c 8255 9dbd
00000220: 9ce2 a73e f59e 193d 8466 213e 0adc 5ebd
00000230: 5235 d8bc 8ef3 e4bd 14a3 90be 7b4a 1abd
00000240: 0757 d1bd e334 93bd 31c8 6f3d fc78 e83d
00000250: f94f a53c 0d94 9e3d 9569 683b b218 3b3e
00000260: 9c7d b63d 0133 cabc 2838 e23d 7363 e43d
00000270: bda8 fe3d 1ec0 883e 0529 543b 20e3 abbd
00000280: ff88 7f3b 70cd ec3d 031d 683c 18f3 cb3c
00000290: 91f0 aebd 2d40 003d 552a bb3d 1354 893d
000002a0: 3e56 d13c c03a 483d 79bc b83d 63ca 623c
000002b0: 139b a53d 60d1 293e faf5 e0bc 0560 7ebc
000002c0: 4e16 0d3e 0367 093c 4c99 283d d275 83bd
000002d0: ff1a 14be c3f8 89bd c928 bd3d 4d17 d5bd
000002e0: 3579 27be 1969 39be 41be bd3d c80f 43bd
000002f0: 84d2 1dbe 5237 803d 76b4 f53d 6eb4 263e
00000300: 51d0 0d3e 8958 453e 72fa 873e b938 e43c
00000310: f891 37be 076a 1cbe bfa5 c63d 8f25 e13d
00000320: ef97 2a3e f848 05be f3cb 52be 25be 1bbd
00000330: 10d0 73bc 354d 16be bbf9 86bd 3aaa 5fbd
00000340: f30b 01be c47b 8dbe f9a5 d7bd b6b5 88bd
00000350: b803 12bd 08e5 66bc f163 b3bc cd71 eebc
00000360: a7bd 873d 166f 3f3e b4e1 2b3e ae34 493e
00000370: c705 b93e 3718 e03c de1e b63c f637 8cbc
00000380: dac5 cf3c 4ec5 a23d 648b b13d 2795 903d
00000390: 888f 0fbe 2ebe 8ebc 9343 a9bd 47cc 9bbe
000003a0: b260 05be f6a2 d8bd 6946 b4bd ec2c dabd
000003b0: 1323 6abe 8462 db3a 07c4 343e c506 373d
000003c0: 6f14 26be 2424 2b3e f85a b93d 4095 853d
000003d0: ab89 ab3d 6855 3d3e 8056 e53c 0460 4e3e
000003e0: de93 b63e 4227 7a3d ded7 933d ad60 d73d
000003f0: eebe 09be c534 e8bd 912f c0bc eac8 c33d
0.008540968 -0.10172622 0.10021488 -0.008242025 0.14513756 -0.045799974 0.013681294 0.14043345
-0.20962958 -0.010127109 -0.08375029 -0.11124521 0.06312882 0.041105844 -0.18267424 -0.010123767
-0.05101671 0.17056082 -0.010200658 -0.33253407 0.0021277666 -0.12199768 -0.098176934 0.106935486
0.03330294 -0.0797407 -0.1525211 0.1538304 0.16713648 0.043293294 -0.089458495 0.1430861
0.16791491 -0.10538493 -0.078102686 -0.100884266 0.25574636 -0.034725934 0.07797898 0.07338924
-0.10665689 0.14787818 -0.01153415 -0.010038171 -0.0879549 0.005944565 -0.17922768 0.09454699
-0.12043962 -0.045144044 0.30576262 0.15241264 0.08949384 -0.101323746 -0.014084391 -0.1793572
0.32398188 0.09579887 -0.1409287 -0.030988412 -0.18654542 0.188091 -0.22705874 0.1676826
0.011417293 -0.13790807 -0.023439137 0.23814783 -0.035686955 0.0602614 0.20097762 0.023419103
0.13962497 -0.06408967 -0.1300599 0.07079702 0.13468395 -0.025237657 -0.09119236 0.15330935
-0.14473379 -0.10634038 0.1412373 -0.18373568 -0.054640014 0.16873693 0.17389394 0.08030621
-0.14769997 0.1864646 -0.019991426 0.07077074 -0.05512091 -0.11394339 0.0045507513 -0.11381035
-0.1444718 -0.20409125 -0.12298139 -0.34506527 0.21781959 -0.14473012 0.03250332 0.33759627
0.03519674 0.20402724 -0.12127744 0.13481633 -0.073232405 -0.12577866 0.02219138 0.029374624
-0.082679406 -0.09890282 -0.005052597 0.015430931 -0.0391532 0.0344084 -0.15016593 -0.096435145
-0.13390912 -0.060766865 0.01086021 -0.17093304 0.047800288 -0.027321985 0.16726942 -0.018710978
-0.13062987 -0.15343587 -0.027895246 -0.0036958242 -0.088407315 -0.013711978 0.028855488 -0.07682325
0.32790077 0.03750511 0.15761763 -0.054409064 -0.026392613 -0.11179267 -0.2824942 -0.037668686
-0.10221677 -0.07187822 0.058540527 0.11351201 0.020179735 0.07743082 0.0035463322 0.1827114
0.08910677 -0.024682524 0.11045867 0.11151781 0.12434528 0.26709074 0.0032373082 -0.0839293
0.0038991568 0.115626216 0.014167073 0.02489619 -0.08541978 0.031311203 0.091389336 0.06705489
0.025553819 0.048884153 0.09020323 0.013842198 0.08086219 0.16583776 -0.02746104 -0.0155258225
0.1377804 0.008386376 0.04116182 -0.06418957 -0.14463423 -0.06736901 0.09236295 -0.10404835
-0.1635483 -0.18106498 0.09264804 -0.047622472 -0.15412337 0.062605515 0.11997311 0.16279766
0.13848998 0.19272055 0.26558262 0.027859079 -0.17926776 -0.15274821 0.09699582 0.10993492
0.1665952 -0.13016117 -0.20585613 -0.038023133 -0.014881149 -0.1467789 -0.06590601 -0.0546057
-0.12602215 -0.27633488 -0.10529704 -0.066752836 -0.035648078 -0.014092691 -0.021898242 -0.029106999
0.0662797 0.1869472 0.16785318 0.19649002 0.3613722 0.027355297 0.022231515 -0.017116528
0.025362898 0.07947789 0.08669165 0.070596986 -0.14019597 -0.01742467 -0.08264842 -0.3042929
-0.13025168 -0.10577957 -0.08802492 -0.106530994 -0.22864942 0.0016737734 0.17652903 0.04468419
-0.16218732 0.16713005 0.09050554 0.06522608 0.083758675 0.18489611 0.027995348 0.20153815
0.3565969 0.061072595 0.07218908 0.10516486 -0.1345174 -0.1133819 -0.023460181 0.09559806

layer1.1.bn2.weight f4 [16]
00000000: 185f 2e3f 41b4 433f 66f1 333f bc16 883f
00000010: 11e5 4e3f 5bc7 303f 4ab5 4f3f cf06 2d3f
00000020: 0098 193f 3a33 703f 9204 463f 49d6 893f
00000030: 911d 813f 1349 713f 259c 113f c00f 573f
0.6811385 0.7644692 0.7029022 1.0631938 0.8081828 0.6905419 0.81136 0.67588514
0.5999756 0.93828166 0.77350724 1.076852 1.0087148 0.9425213 0.5687888 0.8400841

layer1.1.bn2.bias f4 [16]
00000000: e9c0 e8be 6fd9 463e 338a af3e 3844 d13d
00000010: c2af c33d 10d5 4f3e 349f 003e 8eca 923e
00000020: f3f7 3a3e 77b6 6d3e 6040 fe3e 84a8 afbe
00000030: 1df0 f93e 3f9d fabd d583 593d 0470 15be
-0.4545968 0.19418882 0.34285125 0.1021809 0.095550075 0.2029612 0.12560731 0.28670162
0.18258648 0.23214136 0.4965849 -0.34308255 0.48816004 -0.122370236 0.05310424 -0.14593512

layer1.1.bn2.running_mean f4 [16]
00000000: d501 a5be d7fd 853f e590 c43c a953 833d
00000010: 06d9 4dbf 857b 17bf 8c8b 91be 9911 04bf
00000020: 2cc3 263f ba78 673f 4489 d5bf f7bf 21bf
00000030: 72f8 e7bf bb77 d73e 0e66 3a3e b1d6 823e
-0.3222796 1.0468091 0.023994872 0.06412441 -0.80409276 -0.5917285 -0.28426778 -0.5158935
0.6514156 0.9041859 -1.6682515 -0.6318354 -1.8122694 0.42083535 0.18202993 0.25554422

layer1.1.bn2.running_var f4 [16]
00000000: d865 fd3e 9433 7b3f ef83 2e3f 93d8 ae3f
00000010: f6f9 683f 6a07 743f 1e0e 4b3f 3f48 3c3f
00000020: 9d01 753f 13be ca3f 8868 ba3f 4d0a 863f
00000030: 923f af3f 8367 373f 611e 1f3f 1173 1a3f
0.49491763 0.98125577 0.68170065 1.3659843 0.9100641 0.9532381 0.79318416 0.7354774
0.95705587 1.5839256 1.456315 1.0471894 1.3691275 0.7164232 0.6215573 0.6033183

layer2.0.conv1.weight f4 [32, 16, 3, 3]
00000000: 3749 c6bc e1d0 463d 8256 163d 7264 95bd
00000010: c51b bbbd 6a99 b1bd 7876 60bd db99 c9bd
00000020: 9851 093b 7132 40bd 4a89 bd3d bd11 e7bc
00000030: 7176 e13d 4179 debc aadc b6bd 4ecf 6b3d
00000040: 3a6d 623d ff73 b53d e8da 4abe 838b afbc
00000050: f155 39bd 254d df3c e977 c1bc c061 113d
00000060: 9997 d53c 052b bb3d f89b 913d bb34 053d
00000070: 7f91 95bd 5584 b83d 7812 873c 0a25 1cbd
00000080: c034 3a3e 3097 7e3d 10f2 903c 8ac3 c43d
00000090: c24e ef3c d25f 083c 3f4e 89bc 0ebf f3bd
000000a0: 1522 17be 4088 b3bd a008 abbe 19a0 14be
000000b0: 78d7 983d 09ea a2bd 8eee 90bd 2498 053a
000000c0: 75b4 67bd ab77 4c3d 242d f23d f791 333d
000000d0: c38c 843e a12f 4f3d e0a8 6f3d ed9c 14bc
000000e0: a379 f9bd 1764 913d 87b0 ca3c 66ad 663c
000000f0: 7c12 c5bc 8a10 85bb ef9e 5c3d 8b34 b8bd
00000100: e35b 72bd a11a 9d3d 0bc4 24be 8d30 24bc
00000110: c47c 653d d1d1 94bd 64c6 fbbc e381 b4bc
00000120: a17e f0bd 9f35 04bd 5aa9 bebd 1440 8fbe
00000130: 0cad 6ebe 687b 3cbe 173f 2cbe f394 5abe
00000140: 4ca2 0abe 9b30 82bc 2a2e 8abd af77 41be
00000150: f63c f0bd fe2f 4fbd 639c 28be d1c0 2ebe
00000160: df23 14bc f283 acbd f57e 893e eac4 823d
00000170: 8843 013e 7182 1f3e 2995 3e3e 2ad7 f73d
00000180: a140 1d3e b708 a43d ddda 053d ea11 dd3d
00000190: e9b0 7ebc 385d 0cbc 105b 2a3d 6066 17be
000001a0: 297a 3cbd 6e24 b53d 29fe 91bc a872 28bd
000001b0: cc48 763c 616f b0bd c547 11be 6b57 e3bd
000001c0: 5c2f 21bd 6a7b 26be 2957 ec3b a282 babd
000001d0: 4f81 4d3d 149e 033e c7d8 0e3e a83d 1bbd
000001e0: c1a9 223d 2084 673d 548c 04bc df5b ed3c
000001f0: 8e55 37be a2a0 6fbc f7de 89be 13e6 00bc
00000200: 3439 d2bd ad37 d8bd ddd1 35bd 4f98 51be
00000210: 1194 3cbd e720 713c 56e6 53bd eb3c 97bd
00000220: 7233 bd3d 4435 0c3e 9b31 e4bd d6ca 9abd
00000230: d233 88bd a392 eebc b526 f1bc 8125 b7bc
00000240: 0bc2 9cbd d559 dcbd f4b3 5ebd 831e 4abd
00000250: 415a 97bd a9fb 643d d816 e0bc b827 aa3c
00000260: e999 7c3d 10fc de3c bed5 2c3d d793 603d
00000270: 924a 14be 10ad f4bd 7cf3 aa3c 1d10 d6bd
00000280: 3b1f 23be c0d7 89bd d2c3 abbd 70b6 a5bd
00000290: 3b86 dcbd 5cdc e4bd c97c bfbd d6d9 1bbe
000002a0: 7165 06be f008 dabd bef1 8bbd d9a8 e1bd
000002b0: 39a7 61bc 2b96 f83d cedd 12be 476f 72bd
000002c0: ef9d 9b3d f7b6 26bd 03ec 333d fbd5 053e
000002d0: d0bf 0dbd 7e28 ffbd a325 cbbd 2026 1abe
000002e0: 777e 0ebe 488f 3abd db0c d53d 4d9c cdbb
000002f0: 6627 c8bc 31d5 e7bd f4cf 1bbd 1ce5 16bc
00000300: d5d2 4f3d ca14 d1bc 200c 643a fd75 ea3d
00000310: 56b1 113e a241 4dbd e759 c2bc b705 09be
00000320: c1ca 0ebe 83f8 723a 1e9c 20be 137f 80bd
00000330: 1806 8c3d c781 54bd 09ba d2bc f56d f33c
00000340: 6d2b a53d e5d0 f83d f62a febd b7b5 953d
00000350: 488a 433d 8c0c f4bd 72fe bbbd a121 cf3c
00000360: e635 323e ecb9 013e b439 76bd c11e 8c3e
00000370: 546f 3d3e 255d 9cbc e21a 513e 340a b53c
00000380: ad2e 1ebd 271a 37be 1ce9 ddbd dd39 12be
00000390: 71aa 19be 93d6 4cbe 6bd8 27be 2b9d 4dbe
000003a0: 3a7b 59be fb36 89be e916 71be 901f 78be
000003b0: 35ee fcbd 116b 30be e293 b6bd 2397 4fbe
000003c0: ccb7 7b3d 1733 a2bd 2591 f93d f15f 383d
000003d0: 7149 893d f45b 303b 08b9 95bd dcf2 22bd
000003e0: 6945 3d3d 8412 9ebc 07da 553c 10b3 14bb
000003f0: b5bc f93c 83e6 49bd 08b3 47bc 3953 bf3d
-0.024204833 0.048539046 0.036703594 -0.07294549 -0.09136156 -0.086718395 -0.05480048 -0.09843799
0.0020953175 -0.046923105 0.092547014 -0.0282067 0.11008919 -0.027157428 -0.08928807 0.057570748
0.055279948 0.08860015 -0.19810069 -0.021428829 -0.045247976 0.027258465 -0.023616748 0.035493612
0.026073264 0.09139065 0.07109827 0.03252099 -0.07303142 0.09009615 0.016488299 -0.03812126
0.18184185 0.062155902 0.01769355 0.096076086 0.02921236 0.008323627 -0.016760943 -0.11901675
-0.14759095 -0.08766222 -0.33405018 -0.14514197 0.074629724 -0.07954795 -0.07076751 0.0005096218
-0.05656858 0.04991881 0.11825016 0.043840375 0.25888643 0.05058253 0.05851066 -0.009070617
-0.121814035 0.07099169 0.024742378 0.014079427 -0.024056666 -0.0040608095 0.05386251 -0.08994397
-0.05916966 0.07671095 -0.1609041 -0.010021341 0.05602719 -0.07266582 -0.030734248 -0.022034591
-0.117429025 -0.0322777 -0.09309645 -0.27978575 -0.233082 -0.18406451 -0.16820942 -0.21345882
-0.13538474 -0.015892318 -0.06747086 -0.18893312 -0.117303774 -0.05058288 -0.16465907 -0.17065741
-0.009041755 -0.08423604 0.26854673 0.063852146 0.12623417 0.15577103 0.18611588 0.12101586
0.15356685 0.08009475 0.032679427 0.107944325 -0.015545108 -0.008567147 0.04159075 -0.14785147
-0.04601494 0.08844839 -0.017821388 -0.04112497 0.015032005 -0.08614994 -0.14187534 -0.11100658
-0.039351806 -0.16258016 0.0072125387 -0.091069475 0.050172146 0.12853271 0.13949881 -0.037900597
0.03971267 0.05652249 -0.008090097 0.028974472 -0.1790373 -0.0146257 -0.2692792 -0.007867354
-0.10264817 -0.10557494 -0.044389594 -0.20468257 -0.046039645 0.014717317 -0.051733337 -0.07384666
0.09238328 0.13692194 -0.11142274 -0.07558219 -0.06650509 -0.029122656 -0.029437402 -0.02235675
-0.07654198 -0.107593216 -0.054370835 -0.049345504 -0.073902614 0.055904064 -0.027354643 0.020770893
0.061670218 0.027219802 0.042196028 0.05482849 -0.14481571 -0.119470716 0.020868056 -0.10452292
-0.15929882 -0.06730604 -0.08386959 -0.08091438 -0.1076779 -0.11174843 -0.09349973 -0.15219817
-0.13124634 -0.10646236 -0.06833218 -0.11018533 -0.013772779 0.12138017 -0.14342424 -0.059188154
0.07598483 -0.040701833 0.04392625 0.13069908 -0.034606755 -0.12458895 -0.09919288 -0.15053606
-0.1391543 -0.0455468 0.104028426 -0.006274736 -0.02443285 -0.1131996 -0.038040116 -0.009209897
0.050738174 -0.025522608 0.00086993165 0.11448286 0.14227805 -0.05011142 -0.02372451 -0.13381086
-0.13944532 0.00092685985 -0.15684554 -0.062742375 0.068371 -0.051881578 -0.025723474 0.029715518
0.080649234 0.121492185 -0.12410538 0.0731005 0.047739297 -0.119164556 -0.09179391 0.02528459
0.17403373 0.1266858 -0.060113624 0.27367213 0.184995 -0.019087384 0.20420411 0.022099592
-0.038618732 -0.1788107 -0.10835478 -0.14279886 -0.15006424 -0.20003729 -0.1639115 -0.20079486
-0.21238413 -0.2679976 -0.23543896 -0.2423079 -0.12350122 -0.17228343 -0.08914925 -0.20272498
0.06145458 -0.07919901 0.12185887 0.04501337 0.06703461 0.0026910277 -0.073106825 -0.03978239
0.046208773 -0.019295938 0.01305247 -0.0022689737 0.03048549 -0.0492921 -0.0121886805 0.09342045

layer2.0.bn1.weight f4 [32]
00000000: fb70 703f 9ad9 383f 64b3 4b3f 4a04 5d3f
00000010: 30d4 3a3f bf3d 523f a2d6 623f e45a 403f
00000020: 34ae 463f 043c 4a3f 0780 503f ee71 633f
00000030: 658f 4c3f d306 4c3f f8f1 3b3f e7cb 633f
00000040: 5fcf 4c3f 914c 4f3f 400e 4e3f da87 4f3f
00000050: 5174 553f 83a6 523f 96d3 453f c1a5 523f
00000060: 5976 3f3f 0c48 4e3f c6f9 453f 9186 4a3f
00000070: 9543 5b3f c72d 453f c6dd 4c3f 12be 683f
0.93922395 0.72207034 0.79570603 0.8633467 0.7298002 0.8212547 0.88608754 0.7513869
0.7760956 0.78997827 0.81445354 0.8884572 0.799063 0.7969791 0.7341609 0.88983005
0.80003923 0.80976206 0.80490494 0.8106667 0.8338061 0.82285327 0.7727598 0.8228417
0.7478996 0.80578685 0.7733425 0.7911158 0.85649997 0.77022976 0.800259 0.90915024

layer2.0.bn1.bias f4 [32]
00000000: 4f27 c23d 9075 80bd c361 893d 5b94 bbbd
00000010: b2aa 05bd 15c8 41be c2b2 14be 35f7 c83c
00000020: 7843 c0bd ad7e 613d 006c 1abe 8efd cbbe
00000030: 232c 1abd fe23 aebd 63d7 3cbc e794 28be
00000040: 6f9f c1bc f29a 21be 3e53 23bd be2b cdbd
00000050: cd9a 4abe cd74 babd 7ef5 69be de40 8dbd
00000060: b9ec 9abd 3806 313d 4962 5dbe 8c1f 5bbd
00000070: 1c54 e4bd d8c7 67be 8405 27be ef3f 0ebe
0.09480154 -0.06272423 0.067081 -0.09159156 -0.03263349 -0.18923981 -0.14521316 0.02453194
-0.09387869 0.055052448 -0.15080261 -0.39841884 -0.03763975 -0.08502959 -0.011525962 -0.16463052
-0.023635594 -0.15781763 -0.039874308 -0.10018109 -0.19785614 -0.09104309 -0.22847554 -0.06897138
-0.075646825 0.04321882 -0.21619524 -0.053496882 -0.11148855 -0.22634828 -0.16310698 -0.13891576

layer2.0.bn1.running_mean f4 [32]
00000000: d3d5 10c0 34a6 6dc0 4cfe 4dc0 3591 90bf
00000010: 866f 0a40 4a4e 4740 abc1 ca3e 5291 16bf
00000020: c1f3 06c0 8e85 06c0 79d7 e93f 1219 19c0
00000030: dd8b 8ec0 5e5e ea3f 18ef f03f a272 8840
00000040: e619 29c0 7b7c 03bf 999b 9dbe 915c bbbf
00000050: bc8b d6be 28a6 4f3f 0178 073e 3515 1ac0
00000060: c664 ca3f 995e 8dc0 01a3 1a40 a9c7 c0bf
00000070: 74b6 1dc0 e8e8 843f 1c1e c33f 9602 edbf
-2.2630508 -3.7132692 -3.218646 -1.1294314 2.1630569 3.1141534 0.39600882 -0.5881549
-2.1086276 -2.1019015 1.8268882 -2.3921552 -4.454573 1.8310049 1.8822966 4.2639933
-2.6422057 -0.5136182 -0.30782774 -1.4637624 -0.41903484 0.8111291 0.13229372 -2.4075444
1.5812004 -4.4177976 2.416199 -1.5060931 -2.464261 1.0383577 1.5243564 -1.8516414

layer2.0.bn1.running_var f4 [32]
00000000: 3ae2 cd40 002b 3e40 64cc 4640 7d4c 6a40
00000010: 3b66 4c40 baed 2e40 2813 4240 61fb 1f40
00000020: 0281 8d40 3014 1a40 f0e1 6a40 3c4d 8540
00000030: 9633 8340 dd6c 4740 8aa9 6c40 5caf 5940
00000040: 2959 2140 3fa9 2d40 289f 7540 39f9 3e40
00000050: 34cd ae40 13b2 4240 efdd 4f40 c965 4d40
00000060: 444b 1e40 2b36 5540 6c02 0e40 149c 3340
00000070: bd5a 2e40 4703 6240 b37e 8f40 959c 9d40
6.4338655 2.9713745 3.106225 3.6609185 3.1937397 2.7332597 3.0324192 2.499718
4.421998 2.4074821 3.6700401 4.165678 4.100047 3.1160195 3.6978478 3.401328
2.521067 2.713455 3.8378391 2.9839613 5.462549 3.0421188 3.2479208 3.2093375
2.4733438 3.3314312 2.2188978 2.8064013 2.7242882 3.53145 4.484216 4.925364
