Result/student/resnet8_0.4_0.1_3_4CH_126_128 # 1_best.pth.tar (torch_old, 641054 bytes, 76 tensors)

conv1.weight f4 [16, 3, 3, 3]
00000000: 1c68 4a3e deae 53be 66ae c63e c49e 82be
00000010: bac7 23bf 9a75 cebe 0bb4 e03e 5aaa 993e
00000020: 45c9 68bd 17b0 933d c478 8bbe f59c 6d3e
00000030: 7c52 a3bd 53e3 b4be 5cc5 c5be 373d f13e
00000040: ff05 073f b931 65bd 9b57 d23c f592 34be
00000050: fb80 5b3e b816 ee3d a0b1 cfbe e393 b73d
00000060: 08ed 9cbd 00f8 0b3e 16a6 c83c fd18 d63e
00000070: b99b 623e c190 0e3f 9f7f e73c 2552 b2be
00000080: 54e1 d23c d5ed 05be e132 3dbf a777 eebd
00000090: cfd0 f33e dbb7 853e b6f4 933e 9ae6 283e
000000a0: 1090 17be 3540 473d b769 aabe 872f 41bf
000000b0: 31c8 95be 74c6 dd3e 964b 933e 0554 903e
000000c0: 61c9 843e ad74 3fbe 8000 8dbc c995 1abe
000000d0: 30f4 21bf 7c2d d1bd 2922 843d 9aa1 e6be
000000e0: 6c86 fabe 8862 58bf 4627 973f a1b0 503e
000000f0: d05f 64be 75b3 9a3e 83ac 993e 32cf b3be
00000100: 04f3 b6be cbee 51be c370 92be 7cd1 8d3f
00000110: e458 91bc 6b35 1b3e 30e7 41bd bdf3 1d3e
00000120: 6de7 0e3f cca4 d53d 5c04 423e 4adc c6bd
00000130: 779c 2b3f b31b b3be 9c9e 57bc 8ac4 2ebf
00000140: 2cae 06bf b2c1 b33e 82d5 273e f473 ebbe
00000150: e7fc 0abf aa14 9e3c 481d 473f cca9 0dbc
00000160: eb09 103e 3563 7cbe 105a 6dbd 0708 b1bd
00000170: 1400 6d3e 88d5 6abf bc4b 86be fa4f a03f
00000180: b734 23be 4365 69be d297 963d 30dc 3dbe
00000190: 75aa 12be 1a8a 28bd 7ee2 69bf 51f8 9abd
000001a0: c5df 743f 436a 90be 558e 993e 6082 b43e
000001b0: 6a5c 2cbf 163f 7cbe 8d8a cabd f3c5 a8be
000001c0: 7a45 ddbe 4d47 053e b731 1b3f ffd5 303f
000001d0: 6e96 0a3e 6fc7 39be 6677 60bd 96f5 d3bd
000001e0: c121 c03d 2f81 dcbd 91c5 4dbe dcd4 173f
000001f0: 365e 1c3f 9d44 11be 4a69 6cbe a37d 833d
00000200: 5f85 0c3e 9ded 9fbe 56e1 92be f250 db3c
00000210: 297a 423d 9bd8 b33e 0d24 d4bc b602 3fbd
00000220: dd55 97bd 1081 0ebf a9f7 473f 0990 7cbe
00000230: b3f4 02bf 2a3b 313f 7534 913e 11de 753d
00000240: 8c48 a9bd 32cf bf3c 90fb 193e c3cf cc3c
00000250: dcaf 4abf 8bd8 c1bd 7489 49be 1fea 8ebe
00000260: 715b 273e 0725 33bd 4b05 043f 235b ce3e
00000270: f6f2 2abd 0e17 34be 40c8 833e a04f f4be
00000280: 17c8 57be 572b 043e d125 923e c3eb f63e
00000290: c24c 2a3e 17e1 783e 0dda 90be e74c d4be
000002a0: 109d 4e3e 370e b8be b6b4 04bf 34dd 9d3e
000002b0: d1e6 523e ad62 7abb 651a 0a3e 4d7b b3be
000002c0: 2867 c1bd 4680 33bd 7953 76be e1d2 b5bd
000002d0: 5c2e 36bf dbe3 93be 40a0 21be 60e3 7dbe
000002e0: 6d0e 51be a3ac cf3e 1f23 aabd ce03 1a3f
000002f0: f4dd 483f d47a 5b3e fb18 643d c35a 693d
00000300: 0b59 0f3e ea5b a3be 3992 12be 2f66 4e3e
00000310: c6d4 b03c 3cb3 8abe 6b19 afbe 7479 b0be
00000320: 0053 febc 41c5 953d ee49 88be a5db cc3d
00000330: 4dda da3e 2be2 c93e 48eb d63e 6c77 8cbd
00000340: 6977 dabe cacf 2bbf 0dd2 563e 081b b4be
00000350: 2d99 84be 6d39 333f d1f7 c83e 00ae 353d
00000360: 81fc be3d 9f92 e63d 1c27 143e 1f79 933f
00000370: c6f7 c43e d62c eabe b7f4 8dbe 7292 2bbe
00000380: 54cb b3bd 38f2 b8be e46e 2ebf e1b9 a23e
00000390: d4d0 6e3e b621 05bf 63ee afbe a91b 14bf
000003a0: e688 6dbe 2468 293f 15cc d23e 3021 97bd
000003b0: c463 c4bd 10c9 803f 0bec 673c 1519 19bf
000003c0: ca52 013e 06b8 fcbd 92f2 9e3d 19d4 bcbe
000003d0: 2162 173d d71a 0b3f 08fc e93d 2d65 36be
000003e0: c5f8 55bd 9ffa 1cbe f41b cbbd ca37 8e3d
000003f0: 5696 e13d 7439 5dbe 1cba cabd 3a51 883f
0.19766277 -0.20672175 0.3880493 -0.25511754 -0.63976634 -0.40324098 0.43887362 0.3001278
-0.05683257 0.07211321 -0.27240574 0.23204406 -0.07974717 -0.35329685 -0.38627136 0.47117016
0.52743524 -0.055955622 0.02567654 -0.17634185 0.21435921 0.11625427 -0.40565205 0.08963754
-0.076623976 0.13668823 0.024493258 0.4181594 0.22129716 0.55689627 0.028259097 -0.34828296
0.02574221 -0.13079007 -0.7390576 -0.116439156 0.47620246 0.26116833 0.28897637 0.16494218
-0.14801049 0.048645217 -0.3328378 -0.75463146 -0.29254296 0.4331547 0.28768605 0.28189102
0.2593489 -0.18696852 -0.017212152 -0.15096201 -0.63263226 -0.102137536 0.06451828 -0.45045167
-0.4893068 -0.84525347 1.180886 0.20379879 -0.22302175 0.3021504 0.30014428 -0.35119015
-0.3573228 -0.20501249 -0.28601655 1.1079555 -0.017742582 0.15157096 -0.04733962 0.1542501
0.5582188 0.10431823 0.18946975 -0.097099856 0.6703562 -0.3498207 -0.013160374 -0.68268645
-0.52609515 0.35108715 0.1639004 -0.45986903 -0.5429215 0.019296963 0.77779055 -0.00864644
0.14066283 -0.2464722 -0.05794722 -0.08644109 0.23144561 -0.9173207 -0.26229656 1.2524407
-0.15938078 -0.22792535 0.07353176 -0.18541026 -0.14322837 -0.04114733 -0.91361225 -0.07566894
0.95653945 -0.2820607 0.29991403 0.35255718 -0.6732851 -0.2463344 -0.09889708 -0.32963523
-0.4321707 0.1301548 0.60622734 0.6907653 0.13533947 -0.18142484 -0.054801367 -0.10349576
0.09381438 -0.10766827 -0.20094897 0.5930917 0.61081254 -0.1418633 -0.2308704 0.06420448
0.13722752 -0.31235972 -0.28687543 0.026771996 0.047479782 0.35126194 -0.025896097 -0.046633445
-0.07389424 -0.55665684 0.78112274 -0.2466432 -0.5115463 0.692309 0.28360334 0.060026232
-0.0826579 0.023414228 0.1503737 0.025001412 -0.7917459 -0.094651304 -0.1968134 -0.27912995
0.16343476 -0.043736484 0.51570576 0.40303907 -0.04173561 -0.1758692 0.25738716 -0.47717
-0.21072422 0.12907158 0.28544477 0.48226747 0.16630843 0.24304615 -0.2829136 -0.41464922
0.20177102 -0.35948345 -0.51838243 0.30832827 0.20595862 -0.0038205788 0.13486631 -0.3505501
-0.094435036 -0.043823503 -0.2405528 -0.088781126 -0.7116449 -0.28884777 -0.15783787 -0.24793768
-0.20415659 0.405614 -0.0830748 0.60162055 0.78463674 0.21433574 0.055687886 0.056971323
0.13998811 -0.31906062 -0.14313592 0.20156167 0.021585833 -0.2708987 -0.3419908 -0.3446766
-0.031045437 0.07313014 -0.26618904 0.10002831 0.42744675 0.39430365 0.4197638 -0.068587154
-0.42669228 -0.67113936 0.20978566 -0.35176873 -0.25898114 0.700095 0.3925157 0.044355392
0.09325505 0.112584345 0.14468044 1.1521338 0.38470286 -0.45737332 -0.27725765 -0.16755083
-0.08779016 -0.36122298 -0.68137956 0.3178244 0.23321849 -0.52004564 -0.34361562 -0.57854706
-0.23196754 0.6617453 0.41171327 -0.07379377 -0.09589341 1.006136 0.014155398 -0.598039
0.12629238 -0.12339787 0.0776111 -0.36880568 0.036958817 0.5433783 0.11425024 -0.17812033
-0.0522392 -0.1532998 -0.09917441 0.06944235 0.110150024 -0.21603948 -0.09898779 1.0649788

bn1.weight f4 [16]
00000000: c38c 5a3f 6576 2a3f bd94 493f e3c7 513f
00000010: a26f 163f d8e8 053f 9160 ed3e b3b6 213f
00000020: 94c9 163f b223 513f 4408 443f c675 9b3e
00000030: ab93 103f 56b0 363f de38 7b3f 65bb 0c3f
0.85371035 0.66586906 0.7874258 0.8194563 0.5876409 0.52308416 0.46362737 0.631694
0.58901334 0.8169509 0.7657511 0.30363292 0.56475323 0.7136282 0.9813365 0.5497344

bn1.bias f4 [16]
00000000: 8910 3bbe 9237 d33d 6945 df3e ebca c83e
00000010: 3214 8b3d 9181 c03d 4b65 65bd a596 433d
00000020: ce02 cf3e 431d 84bc 7e61 c4be 85a6 133e
00000030: 76ed ff3e ffa2 c6be 4332 593f f0da 81bd
-0.18268026 0.103133336 0.43607643 0.39217314 0.06790961 0.09399713 -0.056004804 0.047751088
0.40431827 -0.016127234 -0.3835563 0.14418991 0.49985856 -0.3879623 0.8484232 -0.06340587

bn1.running_mean f4 [16]
00000000: dd19 013e 6d9b 0c3e 5412 fcbd cff2 8cbc
00000010: 24c5 acbb c610 143e 69a5 e13d 4292 823c
00000020: 1fae fa3b 5cb8 f93c 4afe 823e 8182 ea3d
00000030: 9143 37be 597f 013e 2313 be3d 7aa7 9f3e
0.12607522 0.13731165 -0.12308183 -0.017205624 -0.0052725244 0.14459524 0.110178776 0.015938882
0.0076501514 0.030483417 0.25584632 0.11450673 -0.17896868 0.12646236 0.09280994 0.31182462

bn1.running_var f4 [16]
00000000: ce77 aa3f 120b c640 9b0b 913f 5baa 8640
00000010: 307f 3a40 a056 263f 8b8e c83e b57a 3040
00000020: fb91 993f dab8 0d40 b97c f53f 4359 983f
00000030: 5fc8 d73f 935d 903f 5821 8f3f 6b39 eb3f
1.3317811 6.1888514 1.1331667 4.2082953 2.914013 0.6497593 0.39171252 2.7574894
1.1997675 2.2144074 1.9178687 1.190224 1.6858023 1.1278557 1.1182051 1.8376898

layer1.0.conv1.weight f4 [16, 16, 3, 3]
00000000: 2023 343d ce49 43be f4a3 133d 4b1f e9bd
00000010: 95f5 13be a308 f5bc ddfd d3bc a9ac 26bd
00000020: 169e 613d 5bf3 d8bd 1fd9 033e 48f2 1c3d
00000030: b121 7d3b bef5 993d 9d0b d1bb ea45 c5be
00000040: 1276 6ebe b3c5 abbe 624c 913e a680 b93e
00000050: b5c3 84be 9408 18bf c402 09bf 544c 5fbd
00000060: 4a0a b03e 7718 ad3e de00 d8bc e410 bc3e
00000070: f4f3 293e 0078 aabd f8ab abbe c859 cc3d
00000080: cb60 6bbd ed12 37bd b43f cfbc 4707 6cbd
00000090: 4dbe 6dbe bd0b 52be 875d 42be 5262 0cbe
000000a0: 7daf 3b3d 579e 17bd 64ea cc3c c925 1fbd
000000b0: 21ec f43d 51b3 07be 7741 37be 7f5d 16be
000000c0: 575c 973e 8263 df3d afe2 b93c 02fa abbd
000000d0: 2f4e 0dbe 88e1 403c 3793 43be 21f2 adbd
000000e0: ca6d d3bd bcf3 773e 27bf b73d 137d e23d
000000f0: 0218 133d 9c63 f8bc 9879 e13d c846 d4bd
00000100: 7c9e 44be d46c 8abe 015f 113e 7073 333e
00000110: 07a0 033d b34c 763d 770e 5bbd d427 6b3d
00000120: 783c 863d c4a5 853e 25c0 ce3e 6289 003d
00000130: 5dfd 9abe 36ef 01bf e2aa 82bd 709c 823e
00000140: 87f4 5a3e e099 01be 7804 52bd 5551 483e
00000150: c9a5 443e 55ef d0bc 838e edbd 587c 92bc
00000160: 54ac 9d3c 413b 5a3e 20e2 b1bd 02c8 923d
00000170: 5a85 11be 347c e0bd 4165 2cbd f603 1bbe
00000180: 4d88 933d 5a47 173d 7b63 8a3d 9b86 113e
00000190: 73b9 8f3e 3d20 ed3c f9ff 51be 0717 6fbe
000001a0: db58 30be 76ac 173d 670c 163d 686c 603d
000001b0: c9e0 603d ed68 db3e fa81 783e 743d 32bf
000001c0: ffdd 1dbf 5b54 33bf c9c0 553e c0d7 be3e
000001d0: 144e 8a3e b83d 183e 6b4e d93c 46c6 963d
000001e0: 3c55 5dbe 0a8f 4dbe 5890 debd b47d c1ba
000001f0: d714 1c3d f667 c3bc 503c babc 614c 00be
00000200: 8bbd 3dbd 4f95 e13d 0678 ea3e f800 4f3e
00000210: 778c 8937 b77a acbe 96a9 abbb 86d8 12be
00000220: d4bb 19be 5e81 1abe a46e 35be 8b7a 09bd
00000230: 2785 75bc 8a0f 0d3e 1693 633e 7176 583e
00000240: 6237 71be fd59 5f3e b995 d2bd 0f11 5ebe
00000250: 8ce4 4b3e 09fc a2bd b10b 1f3d c76b a73d
00000260: 6b64 623d 45ef 03be 1547 743c 6176 313e
00000270: e1dc d6bd 9d99 d2bd b9a1 173e eefa 263e
00000280: 2eba 9bbe b3ac 2f3d ea53 aabe 807b d73e
00000290: e839 c93d c96e 0cbf b312 673f 4ee6 67be
000002a0: 9713 cbbe bfe6 033f 8057 84be 0649 6d3e
000002b0: a469 35be 10e7 4bbe 37c2 ab3d 7728 bc3d
000002c0: 0ee0 653c c710 efbd 7f7f 46bd ef56 c8bd
000002d0: 48b0 71bc fdd8 363d f3d8 09be de99 0ebe
000002e0: 3860 9bbe cc9f e93c 879c 77be fc1d 7b3d
000002f0: 622b f93d d200 2e3d 2188 4e3e 83f2 b6bd
00000300: a1a4 2d3e d783 71be c628 48bd 4a38 263e
00000310: 0e12 723c fe14 d6bd 8351 ed3c 6fff 9d3d
00000320: 84d4 18be 4e2c 403d 879c 05bd d7bf edbd
00000330: 4976 9b3e bee3 6bbd f575 25bc 95f5 483e
00000340: 919b 4fbe 846f 803d fbc9 983e b9d2 423e
00000350: 57aa c73d fbd9 65bc 2e66 123d b90c b9bd
00000360: 85f0 6d3c 15f5 72be 8def 593d cf7e b53e
00000370: 4b77 07bf a2d6 0b3e c67e 513e 0e41 72be
00000380: b500 ac3d e8e2 d0bc 21ce 37be d38e a73d
00000390: 980a 323e b9c8 1fbe b6a4 233e 3d71 8c3e
000003a0: fb46 c0be 4909 753c 761c 103e 02c1 053e
000003b0: 221a fa3b 03dd 8db9 0c83 06be 42af 633d
000003c0: 962e b1bd dad0 42bd e156 b6bd 5f81 173e
000003d0: 46c6 1f3e 1d8d 35bd 6a09 eabc e155 3f3d
000003e0: 943a 06be 0c66 543e fcbe 4cbd c990 593a
000003f0: 27db 8b3e a3bb 7fbe e7eb c7bd 406b cd3e
0.04397881 -0.19071123 0.03604503 -0.11382922 -0.14449151 -0.029911345 -0.025877887 -0.040692005
0.055082403 -0.10593291 0.12875794 0.038316995 0.0038624818 0.07517575 -0.0063795582 -0.38529903
-0.23287228 -0.3354927 0.28378588 0.36230963 -0.25930563 -0.5938809 -0.53519845 -0.05451615
0.3438285 0.33807728 -0.026367601 0.36731637 0.16596967 -0.083236694 -0.3352964 0.09978062
-0.057465356 -0.044695783 -0.02529893 -0.057624128 -0.23217125 -0.2051229 -0.1898099 -0.13709381
0.045821656 -0.03701624 0.02501411 -0.038854394 0.119591005 -0.13251998 -0.17896067 -0.14684103
0.29562637 0.109076515 0.022691099 -0.083972946 -0.13799356 0.011772521 -0.19099127 -0.08493448
-0.10323675 0.24214071 0.08972006 0.11059012 0.035911568 -0.030320935 0.1100952 -0.10365063
-0.19201082 -0.27036154 0.14196397 0.17524505 0.032135036 0.06013174 -0.05348059 0.05741103
0.06554502 0.26103032 0.4038097 0.03138102 -0.30271426 -0.5075563 -0.063802496 0.25509977
0.21382342 -0.12656355 -0.051273793 0.19562276 0.19203867 -0.025504747 -0.115994476 -0.017881557
0.019247212 0.21311666 -0.08685708 0.07167055 -0.14211026 -0.1096119 -0.04208875 -0.1513823
0.07203732 0.03693328 0.06757256 0.14211504 0.28071174 0.028946036 -0.20507802 -0.23348628
-0.17221396 0.037029706 0.03663292 0.054790884 0.05490187 0.4285349 0.24268332 -0.6962502
-0.61666864 -0.7005059 0.20874323 0.3727398 0.27012694 0.14867294 0.02652665 0.073620364
-0.21614546 -0.20074096 -0.10867375 -0.0014762194 0.038105812 -0.023853283 -0.022733837 -0.12529136
-0.04632334 0.110148065 0.45794696 0.20215213 1.6397082e-05 -0.33687374 -0.005238722 -0.1434041
-0.15013057 -0.15088412 -0.17717987 -0.03356413 -0.014985359 0.13775459 0.22224078 0.21138932
-0.23556283 0.21811672 -0.102824636 -0.21686195 0.19911402 -0.07958228 0.03882951 0.08174854
0.055271547 -0.12884243 0.014909525 0.17330314 -0.10491348 -0.10283206 0.14807786 0.1630666
-0.3041548 0.04288931 -0.33267146 0.4208641 0.09825498 -0.54856545 0.9026291 -0.22646448
-0.39663383 0.51523966 -0.25848007 0.23172387 -0.1771608 -0.19912362 0.08386653 0.091874056
0.01403047 -0.11673122 -0.048461434 -0.09782206 -0.014751501 0.04464053 -0.13461666 -0.13925883
-0.30346847 0.02851858 -0.24180804 0.061307892 0.12166478 0.04248125 0.20169117 -0.08932974
0.16957332 -0.23585449 -0.04886701 0.1623241 0.014774812 -0.10453223 0.028969532 0.07714736
-0.14924818 0.046917252 -0.03261998 -0.11608856 0.30363682 -0.05759024 -0.010098924 0.19624932
-0.20274188 0.0627127 0.298416 0.19025697 0.097492866 -0.014029021 0.035741977 -0.0903563
0.014522676 -0.23726304 0.05320697 0.3544831 -0.529164 0.13656095 0.20458516 -0.23657629
0.08398572 -0.025498822 -0.17949726 0.081815384 0.17386854 -0.15603913 0.15980801 0.27430144
-0.37554154 0.014955827 0.14073357 0.13061908 0.00763251 -0.00027058282 -0.13135928 0.05558706
-0.08651464 -0.047562458 -0.089032896 0.14795445 0.15602979 -0.04432403 -0.028568942 0.04671276
-0.13108283 0.20742053 -0.049986824 0.0008299468 0.27315637 -0.24973921 -0.09761792 0.40120888

layer1.0.bn1.weight f4 [16]
00000000: feb1 b13f c95e ae3f 2815 1b3f b8c6 673f
00000010: 5b06 5e3f d971 463f e799 543f 1958 823f
00000020: a624 613f 5b37 6b3f 2f3d 3c3f d22d 9e3f
00000030: 2705 363f 1c82 133f 0385 803f d8b8 643f
1.3882444 1.3622676 0.60579157 0.90537596 0.8672845 0.7751747 0.83047336 1.0183135
0.87946546 0.9188134 0.7353086 1.2357733 0.7110161 0.57620406 1.0040592 0.8934455

layer1.0.bn1.bias f4 [16]
00000000: 739d 3bbe c3ee 0dbe 23e3 123d 8f81 3ebe
00000010: 9bed e73d 79b7 1abd 828d 70be abe8 12bf
00000020: c1b2 83be 8b9d 30bd 987b ebbd 2bef 1ebe
00000030: 91a9 0dbe a91e f33d abf4 e4bd 0d7f 11be
-0.18321781 -0.13860612 0.035861146 -0.1860411 0.113246165 -0.03777263 -0.23491481 -0.57386273
-0.25722316 -0.043118995 -0.11498183 -0.15520923 -0.13834216 0.11871082 -0.11179479 -0.14208622

layer1.0.bn1.running_mean f4 [16]
00000000: b9a7 d2be 0f33 7bbe bc23 70be e42e 7fbf
00000010: f012 9cbd 0de1 02bf 02f1 9dbf a149 e33e
00000020: 5b04 3bbf 208c 0b3f b712 6b3e f0a7 0bbf
00000030: 55d2 2e3f fcb7 43bf b671 b0be 9929 483f
-0.41143587 -0.24531196 -0.23451132 -0.99680924 -0.076207995 -0.5112465 -1.2339175 0.44392112
-0.7305352 0.5451069 0.22956358 -0.5455313 0.6828969 -0.7645261 -0.34461755 0.78188473

layer1.0.bn1.running_var f4 [16]
00000000: 12ac 9340 b764 0c41 6b43 4f3f d2cb eb3f
00000010: 1e9c cd3f ce9e 923f 49ef 483f da71 933f
00000020: 73b1 773f 1654 0540 5745 923f 9f29 6740
00000030: 82ba 003f bc7f 243f 0f2a f13f ba61 9b3f
4.6147547 8.774589 0.80962247 1.8421576 1.6063268 1.1454713 0.7849012 1.151912
0.9675514 2.0832572 1.1427411 3.6119153 0.5028459 0.6425741 1.884096 1.2139199

layer1.0.conv2.weight f4 [16, 16, 3, 3]
00000000: 5150 debd b625 6b3c 124e 573e 790f 2c3c
00000010: 280a c63d 5a22 493e 121b c3bc 42f0 b73e
00000020: 10ed fd3d 04e0 e0bd e378 d7be 6250 3bbe
00000030: ddbb 9f3d 7afe 8abd 18de 61be f56b 3bbe
00000040: 4151 f3bd bc81 04be 95a5 343c 81d6 943d
00000050: 38b9 853d 8066 843b 2ab4 e4bd 12a3 dabd
00000060: 61f7 0cbc 32ff 14be e191 24bd f431 0e3d
00000070: 3b6d e73d 0d2a 6fbe 2521 523d af83 9b3d
00000080: a628 353d 618b 6cbd ecdb 883d e50a c43c
00000090: 9667 05bd 8ba0 83be 4c57 f03c 7cd3 123e
000000a0: cb9e 613d 1926 6abe 6af1 2bbc 8d15 323e
000000b0: c3c0 84bd 121f 173d 9811 0dbd 9bb7 123d
000000c0: b606 91be 1474 85be 555e 8fbe 6b68 23bd
000000d0: d4c4 733d fb66 82be 8b36 99bd 8d47 033d
000000e0: 0cb0 2c3d a66c d23d 06d5 2a3e e083 58bd
000000f0: 14bd 5d3e ec86 c93d 32aa 723d bf16 c6bd
00000100: 8617 44bd 95ba d7bd 2f45 5fbe 6af8 48be
00000110: c2fb 08bd 240c 08be aad4 e5bd c4a6 8ebe
00000120: 6e8f febd a4d3 ecbc 9369 38be 3aa2 d53c
00000130: e4da 29be 85d3 12be 4fec ab3d 3f54 323d
00000140: e589 a03d 834d 293e 5021 e33d 8d4b f7bd
00000150: e96f ed3d d053 9f3d 3c49 8439 8fce c33c
00000160: 66d5 f03d 35de 193d dadd 86bb 94fc 6abe
00000170: 8412 38be fb8e 8d3d c884 8dbe d080 8abe
00000180: a71f ef3d 6e5a 2c3d 9210 96bc 3d44 643e
00000190: c61d 283c 9ab0 0fbe 36ad 3f3e 5ab9 8f3e
000001a0: 10dd 01bd b12f 7a3e 7155 443e 1769 1c3e
000001b0: 847b a43d a8ad 943d 4017 b1bd 5278 023d
000001c0: b0a3 abbc 489b 8f3d c3e5 39be 967a 6d3d
000001d0: 0403 583c 8000 0fbe c7b4 05be 11ce 3cbd
000001e0: 2fef 90bd 6409 013d 6cea 0b3d 5df6 34be
000001f0: 9b70 d83b e70b 0f3d 2e0b 493e 716e 493e
00000200: dfd8 8cbe 93f3 453e 14db c73e c649 163f
00000210: fb2a 6a3e 52a3 e03e 346f c63e 06ae c1be
00000220: d0af 63bd 6d7d 25be 0e5d 07bd 1040 d0bd
00000230: 79cb d43c 4d6b b43e 3576 583d 6b49 043e
00000240: 09c8 233e 9e00 5e3e 811f 6e3e 230b 603e
00000250: 3b12 803e b383 263a df6c 693d 5340 bc3d
00000260: 836f 273d 5808 223e 06a8 393e 41b6 293e
00000270: c4ac 643d 07b5 9d3e 8b3c 4e3e a223 203e
00000280: ffe9 993e 4a7f a33e 9f8f a8bd 4f26 88be
00000290: 036b 80b9 76b7 39be 7f7f 77bd be82 6abe
000002a0: 7b8b 623e b042 4a3e 8fab 8b3e 5bb5 d8bc
000002b0: 9f16 49bd 437e 30bd f247 413e 7cc1 05bd
000002c0: dd82 0c3e f0c4 9ebc 8395 b1bd c662 8fbd
000002d0: 00d0 3fbd d856 28be 4330 0abe 9217 543d
000002e0: ae03 4d3d c91b 573e e5d4 3b3c 6ade 4f3d
000002f0: e436 c73d 4c12 57bc 6440 85bd 012b 1a3d
00000300: 9796 243d 3c3b 71be 7173 88bd b50b 92bc
00000310: 5f10 81ba 4b63 4ebe 3d05 833e 545b 12bc
00000320: 797c 3bbe d5dd 9b3e b04c 5c3e 8686 9bbd
00000330: 943b a13e ccc3 d43e 12ca cb3d 71be 98be
00000340: 8b6e afbe f58e 9b3d ebff a6be 9123 15be
00000350: 6286 19be 5cf4 9abd e2fd a7bd 93b1 71be
00000360: dc46 47be 8e0a ddbd fa44 65be 8dfe 323d
00000370: d9ac 51bd b3a7 b9bd e016 9abd c235 50bd
00000380: 337d 863d bad0 25be e977 60be 8cb6 1c3d
00000390: 5620 d6bd 42c6 38be e9d1 dc3d fa23 ca3d
000003a0: 499c e13d 6d80 2a3e 0fac 083e 4aee 6ebd
000003b0: 59b7 e33d e9b1 b03d 82d3 023d 6db4 bd3d
000003c0: a5c1 823e a147 b1bd 860b d83d 219a a63d
000003d0: 4089 373b 0b1b 933d 75c5 fa3d b7fc a53d
000003e0: da72 283e 1147 f83c 3e17 613e a004 973e
000003f0: b2e2 523d b95d 2cbe f027 ebbd 3a08 d63d
-0.10855163 0.014352253 0.21025875 0.010501736 0.09669906 0.1964201 -0.023816619 0.3592549
0.12398732 -0.109802276 -0.42084417 -0.18292382 0.07799504 -0.06786819 -0.22057378 -0.18302901
-0.11880732 -0.12940115 0.011025806 0.07267476 0.06529468 0.0040405393 -0.11167176 -0.106756344
-0.008603902 -0.14550474 -0.040178183 0.034715608 0.11300131 -0.23355885 0.05130114 0.07593476
0.04422822 -0.05775011 0.06682572 0.023930976 -0.03256949 -0.25708422 0.029338501 0.14338487
0.055083077 -0.22866096 -0.010494569 0.17391033 -0.06482079 0.036894865 -0.034440607 0.03581963
-0.28325433 -0.26065123 -0.28001657 -0.039894503 0.05951388 -0.25469193 -0.07481106 0.032050658
0.04216008 0.10274629 0.16682824 -0.05286014 0.21654159 0.098401874 0.059244342 -0.09672307
-0.047873996 -0.105336346 -0.21803735 -0.19626012 -0.03344322 -0.13285881 -0.11222203 -0.27861607
-0.12429701 -0.028909512 -0.18009023 0.026078332 -0.16587406 -0.14338501 0.08394682 0.043537375
0.07838801 0.16533475 0.11090338 -0.12074957 0.11593611 0.07779658 0.00025231566 0.023902206
0.117594525 0.03756543 -0.0041158022 -0.22947913 -0.17975813 0.06912037 -0.27640367 -0.270514
0.11675959 0.042078428 -0.018318448 0.22291656 0.010261005 -0.14032212 0.18718418 0.280711
-0.031704962 0.24432255 0.19173218 0.15274464 0.08031371 0.07259685 -0.08647013 0.031853028
-0.020952076 0.070120394 -0.18154053 0.057978235 0.013184313 -0.13965034 -0.13057242 -0.046094958
-0.07076871 0.031503096 0.03415911 -0.17672105 0.0066052205 0.03492346 0.19633171 0.19671036
-0.2750921 0.19331197 0.3903433 0.5870632 0.22867958 0.43874604 0.38756716 -0.37828082
-0.05558759 -0.16161127 -0.03304773 -0.10168469 0.02597593 0.35238114 0.052847106 0.12918632
0.15994276 0.21679923 0.23254205 0.21879248 0.2501391 0.0006352022 0.056988593 0.09191956
0.04087783 0.15823495 0.18130502 0.1657343 0.055828825 0.30802175 0.20140283 0.15638593
0.30061337 0.3193305 -0.082305185 -0.26591727 -0.00024493792 -0.18136391 -0.060424324 -0.22901437
0.2212352 0.19752002 0.27279326 -0.026453665 -0.04909384 -0.043089163 0.18875101 -0.032655224
0.13721795 -0.019381016 -0.08671095 -0.070012614 -0.046829224 -0.16439378 -0.13494973 0.05178029
0.050052337 0.21006693 0.011464332 0.05074922 0.097272664 -0.013126921 -0.06506422 0.037638668
0.040182676 -0.23557752 -0.06662644 -0.017827848 -0.0009846798 -0.20155065 0.25589934 -0.008932907
-0.18309201 0.30442682 0.21513629 -0.07594018 0.31490767 0.4155563 0.09950651 -0.29832795
-0.34264025 0.07595626 -0.32617125 -0.14564349 -0.14992669 -0.07566139 -0.08202721 -0.23602895
-0.19460624 -0.10793029 -0.22389594 0.04369979 -0.05119023 -0.09065189 -0.07523894 -0.050832517
0.065668486 -0.16192904 -0.21920742 0.038260028 -0.10455386 -0.1804438 0.10782225 0.09870143
0.11016137 0.16650553 0.13346885 -0.05833272 0.11118955 0.08627684 0.03193999 0.09262929
0.25538364 -0.0865624 0.10549073 0.081348665 0.0028005391 0.071828924 0.12244693 0.08104842
0.16450062 0.030307325 0.21981522 0.29495716 0.051485725 -0.16832627 -0.11482227 0.10450788

layer1.0.bn2.weight f4 [16]
00000000: 933e 703f 43c2 103f d4a6 ea3f 24a6 8c3f
00000010: f5d9 653f 35f9 673f 5bc0 713f 19b2 713f
00000020: f592 703f 8dac 753f b863 813f 68a5 673f
00000030: e52f 293f 506c 743f ecdf 893f 83e6 563f
0.9384548 0.5654642 1.8332162 1.0988202 0.897857 0.90614635 0.94434136 0.9441238
0.9397424 0.95966417 1.0108557 0.90486765 0.66088706 0.9547777 1.077146 0.8394548

layer1.0.bn2.bias f4 [16]
00000000: d9e6 c93d d0fb 003f fd6b bbbe d05a 08bf
00000010: 8a49 123e 90bf 2b3e ee14 a53e ac9e e03b
00000020: 496a a43e dee6 213e a3eb b73d 2bcf de3e
00000030: 05de 70bd a726 a93e 9478 c7bb 3f29 df3e
0.09858484 0.50384235 -0.36605826 -0.5326357 0.14285865 0.16772294 0.3224253 0.0068548527
0.3211234 0.15810725 0.08980491 0.43517432 -0.058805484 0.33037302 -0.006087372 0.43586156

layer1.0.bn2.running_mean f4 [16]
00000000: 15a2 9d3d b4d6 3b3f 5a0d babf fc4b dc3e
00000010: 1f2d 253c 8df1 d3be ff2c 0bbf da99 33bf
00000020: 554a 63bd f0e5 f7be d2b3 e4be ae36 abbf
00000030: 6b26 223f e48f 98be a474 1bbf 91f7 9d3f
0.0769693 0.73374486 -1.4535325 0.4302672 0.0100815585 -0.41395226 -0.54365534 -0.70156634
-0.05549081 -0.48417616 -0.44668442 -1.3376062 0.6333987 -0.2979728 -0.60724854 1.2341176

layer1.0.bn2.running_var f4 [16]
00000000: f75a b33f 4577 963f ae9e 6940 0bb0 ce3f
00000010: 945e c33f 2bdf 903f df66 cb3f 41f1 d03f
00000020: e73f cd3f 07e8 c33f a8a7 b03f e4f8 0f40
00000030: a39d b13f 93eb c63f 926a ca3f 56fe c13f
1.4012135 1.1755148 3.65031 1.6147474 1.5263238 1.1318105 1.5890769 1.6323625
1.6035126 1.5305184 1.3801165 2.249566 1.3876232 1.5540642 1.5813773 1.5155742

layer2.0.conv1.weight f4 [32, 16, 3, 3]
00000000: 7dd0 a5bd f757 3abe 0f15 16be 14e7 37be
00000010: e7d5 13be e779 313e 1ce3 5ebe 8e4c 2c3d
00000020: c00a 083e 0a49 57be bfad f8bd 97ca 50bd
00000030: 6a3e 4c3d 294a 953c 00d6 1e3e 7e65 b13d
00000040: ef5e eb3d 82fd a53d 44a5 803d 1d4a 8f3d
00000050: 8ec6 b93d 672b ef3d 4619 cdbb 93a0 f8bd
00000060: af93 603d f57e 21be 0c5f 97be 12e2 9a3d
00000070: a4bd 50bd bd32 13bd 6950 4b3d 7c82 c5bc
00000080: e697 c7bc 8365 1ebe 310f fdbd 007a c8bd
00000090: f40a 80bd 9ada 883d a396 04bc d7ba 5abc
000000a0: fe4e bb3b faaa 4b3e 94dc 5a3c f612 0e3d
000000b0: 5f9b 193d d032 8f3c c56a 11be 7e47 27be
000000c0: 8db6 62be 336b a3be 6c64 29be 1df6 c2be
000000d0: cbe0 97bd 3e24 193d 69ff a3be 73d6 0bbe
000000e0: f33f 2ebe d8d5 15be cfcd 083e 9ebf 953d
000000f0: 8167 073d cce8 d13d fa95 82bc 779a 623b
00000100: 3b58 be3d e4e4 e73d 4468 533e a9aa 0b3e
00000110: c660 eb3d 0f34 e53d bd65 0c3e 21c0 103d
00000120: 5fa1 09be 2e6b 46be cf6f 56bd d6f1 09bd
00000130: d09a 80bd 2165 acbc b891 253e 8c0e 5e3c
00000140: 347a 463d 13b8 3bbd c1d1 fbbb e356 e33c
00000150: a5f0 93bc 69a6 eb3d ffc2 f73d a331 143e
00000160: f754 e03d 5acf 1e3d 7f48 35be 5991 46bc
00000170: 2857 2f3c 23d4 d8bd b832 12bc 2e0b acbc
00000180: 9c3b cc3d eaae cb3c c42e 27bd 43fa 26bd
00000190: 60c9 0ebe 82ed 25bc 6808 073e ed5c 933d
000001a0: deaa 083d ea0c 6f3e 484c 283e 2d08 ac3d
000001b0: b877 8d3d 74e7 153d 15af 9e3d dc04 343e
000001c0: c88a 223e de60 023e 066f 763e c151 393d
000001d0: 600d 3d3d 28bb cabc 07be 33bd 5f49 87bd
000001e0: 0102 243b edf2 c0bd 6518 ccbd cd3d 21be
000001f0: 1d2a cebd 43ce c6bd 0294 54bd 09ca 3cbc
00000200: 3b09 773d f4d8 35bd c9ef 6cbd 8805 153e
00000210: 9a27 ba3a 3552 7c3d a404 2f3e 04ee aebd
00000220: 2db8 8bbd 7e32 95bd d325 cbbd f3b4 73be
00000230: e05c e2bd abf7 bcbd 619b 12be 2b5f a7bd
00000240: ade9 19be fbda 03be 124e dbbd 5031 103d
00000250: 9e32 70bc 1da1 51bd d6c9 81bd 25ec 03be
00000260: b5f8 273c 2cf1 d5bd 054d e13c fad6 89bc
00000270: eae8 5b3e c16d 293e f3dd 4a3e 5404 4e3e
00000280: dcd1 abbb 27b2 0dbe 0e30 16be b2a2 89bd
00000290: 2954 ffbb be38 a5bd 7827 9b3c 49fb bebd
000002a0: 6670 fabd 7c2a cdbd 220c 17bd 865a 7abd
000002b0: 5ede c2bd 95ea 883c 733d 38bc 4209 3f3d
000002c0: 07f5 7f3d 56e0 b9bd 789f 7ebc 011e b63d
000002d0: 0a42 e7bd ce0c cdbd b4e4 47bd 8bb3 fabc
000002e0: 0de7 c9bd f583 553c bf12 df3d da5f e33c
000002f0: a093 853d f1f6 913d 142c d6bc 8c1e e9bd
00000300: 355a b73d ca30 423d 3572 1bbe 97e9 31bd
00000310: 935e 62bc 3854 94bd 2db6 46bd 6631 bebd
00000320: 8e69 413d b4e3 323c 2cde b3bb cf96 85bc
00000330: 4204 dbbd a6d8 98bc 118b 253d 48e7 42bc
00000340: 20b4 7bbd d6c8 34bd a32f 8bbc e1fd 4abd
00000350: 2738 663d 0c76 01be 92ac 023d 536a be3d
00000360: 148a 893a 64e4 5bbd b172 1a3d 3f52 a03c
00000370: 1655 f83d 9d7a 1f3d c58e 97bd ee62 97bd
00000380: 9d38 823d a4fc 413e 5058 bf3c 86a7 92bd
00000390: 0e6b cd3d 31fe c03d c3f1 533d 155b 063d
000003a0: b37c 5c3e e1bc fc3d cd4b 1abe 7ea1 25be
000003b0: 7b7a f6bd 46b2 223d fd4f b03d 8a78 663d
000003c0: 6a76 ed3d 68a5 5b3d 4b77 283e 081f 96bc
000003d0: 0b1f 253e d428 6d3d ad5c 9a3d e049 793e
000003e0: c0da 733c 55e0 d8bc 9a19 913d 48e8 bf3a
000003f0: f0d7 583d 9ea5 cebb 7641 f2bc a671 833d
-0.080964066 -0.18197618 -0.1465647 -0.17959243 -0.14437066 0.17331658 -0.21766323 0.042065196
0.13285351 -0.21023956 -0.121425144 -0.050974455 0.04986421 0.018223839 0.15511322 0.08661936
0.114927165 0.081049934 0.06281522 0.06996558 0.090710744 0.116782 -0.0062591163 -0.12140002
0.054828342 -0.15771087 -0.29564703 0.07562651 -0.050962105 -0.03593706 0.049637232 -0.024110071
-0.024364423 -0.15468411 -0.12356413 -0.09788895 -0.06252089 0.0668232 -0.008092555 -0.01335021
0.0057162037 0.19889441 0.013358254 0.03468605 0.03750169 0.017480284 -0.14200886 -0.16335866
-0.2213995 -0.31917724 -0.16542214 -0.38078395 -0.07415923 0.03738808 -0.320308 -0.13656025
-0.17016582 -0.14632356 0.1335976 0.07311939 0.033057693 0.102494806 -0.015940655 0.0034576932
0.092941724 0.11322954 0.20645243 0.1363932 0.114930674 0.1119157 0.13710685 0.03533948
-0.13440464 -0.19376823 -0.052352723 -0.0336779 -0.06279528 -0.021044316 0.16168869 0.013553273
0.048456386 -0.045829844 -0.0076849167 0.027751392 -0.018059084 0.115063496 0.120977394 0.1447206
0.10953706 0.038771965 -0.17703436 -0.0121196145 0.010701932 -0.10587337 -0.008923225 -0.021001425
0.09972307 0.024863679 -0.040816084 -0.040766012 -0.13944006 -0.010127427 0.131868 0.071954586
0.033366077 0.2334477 0.16435349 0.08399997 0.069076 0.036597684 0.07748238 0.17579979
0.15873253 0.12732264 0.2406579 0.045243982 0.046155334 -0.024747446 -0.043882396 -0.06605791
0.0025025608 -0.094213344 -0.099655904 -0.15746231 -0.10066626 -0.0970731 -0.051898964 -0.011522778
0.060311537 -0.044396356 -0.057845864 0.14552891 0.0014202476 0.061601836 0.17091614 -0.08541492
-0.06822238 -0.07285021 -0.09919324 -0.23799495 -0.11052871 -0.092269264 -0.14317085 -0.08172449
-0.15030546 -0.12876503 -0.1070825 0.035203278 -0.014660506 -0.05117904 -0.06337325 -0.1288305
0.0102521675 -0.104463905 0.027502546 -0.016826142 0.21475568 0.16545774 0.1981123 0.20118839
-0.005243523 -0.13837491 -0.14666769 -0.06720485 -0.007792015 -0.08067463 0.018939719 -0.093252726
-0.122284696 -0.10017869 -0.036876805 -0.061121486 -0.095150694 0.01671342 -0.011245119 0.04663969
0.062489536 -0.09075992 -0.01554095 0.088924415 -0.11291893 -0.10012208 -0.048802093 -0.03060319
-0.098585226 0.013031949 0.108922474 0.027755667 0.06522298 0.071271785 -0.026144065 -0.113827795
0.089527525 0.04740981 -0.15180285 -0.04343566 -0.013816494 -0.07242626 -0.04851358 -0.09286766
0.047219805 0.0109185465 -0.0054891314 -0.016307263 -0.106941715 -0.018657994 0.040415827 -0.011895962
-0.061451077 -0.044136845 -0.016990488 -0.049558524 0.056205895 -0.12642688 0.031902857 0.092976235
0.0010493421 -0.053684607 0.037707034 0.019570468 0.12125604 0.038935293 -0.07400278 -0.07391916
0.063584544 0.18944031 0.02335754 -0.07160859 0.10030185 0.09423483 0.051744234 0.032801706
0.21531944 0.12340713 -0.15067978 -0.16174886 -0.1203508 0.039720796 0.086090066 0.0562673
0.11594851 0.05362454 0.16451757 -0.018325344 0.16125123 0.057900265 0.07537208 0.24344587
0.014883697 -0.026474157 0.07084961 0.0014641369 0.05294031 -0.006306364 -0.02957223 0.06418161

layer2.0.bn1.weight f4 [32]
00000000: 416c 743f 160f 593f 187e 263f 8351 323f
00000010: f63a 4d3f 711f 4f3f 7784 703f 5a38 573f
00000020: 235a 5f3f 3f0e 333f 7102 503f 5eb7 3a3f
00000030: 77ca 633f fff5 3e3f 50cf 773f 9a3d 233f
00000040: 15d4 3d3f 98df 5d3f cab7 583f d863 823f
00000050: 91c3 853f 952c 423f 1807 8c3f 26c8 213f
00000060: 389b 4b3f be59 313f ebf3 403f 6d51 3a3f
00000070: 5ef7 453f ddbb 5e3f 17ed 843f 0f6f 313f
0.9547768 0.84788644 0.65036154 0.69655627 0.8016809 0.8090735 0.93952125 0.8407036
0.8724691 0.6994361 0.81253725 0.72936046 0.8898081 0.7459411 0.9680071 0.6376587
0.74151736 0.866693 0.8465544 1.018672 1.0450307 0.75849277 1.0939665 0.6319603
0.7953372 0.6927756 0.7537219 0.72780496 0.7733058 0.87005407 1.0384854 0.69310087

layer2.0.bn1.bias f4 [32]
00000000: 0884 a9be 4359 09be 46f8 23be f470 e73d
00000010: 697f 3bbc 625e 70be 0dce 5abe 954a 9fbc
00000020: 1805 dabe da23 383d 412a 6a3d 8ce6 09be
00000030: 9a52 b8be 2694 53be 9859 07be c489 493e
00000040: f81d 29be ca0a 8ebe f08c 80bd 25af 5dbe
00000050: c454 52be a2cd 9abd c110 34be f541 e63d
00000060: e7f2 883c c4dc 37be 7577 ebbd c76f 9cbd
00000070: 9a41 a4be 9418 38be 0291 74be d1d4 3f3e
-0.33108544 -0.13412957 -0.16012678 0.11300841 -0.011443951 -0.23473504 -0.21367665 -0.019444743
-0.4258201 0.044956066 0.057169203 -0.13466853 -0.3600052 -0.20661983 -0.13217771 0.1968146
-0.16515338 -0.27742606 -0.06276882 -0.21648844 -0.20540148 -0.075587526 -0.17584516 0.11243049
0.016717387 -0.17955309 -0.11497394 -0.07638507 -0.320813 -0.17978126 -0.23883441 0.18733527

layer2.0.bn1.running_mean f4 [32]
00000000: e7c1 5abf fcab 1040 1308 e23f b190 37c0
00000010: e220 55bf 2328 8ec0 371b cbbf 84c7 e6bf
00000020: f6ee ac3e b669 353f 6be2 02c0 0ac2 c1bd
00000030: 7006 cabf 9e6c f1be 9106 f8bf e11c 47c0
00000040: 64dc a93e f499 e5bf f9a9 29c0 48aa 8fbf
00000050: 832d dbbf 0645 31c0 f5ea 4fc0 46d9 babf
00000060: d893 a8bf 95bd 1640 a0f8 25c0 cee4 4ebe
00000070: 8f2c 13be eaf2 b8be d445 bcbe 4ca0 61be
-0.8545212 2.260497 1.7658714 -2.8682063 -0.832533 -4.4423995 -1.586768 -1.8029637
0.33776063 0.7086443 -2.0450695 -0.09460838 -1.5783215 -0.4715318 -1.9377004 -3.1111376
0.33175957 -1.7937608 -2.6509993 -1.1223841 -1.7123264 -2.7698379 -3.2487156 -1.4597557
-1.3170118 2.3553212 -2.5932999 -0.2020447 -0.14372467 -0.3612283 -0.36772025 -0.22033805

layer2.0.bn1.running_var f4 [32]
00000000: 6cbb 3a40 e63e fc3f 9976 7a3f 2fc6 8940
00000010: 6945 0140 bea2 0140 9153 0e40 3485 1140
00000020: fcda 0e40 b2d9 4d40 8e23 1d40 a680 e03f
00000030: 6b75 5440 5fde 0340 ebc8 cc3f f875 ea3f
00000040: 00c3 b83f 9971 3c40 3289 0940 9d67 2040
00000050: e8c8 6b40 3fdf 0b40 6a00 3540 9942 ee3f
00000060: f4a2 1d40 2842 2b40 011e 8d3f 2681 4140
00000070: 72bb cd3f 8ee9 2f40 c3b1 9f40 58a1 2440
2.9176893 1.9706695 0.97837216 4.3054423 2.0198615 2.025558 2.2238505 2.273755
2.2321157 3.216412 2.455295 1.753926 3.3196666 2.0604475 1.5998815 1.8317251
1.4434509 2.9444335 2.1489987 2.506324 3.6841373 2.1855009 2.8281503 1.8614074
2.4630709 2.6759129 1.1024781 3.0235076 1.6072829 2.74863 4.9904494 2.5723476

layer2.0.conv2.weight f4 [32, 32, 3, 3]
00000000: 0e6c c03d 9488 a03c 9079 a73d 8baf f53b
00000010: 2700 1e3e 3627 6e3e 6275 70bd 7cc3 7e3d
00000020: bf54 c93d e1df db3c d22a 583d 8d81 903d
00000030: e61a c0bb 60fc 3b3d b2ce 843c e127 3bbd
00000040: 1515 48bc fac9 0d3c 6096 dd3b b9ce 003d
00000050: a6c8 273e 7888 83bd 5cd5 883d ed24 3b3d
00000060: 3f2f 78bd 0ee6 173e ba14 84bd 03ae 15be
00000070: 30cd bcbd 8241 bcbb b2c7 d9bd 8058 97bd
00000080: a43f 143e 27cb debd 1bf2 a6bd ff1e f53c
00000090: 2c27 86bd a99a a23d e742 093d 4cfb e93d
000000a0: f30f 1d3d 3c38 8bbb 5e2c 8a3d c5d9 d13d
000000b0: d6a4 a03c d236 f53d bec6 863d bddf a339
000000c0: 41b1 d63d fb8f fe3d e248 d63c 0968 40bc
000000d0: 1c3e b5bd df75 18bd 7fbf 27bd 0ba4 d63c
000000e0: 561e 8dbc 2192 e2bc b646 9c3d a741 1f3e
000000f0: f3b5 94bd 3f29 74bc 801a 8abc f81f a0bd
00000100: 667d 3d3d 8a87 be3c 457e d7bd 7a56 33be
00000110: 4325 03bd 86e6 bf3d 39db a93d 3c8b 93bd
00000120: e6a9 933d a060 153d 4bb2 903d d200 813b
00000130: 9409 89bd 3588 fb3c c15e 8cbd 9869 a4bc
00000140: 8584 8dbd 2aef 8dbe 7f56 38be 2973 48bd
00000150: 0227 1eba 8684 f0bd 47a4 5abe ced2 ca3d
00000160: 23e9 ddbd e598 cbbd 2b9c a6be a682 49be
00000170: b858 50be aa92 d3bd eb4c ac3d 6862 383d
00000180: ac4f 24be d36d 30bd 4199 373e 60a7 503d
00000190: 688e 823d 5d04 993c 4b64 22be f2c2 85bd
000001a0: ec8a 8ebd 737f 9abd e613 2c3d af15 b8bd
000001b0: ae39 0ebe 75f2 5bbc c8cc d3bc fb5c ebbd
000001c0: 1145 8ebd d12e 93bd 5e6d 81bc a52e 20bd
000001d0: 13e0 0d3c efa2 03be 24cb 9bbd 9a88 74bd
000001e0: ee81 80bd ad92 053d 6278 7d3b 590c 8abc
000001f0: 6131 bbbb 521c 04be 0ec6 61bd 172a a0bd
00000200: 4d33 3a3d b87b acbd 318d e0bd 44a5 0b3d
00000210: 67b8 b9bd 10e9 08be d78f 2cbd 4402 cbbb
00000220: 730e a53b 66b1 723a ba11 c23d 0074 e23d
00000230: cbaa d93d 116e 153d cfba 62bd 9f4f c93c
00000240: 3267 fdba 6a03 babd c320 04bd 9c82 82bc
00000250: a167 d4bd 4f19 4cbe 69b6 943d 55a0 afbd
00000260: 43d7 3abe ed0b a03c a481 b2bc 9752 203b
00000270: f4ea 5abc 4565 7dbb bb71 b1bd cf26 fa3b
00000280: b33e 1cbb cedd 17bc 3c8f 2c3d a552 923d
00000290: 37cf 03bc f6cb 603d bba8 a93e 2192 543e
000002a0: eba1 5a3e 9c67 1f3e 2f96 dd3d bf43 8c3c
000002b0: 0831 193e 8567 70bd 2009 dc3d 56de 243d
000002c0: e39f a83c ebea 16bd 3040 003d 00c8 a5bd
000002d0: 1b08 563e 50c2 3e3d 2f28 603c ab23 bd3d
000002e0: 83ce c03d 367e 28bd 9348 fe3d 6624 45bd
000002f0: 027a 0ebe 9811 823c 1278 2ebd baa9 f8bd
00000300: 67e9 19bc 3f71 a73c e5d8 ca3c 0034 5ebd
00000310: 6ad5 f63d ae93 983d d7b8 373e 93e7 fe3d
00000320: 0f20 52bd c5f6 603d e986 0d3e c311 a4bd
00000330: b4e3 583d f20f d73d 01d9 35bd 743e b43c
00000340: 9396 d23d 88ab fdbd 04fa 80bd 87f9 033e
00000350: a8ed 443d c489 a4bc b91b 103d ae19 d43d
00000360: 4e07 b4bd c11a 8dbd f8ef 31be b024 273d
00000370: 2494 1b3e 3350 f33c 5381 613d 423a 303d
00000380: 1113 a43d 4d6f a9bc 769d e43d 2577 ae3d
00000390: 6c45 e0bc b977 fcba 6c94 713c 9346 9b3d
000003a0: f938 803d 1856 a13d d4f8 0e3c 8588 81bd
000003b0: ea47 69bc 81dc ae3d d3c1 f4bd d9ba 26be
000003c0: 9bae 103e 4d22 0e3c 1a98 f0bd 73ad b2bd
000003d0: afc9 b3bd 161c 91bd cf96 aebd 24b7 0abd
000003e0: 117a a3bc 476d 32be 7b04 94bd 5bd2 d1bd
000003f0: 8bb8 bf3d f9e9 bf3c b542 0a3e 3d47 f73d
0.0939561 0.019596376 0.08177483 0.007497733 0.15429746 0.23257145 -0.058705695 0.062198147
0.09830617 0.026840152 0.05277521 0.0705596 -0.0058625815 0.04589498 0.016211841 -0.04569233
-0.012212058 0.008654112 0.006762311 0.031447146 0.16385135 -0.06422514 0.0668132 0.045689512
-0.060591932 0.14833853 -0.06449266 -0.14617161 -0.09218824 -0.005745114 -0.10633792 -0.07389927
0.14477402 -0.10878592 -0.08151647 0.029922007 -0.0655044 0.07939655 0.03351107 0.11424884
0.03834529 -0.004248647 0.067467436 0.10246614 0.01960985 0.11973347 0.06580876 0.0003125648
0.10483027 0.12429806 0.0261578 -0.011743554 -0.08849737 -0.037221786 -0.04095411 0.026201269
-0.01722638 -0.02765757 0.076306745 0.15552388 -0.072612666 -0.014902412 -0.01685834 -0.078185976
0.046262167 0.02325799 -0.10522131 -0.17513457 -0.032017957 0.09370141 0.082937665 -0.07204291
0.0721014 0.036469102 0.07065257 0.0039368654 -0.0669128 0.030704597 -0.068540104 -0.020069882
-0.06910042 -0.2772153 -0.18001746 -0.04893795 -0.00060330343 -0.11744027 -0.2135173 0.09903489
-0.10835483 -0.09941272 -0.32541022 -0.19678745 -0.20346344 -0.10330708 0.084131084 0.045015723
-0.16046017 -0.043073487 0.17929555 0.05094087 0.06374818 0.018678838 -0.15858571 -0.065313235
-0.06960091 -0.0754384 0.042011164 -0.08988511 -0.1388919 -0.0134245055 -0.025854483 -0.11492344
-0.06946767 -0.07186664 -0.01579922 -0.039106984 0.0086593805 -0.12855123 -0.076071054 -0.059700586
-0.06274782 0.032610584 0.003867649 -0.016851591 -0.0057126735 -0.12901428 -0.05512052 -0.07820528
0.04545908 -0.08422035 -0.1096443 0.034093156 -0.09068375 -0.13370156 -0.042129364 -0.0061953384
0.005037123 0.0009258002 0.09476037 0.110572815 0.10628279 0.03648192 -0.055353936 0.0245741
-0.0019333123 -0.090826824 -0.032257807 -0.01593142 -0.10371328 -0.1993153 0.072613545 -0.08575503
-0.18246178 0.019536937 -0.021790333 0.002446329 -0.013361681 -0.0038665098 -0.086642705 0.007634021
-0.0023841083 -0.009269191 0.042128786 0.071446694 -0.008045009 0.054882012 0.33136544 0.20758869
0.2135083 0.15566868 0.10819661 0.017122148 0.1496011 -0.058692474 0.10743928 0.0402511
0.020584052 -0.03684513 0.031311214 -0.080947876 0.2090153 0.04657203 0.0136814555 0.09235319
0.09414389 -0.04113599 0.12416186 -0.048130415 -0.1391373 0.01587753 -0.042594977 -0.12141748
-0.009394026 0.020439742 0.024761626 -0.05424881 0.12052424 0.07450043 0.17941605 0.12446513
-0.051300105 0.054922838 0.13820995 -0.080112 0.05295153 0.10501088 -0.044396404 0.022002436
0.10282626 -0.123862326 -0.06297687 0.12888156 0.04807821 -0.020085223 0.03518269 0.103564605
-0.08790456 -0.068898685 -0.17376697 0.040806472 0.1519323 0.029701328 0.055054974 0.04302431
0.08011449 -0.020682955 0.11162846 0.08518819 -0.027376853 -0.0019261754 0.014744859 0.0758182
0.06260867 0.07877749 0.008726317 -0.06324867 -0.014238337 0.085381515 -0.119510315 -0.16282214
0.14129107 0.00867517 -0.11747761 -0.08724489 -0.087787025 -0.07085435 -0.08524858 -0.033866063
-0.019955667 -0.17424498 -0.07227417 -0.102452 0.09361371 0.023426997 0.13502009 0.120741345

layer2.0.bn2.weight f4 [32]
00000000: e399 7f3f f8f6 5f3f 1166 573f afea 9d3f
00000010: 5e32 993f 8eef 873f ddd9 8c3f 79fc 953f
00000020: fb10 8b3f 7674 773f 992f 533f 8bd2 773f
00000030: 9b57 743f 801c 9b3f 7108 7d3f ff1c 853f
00000040: 18ec 733f e749 8a3f b6c0 6f3f 86a9 8e3f
00000050: 15f8 7f3f 583b 4e3f 8ff7 7e3f 3914 5e3f
00000060: cfd0 b03f b544 913f 982c 8b3f c57e 713f
00000070: 85ae 663f d328 903f ad4d 873f 8494 6d3f
0.9984419 0.8748622 0.84140116 1.2337245 1.1968496 1.0619981 1.1003987 1.1717674
1.0864557 0.9666208 0.82494503 0.9680564 0.95446175 1.2118073 0.98841006 1.0399474
0.95282125 1.0803803 0.9365343 1.1145484 0.9998792 0.805593 0.99596494 0.8674961
1.3813723 1.1349093 1.0872984 0.9433406 0.90110046 1.1262459 1.057058 0.9280474

layer2.0.bn2.bias f4 [32]
00000000: 1bf3 823d 5832 683d fff6 c63c fcb9 05bf
00000010: 7d0f d2bd e664 c1bd 0547 26bd f5a2 89be
00000020: 1a51 9cbe da03 023d 43a6 713d cdc4 9ebd
00000030: 7a80 543a 1269 87bd 8ff7 9ebe 2ec9 373d
00000040: 1bb7 acbd abfc a9bd dc38 643d 6a9d c73d
00000050: b8db ea3c 486e 26bd 4df0 c7b9 cc3b b3bd
00000060: 7535 14be e33d 80be 2a8a acbe 782f aabc
00000070: e77b f1bd 8946 cdbc 66b6 4bbe be16 8bbd
0.06394025 0.056688637 0.024287699 -0.52236915 -0.102568604 -0.09443073 -0.040595073 -0.2688214
-0.30530626 0.031741954 0.05899645 -0.077523805 0.00081063027 -0.066118374 -0.31048247 0.044869594
-0.08433362 -0.08300146 0.055718288 0.09746821 0.028669223 -0.040632516 -0.00038135276 -0.0875164
-0.14473517 -0.25047216 -0.3369916 -0.020774588 -0.117912106 -0.025058048 -0.19893798 -0.06791447

layer2.0.bn2.running_mean f4 [32]
00000000: cbbd 203e 3ca6 15be 9eab 9e3e 2898 4ebf
00000010: d662 f3be c7e8 88bf 3792 5cba ecfb 82be
00000020: 5633 14bf 8619 b23d d66e 133f 7460 1f3f
00000030: 687b 693f 24bf 1ebf 00b4 813d 9b4f f5be
00000040: e12c 283e 1f6a 84be ef53 b03d 290f 7abf
00000050: cc01 d1be 8320 2e3f 073c b5bf c40c ecbd
00000060: 1693 cdbe a3bd 1ebf d981 d43e 6d8f f73c
00000070: 0048 49bf 91ec d5be 0c85 bd3e 3182 9bbf
0.156974 -0.14614195 0.3099031 -0.8070092 -0.47536343 -1.0696038 -0.00084141217 -0.25582826
-0.5789083 0.086962745 0.57591 0.6225655 0.9120393 -0.6201041 0.063331604 -0.47912297
0.1642337 -0.25862214 0.08609759 -0.9767938 -0.40821683 0.6801836 -1.4158944 -0.11525872
-0.4015128 -0.6200811 0.41505316 0.030219758 -0.7862549 -0.41782048 0.3701557 -1.2149106

layer2.0.bn2.running_var f4 [32]
00000000: b067 993f e866 453f 967c 233f 7d99 473f
00000010: de3d 793f c9a9 ee3f 9da2 3f3f 8e29 863f
00000020: 0f72 483f a963 2b3f bc86 133f 12ad 333f
00000030: d27d 093f 897d c53f 9fdc 113f bb6d 833f
00000040: d9e4 403f d42f 603f 0344 7a3f 46b0 663f
00000050: 10f7 ab3f 2292 063f 595a 8b3f 14c8 793f
00000060: d0b3 8b3f 1a7a 623f 4fb6 403f 3542 3d3f
00000070: dd7e 493f c859 2f3f 8857 683f fab3 4e3f
1.1984768 0.7711015 0.6386198 0.7796858 0.97360027 1.8645564 0.74857503 1.0481431
0.7829904 0.66948944 0.57627463 0.7018596 0.5370761 1.5428935 0.56977266 1.0267862
0.75349194 0.8757298 0.9776003 0.9011272 1.3434772 0.5256673 1.0886947 0.9757092
1.091425 0.8846756 0.7527818 0.7392915 0.78709203 0.6849637 0.9075856 0.8074337

layer2.0.downsample.0.weight f4 [32, 16, 1, 1]
00000000: 3695 423b b36c e63d 08e7 13bd 002d e4bd
00000010: 711e adbe 9d1c 88be 3b90 adbd c6ae 35be
00000020: de4c c2bd ebc1 a4be cfd6 8ebd 3c65 f23d
00000030: 55d2 e63d f41b 943e 3700 0b3d 3fb0 d6bd
00000040: 264b 85be 8359 98be e146 0bbe 45eb 9bbe
00000050: 9a30 8a3c 35fe 733d 317d 0abe b94a abbe
00000060: 53a5 19be 7ff5 c83d 49fe 43be 9617 dfbd
00000070: 8fef f9be 0c29 5a3e 605d c13e 3bab a8be
00000080: 5b8f 113d 73b1 09be 4aca 2a3e 9b8a 993d
00000090: 239a 343c 4a0e 45bb c944 01bd 4434 973d
000000a0: 77a0 b8bd 5982 53bc fd64 a53c 2711 8cbd
000000b0: b956 12bf eea4 493e 74e2 a43e 9dee 4cbe
000000c0: 5b86 5f3e bbea 063e bc9b f2bc 5706 4f3e
000000d0: fc76 3abc 6bec c73e be62 e73d 2422 053e
000000e0: d339 953e 92b2 073c f96c b83e 0435 c8be
000000f0: f027 de3c a11f 56be dfa6 3fbd 324e 67be
00000100: fb3f 1bbe bcd7 01bf 87a1 06be 5b3c 20be
00000110: a1dd b03e 5e33 b4bd 1365 b5be 841e ea3d
00000120: 3978 243e b752 713e b16a bc3d f75e 153e
00000130: 0751 94bd 3556 3a3d 7b0a ffbc 8933 283d
00000140: 3a40 0c3e 67b0 1ebe 406f 2ebe 6f43 433e
00000150: a4ef 403e 8af1 823e 4c0d bbbd e025 ab3e
00000160: 6c0e debe 66f8 a93d cc03 cdbd b5f1 97be
00000170: 88b7 28be 9878 d4bd b39b e7bd 57c2 4d3e
00000180: 853e 913e dc4d 523d 9b34 003f 3e95 0d3c
00000190: f624 113e 6c35 443e d918 fabd 01e4 f7be
000001a0: 4b29 d7be 1112 603e 9ee2 1abe 2d91 52be
000001b0: ab7f 7f3e b0af 8a3e c02a dabd 5d1e 153e
000001c0: 2ded 103d 6006 7c3d e599 52be a259 dabc
000001d0: eda4 2c3d 715f 2a3e f7ca 593d 882f 523e
000001e0: 56a1 c6bd c2d5 dd3e da22 8fbd e679 a03e
000001f0: d079 fcbd 852e 0bbd b44e 12bf f56b 5abd
00000200: 7a47 2e3e e9e6 923d 398f 8cbe 6417 013d
00000210: b073 133e aa4c 433e a32b 14be 97ba 9bbe
00000220: 84c4 dabe 3e4a 1c3e 549a 5ebd 286e 1dbd
00000230: 6500 a2be ae6f 543e 0dc3 85be 36fe 1dbd
00000240: 084b 09bd 2238 0fbf 814c b5bb 1dd6 f5be
00000250: ddc1 22be 3e76 52be 2c47 f03d 0070 98be
00000260: 7328 a1bd e750 9c3e fb0c fdbc 0161 b63c
00000270: 652c bb3d b706 0fbd beaa 1a3e e986 d7bc
00000280: 8c1c 8c3e 7dbf 85be e3b5 7e3e 4afa 093e
00000290: e08a c93e ff40 b83e 856e 813e 5dcd 86be
000002a0: ca64 bc3e a956 3bbb c3a7 aabd c636 163e
000002b0: d5a7 ba3e 0f49 6a3d 3252 83be ffe0 4ebd
000002c0: 90ec 94bd 9c16 de3c 27d7 183a 19fb 78be
000002d0: bca3 8abe 8238 0fbf 663e 253e 3839 ddbd
000002e0: 6f17 babe f98c 2a3e 6f1b 81bd 8ce3 003e
000002f0: c467 8bbd 752c 80be e07c 87be 1e19 8cbd
00000300: 6474 04be 2dd9 fdbd 9516 dcbd f37c 643d
00000310: e5ce dcbd d1ce b13e c5f2 3d3e acda 703d
00000320: 0b19 3a3e 3a57 b5bd 80fd 3f3e 6c2c cfbe
00000330: e424 623e 1265 25bd 4662 493e cf9c 3fbd
00000340: 2512 63be bae3 9cbd 12bd 543d 4d1b 2cbd
00000350: 11c2 1cbc 9c72 d8be 66f0 1dbd 7dac 513e
00000360: 9b09 6dbd ea28 303d 4426 02bf aa83 543e
00000370: 3245 753e c0f6 19be 2652 013d ee60 473e
00000380: 14c1 bdbe dbef febe 0278 5b3e 8178 a13c
00000390: ef15 51be 595c 19be cff1 01bf 0a5c 4bbe
000003a0: ca0a fe3d 39e8 f4bd c478 f13d a2ba 3a3d
000003b0: 4801 b6bd e801 82be 054e 023f 247d 7bbe
000003c0: f6dc a8bd 70fb a03d 0554 bf3e fa1f 26be
000003d0: 0cf9 22be 1c61 53bd 90f6 8b3e 706e afbe
000003e0: 87a0 1e3f 4c35 e83d ba4e fbbd 1dd6 0c3f
000003f0: d4b8 ec3c 142a c2bd 48d5 14bd a6d2 83be
0.0029690987 0.112512015 -0.036109 -0.111413956 -0.33812287 -0.2658433 -0.084747754 -0.17742452
-0.094873175 -0.32179198 -0.06974565 0.11835715 0.112705864 0.28927577 0.03393575 -0.10482835
-0.26033896 -0.29755792 -0.13601257 -0.30452934 0.016868878 0.059568603 -0.13524319 -0.33455446
-0.15004472 0.0981245 -0.19139971 -0.108931705 -0.4881558 0.2130472 0.37766552 -0.32943138
0.035537105 -0.13446598 0.1667873 0.0749714 0.011023077 -0.0030068331 -0.03155974 0.07383016
-0.09014981 -0.012909495 0.020189757 -0.06839209 -0.5716358 0.19691822 0.3220402 -0.20012899
0.21828596 0.1317548 -0.029615276 0.20217262 -0.011380907 0.3904756 0.112981305 0.13001305
0.2914568 0.008282321 0.3602064 -0.39102948 0.027118653 -0.20910503 -0.04679 -0.22588423
-0.15161125 -0.5071981 -0.13147555 -0.15648024 0.3454409 -0.0879886 -0.35428676 0.11431602
0.16061486 0.2356671 0.09200037 0.14587007 -0.07242017 0.04549237 -0.031132927 0.041064773
0.13696375 -0.1549698 -0.17034626 0.19068693 0.18841416 0.25574905 -0.091333956 0.33427334
-0.43370378 0.08299331 -0.1001049 -0.29676595 -0.16476262 -0.10374564 -0.11308994 0.20093666
0.2836801 0.051343784 0.5008027 0.008641539 0.14174256 0.19161004 -0.122117706 -0.4841614
-0.42023692 0.21881892 -0.1512551 -0.20563193 0.24951045 0.27087164 -0.10652685 0.14562364
0.03538244 0.061529517 -0.20566519 -0.026654068 0.042149473 0.1663797 0.053172078 0.20525944
-0.09698741 0.43327147 -0.06989069 0.31343 -0.123279214 -0.03397991 -0.5715134 -0.053325612
0.17019454 0.07172949 -0.2745302 0.031516448 0.143996 0.19072214 -0.14469771 -0.30415794
-0.42728055 0.15262696 -0.054346398 -0.03843513 -0.31640926 0.20745727 -0.26125374 -0.038572513
-0.03351882 -0.55945027 -0.0055328016 -0.48014918 -0.15894265 -0.20552918 0.11732325 -0.2977295
-0.07869043 0.30530474 -0.030889979 0.022263052 0.09139327 -0.034918513 0.15104195 -0.026309447
0.2736553 -0.26122656 0.24874072 0.13474384 0.39363766 0.35987088 0.25279632 -0.26328555
0.36795646 -0.002858559 -0.08332779 0.14669332 0.3645617 0.05719858 -0.25648648 -0.05050754
-0.07271683 0.02711039 0.00058304 -0.24314536 -0.27078044 -0.559456 0.16137084 -0.10801929
-0.36346003 0.1665534 -0.06304061 0.12586802 -0.06806901 -0.25033918 -0.2646246 -0.06840728
-0.12935024 -0.123949386 -0.10746495 0.055783223 -0.107816495 0.347281 0.1854964 0.05880229
0.18173616 -0.08854528 0.18749046 -0.4046358 0.22084385 -0.04037959 0.19666395 -0.046780404
-0.2217489 -0.07660623 0.051938124 -0.042018224 -0.009567753 -0.4227494 -0.03855934 0.20475955
-0.05787049 0.04300777 -0.5083964 0.20753351 0.23952177 -0.15035534 0.031572483 0.1947057
-0.3706137 -0.4979237 0.21432498 0.019710781 -0.20418523 -0.14976634 -0.50759596 -0.19859329
0.124044016 -0.119583555 0.11790612 0.045588143 -0.08886963 -0.2539208 0.509003 -0.24559456
-0.0824527 0.07860458 0.3736879 -0.16223136 -0.15915316 -0.051606283 0.2733655 -0.34263945
0.61963695 0.113382906 -0.12270875 0.5501421 0.028896727 -0.09480682 -0.036336213 -0.2574665

layer2.0.downsample.1.weight f4 [32]
00000000: e4ac 043f befc 163f 6abe 053f 50ab d73e
00000010: 246f a83e 6edd 973e 19f8 cf3e 0050 163f
00000020: b244 de3e 3a1a 003f d742 053f dd66 e93e
00000030: 2413 fb3e 5902 2f3e 2394 283f 6b78 c93e
00000040: 5334 743e 1a52 c63e 979f b63e 094b f53e
00000050: 992d c23e eafc ec3e 2d91 ed3e 85fe 123f
00000060: 5a20 9f3e 2969 103f 98e9 bd3e abd0 003f
00000070: dac4 383f cf89 b73e 02a6 f13e def0 233f
0.5182631 0.58979404 0.52243674 0.4212289 0.32897294 0.29661125 0.4061897 0.5871582
0.43411785 0.5004002 0.52055115 0.4558629 0.4903804 0.1709074 0.6585104 0.39349684
0.23848085 0.38734514 0.35668632 0.4790881 0.37925413 0.46286708 0.46399823 0.57419616
0.3107937 0.5641046 0.3709228 0.503184 0.7217537 0.35847327 0.47196966 0.6403941

layer2.0.downsample.1.bias f4 [32]
00000000: 1bf3 823d 5832 683d fff6 c63c fcb9 05bf
00000010: 7d0f d2bd e664 c1bd 0547 26bd f5a2 89be
00000020: 1a51 9cbe da03 023d 43a6 713d cdc4 9ebd
00000030: 7a80 543a 1269 87bd 8ff7 9ebe 2ec9 373d
00000040: 1bb7 acbd abfc a9bd dc38 643d 6a9d c73d
00000050: b8db ea3c 486e 26bd 4df0 c7b9 cc3b b3bd
00000060: 7535 14be e33d 80be 2a8a acbe 782f aabc
00000070: e77b f1bd 8946 cdbc 66b6 4bbe be16 8bbd
0.06394025 0.056688637 0.024287699 -0.52236915 -0.102568604 -0.09443073 -0.040595073 -0.2688214
-0.30530626 0.031741954 0.05899645 -0.077523805 0.00081063027 -0.066118374 -0.31048247 0.044869594
-0.08433362 -0.08300146 0.055718288 0.09746821 0.028669223 -0.040632516 -0.00038135276 -0.0875164
-0.14473517 -0.25047216 -0.3369916 -0.020774588 -0.117912106 -0.025058048 -0.19893798 -0.06791447

layer2.0.downsample.1.running_mean f4 [32]
00000000: c28c 01bf 23f5 86bf 4e4f b1bd d655 083f
00000010: 43ac 8dbe bed5 14bf 02e8 783e 4e81 12be
00000020: 2b4e 4fbf 8178 31bf e208 883f db96 a2bf
00000030: 4528 883e acdd 99be 018e 4dbf 209a 7c3f
00000040: 94e8 1fbe 6e93 f1be 91b2 11be 749f b23d
00000050: 15cc 19bf 8206 b7be e946 ebbc 6948 14be
00000060: 3eef 8bbf 9e54 71be c201 a43f 8dd6 63be
00000070: 606e 69bf 2b2e b53f f30b 543f 0bf0 60bf
-0.50605404 -1.054356 -0.08657704 0.53255975 -0.27670488 -0.58138645 0.24307254 -0.14307138
-0.8097865 -0.693245 1.0627711 -1.2702287 0.26593223 -0.30051935 -0.80294806 0.98672676
-0.15616065 -0.47182792 -0.14228274 0.087218195 -0.6007703 -0.35747153 -0.028720336 -0.14480747
-1.0932386 -0.23567435 1.2813036 -0.22249813 -0.91184044 1.4154714 0.82830733 -0.87866277
