Result/student/resnet14_0.01_0.01_3_Acc _ 87.82_1paik_20_128 # 1_best.pth.tar (torch_old, 721098 bytes, 77 tensors)

conv1.weight f4 [16, 3, 3, 3]
000000 e0 96 a5 3d ef eb dd 3d d2 92 48 3e 78 d9 35 be
       0.08085418 0.108360164 0.19587258 -0.17758739
000010 04 b1 85 be c1 cd 2d be f2 10 00 bd 69 d5 a3 3d
       -0.26111615 -0.1697302 -0.03126616 0.07999689
000020 8c 33 5e 3c 56 43 12 be 64 cc f0 bc bd 6e 63 3d
       0.013562094 -0.14283499 -0.029394336 0.05552553
000030 a4 0c 86 be 03 2d 42 be 10 3e bf be c6 aa 05 3d
       -0.2618152 -0.18962483 -0.37352037 0.032633565
000040 3c 00 8b 3e 45 7f f7 3d 73 67 1e 3e 92 60 42 bc
       0.27148616 0.120848216 0.1546915 -0.0118638445
000050 f0 1a 86 bd 88 5e 7e be e7 8a 4b be fb fb 96 be
       -0.06548107 -0.24840748 -0.19877206 -0.2948912
000060 33 c5 c1 3d df 3b 2a 3e 11 b6 8f 3d a7 a7 3e be
       0.09461441 0.16624402 0.07017148 -0.18618642
000070 03 01 4b be c8 da 19 be 3a 6f 8f be 16 b4 e0 be
       -0.19824605 -0.15024865 -0.28014547 -0.43887395
000080 de f9 c9 be 80 80 0c 3d 92 63 28 be ee d8 04 bf
       -0.39448446 0.034302235 -0.16444233 -0.5189351
000090 ba 11 a4 bc e0 49 1a 3e d6 55 d6 bc 15 1e c4 bd
       -0.020027984 0.15067244 -0.026163977 -0.0957605
0000a0 48 a3 c9 3e d0 6d 8e 3e 62 39 bd bd 4d eb 13 3d
       0.39382386 0.27818155 -0.092394605 0.036113072
0000b0 6e 85 33 be ec 8d 5b bd aa 9a 75 3e 51 f5 af 3d
       -0.17531368 -0.053602144 0.23984781 0.08591712
0000c0 87 c9 78 3d 27 2a 78 3f d5 38 06 3f 63 2a 9b 3c
       0.060739066 0.9693932 0.5243047 0.01894111
0000d0 79 49 b4 3e a1 83 ba 3d 2e 17 20 3e 92 f2 ab 3d
       0.35212305 0.091071375 0.15633842 0.08395876
0000e0 6f 6b 84 be dd e5 9f 3e 36 67 72 3e 6d 1a 08 3d
       -0.25863215 0.3123006 0.23672184 0.033228327
0000f0 21 44 54 3e 48 73 04 3e 57 7f 13 3d c9 ce bf bd
       0.20729114 0.12934601 0.036010113 -0.09365613
000100 ae 9a 85 be 52 a3 9b be 20 58 70 3e e5 6b b0 3d
       -0.26094574 -0.3039804 0.23471117 0.08614329
000110 f9 2d 49 bd b2 03 08 3d 2d e3 bf 3d 68 e4 4b 3e
       -0.04911611 0.03320665 0.09369502 0.19911349
000120 b2 a3 cd bb 99 ab ae be f6 81 c9 be c6 e2 b7 3e
       -0.0062756175 -0.34115294 -0.39356965 0.35915202
000130 09 6e 83 bc 87 d4 5e bd be b1 7d 3e 49 98 06 3d
       -0.01604368 -0.0544019 0.24774835 0.032860074
000140 93 5c e3 3d fd 50 10 bd 69 37 3c 3d 3b 23 ad 3e
       0.111016415 -0.035233486 0.04595128 0.3381594
000150 fa c8 52 3d 8e 77 0b 3f 41 f8 6d bf 4f a2 9d be
       0.051461197 0.544793 -0.9295693 -0.30787894
000160 cc 4d f1 ba d0 53 77 3e ea e1 89 bc dd 7b cb 3d
       -0.0018410026 0.24153066 -0.016831357 0.099357344
000170 08 c7 7f 3d 9b 31 b4 bd d1 ec 24 3f 76 6c 8f bf
       0.06244567 -0.08798524 0.64423853 -1.1204975
000180 50 6a 3b bd df bb 55 3e 3d 91 c2 3e ce 45 e9 bc
       -0.045755684 0.20872448 0.38001433 -0.028475668
000190 87 71 7e 3d d9 13 a2 3e 8b 00 69 3d 81 9d 00 3f
       0.062119987 0.31655768 0.056885283 0.5024033
0001a0 b2 bb 57 bf b7 52 96 bc 2a cb 9a 3d 93 fa c0 bc
       -0.84270775 -0.018349988 0.07558282 -0.023556983
0001b0 8a ce 7c 3e d0 54 28 3f 8a 60 14 bc 8d db 76 3e
       0.24688163 0.65754414 -0.00905622 0.2410719
0001c0 b1 7b a9 3e 51 dc a8 3a 31 9a 2a be b2 65 83 3d
       0.33102182 0.0012883042 -0.16660382 0.06415881
0001d0 62 b1 8f be 61 43 3f be c7 bf 86 be ac a1 aa be
       -0.2806502 -0.18678047 -0.2631819 -0.3332647
0001e0 f9 e8 9a be 32 8d 32 bf d7 c8 9b 3c b6 d8 d9 bd
       -0.3025587 -0.69746697 0.019016666 -0.106370375
0001f0 32 df bf be 1b 3b df 3e 2f ee 7e 3d 9f 22 81 bd
       -0.37474972 0.4359978 0.06223887 -0.063054316
000200 6b bc 85 be c0 70 70 3e 4c c1 67 be 6b d5 29 bd
       -0.26120314 0.2348051 -0.2263233 -0.041463297
000210 66 23 fc 3e 10 1e 9b bc e7 ce 3d bc 4a 25 9a 3d
       0.49245757 -0.018935233 -0.011584974 0.075266436
000220 09 19 d8 3e 1a 72 b3 3e 29 94 4a be 8e f3 a3 3d
       0.422066 0.3504799 -0.19783081 0.08005439
000230 86 3d 3f 3e 5a f9 d3 be 20 7b cd be 16 5d 21 be
       0.18675813 -0.41401178 -0.40133 -0.15758166
000240 52 14 73 be f6 dd 97 3e ab f3 a8 3e 55 c7 84 be
       -0.2373822 0.2966153 0.32998404 -0.25933328
000250 da 9b 12 bd 88 40 40 3c be 06 95 be 18 28 7a be
       -0.035793163 0.011734135 -0.29106706 -0.24429357
000260 3e 04 53 3d f0 b9 4d 3e 47 aa 9c 3e 96 4f 36 3e
       0.051517718 0.20090461 0.3059866 0.17803797
000270 12 69 b8 be 02 2d 0a 3e 92 e2 f2 3d 0a ff 8c be
       -0.36017662 0.13493732 0.11859621 -0.2753833
000280 60 35 c3 3b b3 88 48 be 95 38 ea 3e 2f fe 4e 3e
       0.0059572905 -0.19583397 0.45746294 0.20214151
000290 e8 1b 03 bf 0b 8c 7a 3f fc 9a 0e be d4 4a 62 bf
       -0.51214457 0.9786994 -0.1392631 -0.8839543
0002a0 b1 88 5d 3e ea 50 c4 3c 4d cd 9b be c3 ce 68 3e
       0.21634175 0.023964364 -0.3043007 0.22735123
0002b0 19 92 02 bd 20 ca 49 be 34 42 0a 3f 66 5f 5c be
       -0.03187761 -0.19706011 0.5400727 -0.21520767
0002c0 ec 79 f2 be a0 78 29 be fa 98 21 3c c6 df 5c 3e
       -0.47358644 -0.16549921 0.009863133 0.21569738
0002d0 73 f0 83 be c9 55 b9 3d d6 e1 a2 3d 74 6a d3 3d
       -0.25769386 0.09049565 0.07953231 0.10323039
0002e0 19 96 d7 3c 1e e6 a8 bc 8e 9a 08 bf a3 c5 ba 3d
       0.02631669 -0.02061754 -0.5336083 0.091197275
0002f0 b2 fd f3 3e 77 d1 03 be 34 8a 6f be 7f 03 a1 be
       0.47654492 -0.12872873 -0.23392564 -0.3144798
000300 f1 cd 60 3e ff 88 8e be 9c 5e 9d be 3f 44 32 3e
       0.2195356 -0.27838895 -0.30736244 0.17408846
000310 d6 06 7e 3e b4 46 3b bd 44 c3 31 bd bb 69 78 3d
       0.24807295 -0.045721725 -0.04339911 0.060647707
000320 65 d3 0e be 94 d7 04 3f 12 b8 7d 3e 22 d0 49 3e
       -0.13947828 0.51891446 0.24777249 0.19708303
000330 ff 18 15 bd db c0 44 3e 3c 33 be 3e d1 42 24 be
       -0.03640079 0.19214194 0.37148464 -0.16041113
000340 55 d5 4f 3e a8 02 03 3d da 72 ec 3c d9 e5 b7 3d
       0.20296223 0.031984955 0.02886336 0.08979387
000350 3b 6a 8a 3e c1 e7 30 bf 34 c4 e1 3c d7 9d 8e 3c
       0.27034172 -0.6910363 0.027559377 0.017409248
000360 70 42 91 be 81 93 b1 bd 18 02 85 bd bc b7 d7 3d
       -0.28371 -0.08670712 -0.0649454 0.105330914
000370 7a 45 dd bc ac c1 05 bf 6d 8d de 3e 3f 82 20 3f
       -0.027010668 -0.52248645 0.43467274 0.6269874
000380 a6 b9 11 3e 4a 2d 6f 3d 58 b0 1d 3f b8 a9 31 3f
       0.14230976 0.0583928 0.61597204 0.69399595
000390 80 d0 70 be c7 ca 19 bf f1 ee 2e bf ff 6f a2 3c
       -0.23517036 -0.6007504 -0.68333346 0.019828795
0003a0 50 e3 0e bd b9 2e 1c bd 1a ba 5d 3e 9a 16 15 3f
       -0.03488475 -0.038130496 0.21653023 0.5823761
0003b0 23 64 24 3f ad 3c bb be 8b 6b e1 be 32 7b 95 be
       0.64215297 -0.3656973 -0.4402736 -0.29195553
0003c0 36 d2 b1 be ea 42 b0 be 70 5a 8c bd f5 0e 78 be
       -0.3473069 -0.3442605 -0.06853187 -0.24224456
0003d0 48 39 20 bf 58 2a 13 bf 5a 86 8f 3d a3 30 b0 bd
       -0.62587404 -0.57486486 0.070080474 -0.08603027
0003e0 34 3d 56 bd 23 87 f8 3e 03 2f 26 3f 33 e6 1f 3f
       -0.05230446 0.485406 0.64915484 0.6246063
0003f0 d1 75 4e 3b f0 ba 10 bf de ad de be 9a 53 3e be
       0.003150333 -0.56535244 -0.43492025 -0.18586579

bn1.weight f4 [16]
000000 80 d2 4a 3f 65 b9 27 3f 86 c5 1c 3f 21 6e 72 3f
       0.7922745 0.65517265 0.61238897 0.94699293
000010 64 9a 35 3f ac c3 23 3f 0f 23 5a 3f cd ef 06 3f
       0.70938706 0.63970447 0.85209745 0.52709657
000020 85 4e 47 3f 5e 3d 3f 3f 20 df 45 3f 87 9f 0a 3f
       0.77854186 0.74703014 0.77293587 0.5414967
000030 43 c8 45 3f bc 64 24 3f b8 0e 0a 3f 18 8f 43 3f
       0.772587 0.6421621 0.5392871 0.7639022

bn1.bias f4 [16]
000000 87 a7 6c be 10 23 61 3e af cf 5b bd d0 2a 62 3f
       -0.23110782 0.21986032 -0.05366486 0.88346577
000010 e9 18 13 be b5 86 1c 3e 10 09 9a bc f2 a5 2f 3c
       -0.14364971 0.15285762 -0.01880315 0.010720717
000020 89 01 8c 3e f2 a4 83 3e b8 82 a0 3e 5f 73 d7 3d
       0.2734492 0.2571178 0.3134973 0.10520052
000030 c8 7b 54 bd 0e 57 86 3e be 85 07 3f 51 1f cf bd
       -0.05187586 0.26238292 0.5293845 -0.10113395

bn1.running_mean f4 [16]
000000 6c f0 83 3e d1 51 68 3d ca 68 77 be 82 dc 5e bd
       0.25769365 0.05671865 -0.24161068 -0.05440951
000010 fd 50 0b 3e df 74 a5 3d f5 c7 9d 3b e1 6f 19 be
       0.13605113 0.08078932 0.0048150965 -0.14984085
000020 51 59 da 3d 51 bb 53 3d 81 8f 9f bd b7 59 6a bd
       0.10661567 0.05169231 -0.07791043 -0.057214465
000030 63 75 a6 3d 37 01 82 3b 8d 2f 4f bd 51 f2 b9 3e
       0.081278585 0.00396743 -0.050582457 0.36317685

bn1.running_var f4 [16]
000000 37 a2 be 3f 1f 00 07 40 c9 b5 04 40 22 43 91 3f
       1.4893254 2.1093824 2.0735953 1.1348612
000010 e6 70 48 3f d3 b8 3a 40 cd 5b d2 3f 79 e2 46 3f
       0.7829727 2.9175308 1.6434265 0.7768932
000020 d5 40 03 40 7e 44 81 40 5d 6b 95 40 c0 ce 1b 3f
       2.050832 4.039611 4.669356 0.6086235
000030 bf 34 d2 3f 22 4c 83 3f 68 8e 16 3f 99 c3 ca 3f
       1.6422347 1.0257609 0.58811045 1.5840942

layer1.0.conv1.weight f4 [16, 16, 3, 3]
000000 31 c1 90 3d a2 8b 8b bd 13 92 bf bd 48 19 b5 bd
       0.07068098 -0.06813742 -0.09354033 -0.08842713
000010 85 3f 84 3c 82 b2 9b 3d d8 25 1b be 96 f4 a2 3d
       0.01614357 0.07602407 -0.15151155 0.07956807
000020 63 18 03 3d f8 f5 e6 3d eb c9 be bd 4b ab 91 be
       0.03200568 0.112773836 -0.093158565 -0.28451
000030 71 81 d1 3d 11 7b 60 bc 2a 4d a4 be 83 e6 db 3e
       0.10229767 -0.013701216 -0.32090122 0.42949304
000040 16 80 9b bb 12 9e 23 be c2 46 73 be 87 9f 98 3d
       -0.0047454936 -0.15978268 -0.2375746 0.074523024
000050 42 b6 06 3d 4f 4b 41 3e 2a 43 04 be 21 d4 e4 bc
       0.03288866 0.18876384 -0.12916246 -0.027933182
000060 86 73 ad bb 82 76 00 3e 07 06 01 3d 06 a8 37 bb
       -0.0052933125 0.12545207 0.03149989 -0.0028023734
000070 a3 c0 f5 be f6 8c 21 3e ce 7c b3 3e e0 84 46 3e
       -0.47998533 0.15776429 0.35056156 0.19386625
000080 03 b5 e3 bd c1 51 cf be 22 54 88 bd e3 ee 1e be
       -0.111185096 -0.4049206 -0.06656672 -0.15520816
000090 ff 44 c3 bc bc 73 b0 bd 8f 1b ae bc ad db cd 3d
       -0.02383661 -0.086158246 -0.021253375 0.100516655
0000a0 a5 29 07 3c 17 d3 85 3d ac b6 7a 3e 3d 50 1f 3e
       0.008249675 0.06534403 0.24483746 0.15557952
0000b0 20 47 b6 3c 4c 3b 2a be 4b d4 98 bd 38 79 c0 3d
       0.022250712 -0.16624182 -0.07462367 0.09398121
0000c0 02 c5 0b 3b 91 94 61 bd 93 fa 01 be b3 6b 2d bd
       0.0021327143 -0.055073325 -0.12693243 -0.042339038
0000d0 55 b6 8f be 09 e1 82 be ed ed 4c be a3 db 76 bd
       -0.28068796 -0.25562313 -0.20012636 -0.060268056
0000e0 d5 34 e4 bb a6 23 ac bd 44 3c b7 3d 00 c3 be 3d
       -0.006964306 -0.08405237 0.08947042 0.09314537
0000f0 51 3a fa bd e1 c7 7f be d8 be 19 3e cd f8 8e 3d
       -0.12218154 -0.24978592 0.15014207 0.06981049
000100 01 61 a5 bc 22 64 5f bd 13 8f 89 3c fc 5c 3c 3d
       -0.020187857 -0.054538853 0.016791856 0.045987114
000110 6d 0e 4c be 26 63 85 3e 41 3d bb bd c5 a8 0c be
       -0.19927378 0.26052207 -0.09142543 -0.13736255
000120 37 03 4b 3d 38 5f 57 be 35 5d 97 3e 57 c4 47 be
       0.049563613 -0.21032417 0.295633 -0.19508491
000130 8e 16 3a 3d c8 48 28 3e cf 9f 92 be 92 ad 3e be
       0.045431666 0.16434014 -0.2863755 -0.186209
000140 e1 e9 0f be c5 b3 87 bd e4 a9 8d bd 94 b3 47 be
       -0.14054061 -0.06626085 -0.0691717 -0.19502097
000150 99 e9 33 be 43 4f 99 be 08 f8 39 3d 4e b7 f3 3b
       -0.17569579 -0.29943284 0.045402557 0.007437623
000160 b2 00 e2 3c cf 8b b5 3d 45 78 45 be 07 af 88 bd
       0.027588222 0.08864557 -0.1928416 -0.06674009
000170 ef b3 3d bd 7d bc f5 bd a2 6a da be cf 5a 1e be
       -0.046314176 -0.11998842 -0.4265948 -0.15464328
000180 49 39 8e bc 06 61 9b be 6a 4a 9a be ed 07 36 3e
       -0.0173613 -0.3034746 -0.30134898 0.17776461
000190 c7 9c dc 3d a1 ba 06 be 90 b5 2b bd 25 c3 78 be
       0.107720904 -0.13157131 -0.0419212 -0.24293192
0001a0 fb 1f 41 bd 8c 21 3a 3e 1e 21 8e be 9d 03 d6 3c
       -0.04714964 0.1817686 -0.2775964 0.02612477
0001b0 96 de 14 be e2 24 59 3e 9c 54 f4 3d d8 99 98 be
       -0.14538035 0.21205476 0.119302005 -0.29804873
0001c0 6c 5d 09 bb 84 dd 46 3e 76 42 04 be c8 f5 25 be
       -0.0020960225 0.19420439 -0.12915978 -0.1620704
0001d0 d2 3b dd 3d ed 78 96 3e f4 2e 1b bd fe 1e bd be
       0.108024254 0.29389134 -0.037886575 -0.36937708
0001e0 60 22 c4 3d ab f4 69 be 29 56 2f be 48 48 62 3e
       0.09576869 -0.2284724 -0.17122711 0.22097886
0001f0 07 72 7b 3e bb 9c c7 bd 4d 05 0c be dc bc 03 be
       0.24555217 -0.09746691 -0.13673897 -0.12865013
000200 28 32 8e 3e 58 07 1d 3d d8 9b 8c bd 78 e1 f0 bd
       0.2777264 0.03833708 -0.06865662 -0.11761755
000210 fc c0 37 3d 50 e8 b4 bc 9f 52 1a 3d 35 82 50 3d
       0.04486178 -0.022083431 0.03767645 0.050905425
000220 8d dc ef 3d da 1c 9e bd ad 2f c1 bd f3 1f 3c 3e
       0.117119886 -0.07720347 -0.094329216 0.18371563
000230 b8 a4 5b 3e ec 53 ae be da e8 46 ba ac 98 ca 3d
       0.21449554 -0.34048402 -0.0007587798 0.09892401
000240 ae ff 22 be 35 5b e0 bd b4 17 23 3c 35 90 01 be
       -0.15917847 -0.10954896 0.009954382 -0.12652667
000250 d4 63 74 3d 9a 84 66 bd 76 a6 c6 3d 8e 77 fc 3d
       0.059665516 -0.056278802 0.09699719 0.12327491
000260 bc 42 c8 bd 65 ff 14 bd 7e 78 1b be f5 17 f5 bd
       -0.097783536 -0.036376376 -0.15182683 -0.1196746
000270 22 0a a9 3d e5 5a 09 be e3 f3 18 be 19 c6 0b 3e
       0.08253886 -0.1341358 -0.14936785 0.13649787
000280 a8 5f 4c bd 55 53 6c 3a 89 b8 21 bd 4d 9e 1f 3e
       -0.049895912 0.0009015103 -0.039482627 0.1558773
000290 f8 81 02 3e 52 49 b1 bc 0a fb 38 3d a2 83 a1 3d
       0.12744892 -0.021641407 0.045161285 0.07886435
0002a0 86 9b 92 be e1 6f 61 bd e7 2f 73 be cf 8d c0 bd
       -0.2863428 -0.055038337 -0.23748742 -0.09402048
0002b0 8e e4 98 3e 97 e7 4f be ad d7 63 bd 07 13 87 be
       0.29861873 -0.20303188 -0.055625606 -0.26381704
0002c0 17 74 5a 3e 16 18 92 3d 27 53 ed bd 86 35 9c 3c
       0.21333347 0.071335 -0.11588126 0.01906849
0002d0 4d 38 3a 3d aa b3 2c 3d eb 43 97 bc 38 ac 80 3e
       0.04546385 0.04216353 -0.018465003 0.25131392
0002e0 86 ab 9b 3d ef 0f 2a 3c b7 83 34 3e d5 a7 8c 3d
       0.07601075 0.010379775 0.1762837 0.06867949
0002f0 b0 e6 19 3e 09 72 7b bd d3 7d 19 be ec 99 b0 bd
       0.15029407 -0.06138805 -0.14989404 -0.08623108
000300 c3 89 24 be b4 a3 66 bd cf f8 2c bd a6 df 2b bc
       -0.16068177 -0.056308463 -0.04222947 -0.010490334
000310 87 95 40 bb 30 e5 98 bd f5 0b 9b bd d2 3e cd 3b
       -0.0029386 -0.07465589 -0.0757064 0.0062635923
000320 6f eb 74 3d be ba 12 3d 8b 6b 29 bd 16 f3 3b 3c
       0.05979484 0.035822622 -0.041362327 0.01147153
000330 1a cd 5a bd b1 b9 14 be f3 57 c3 3e fe c0 c3 bd
       -0.053418256 -0.1452396 0.38153037 -0.09558295
000340 a9 c1 f5 3d 0a 91 15 be 11 f3 dc 3c d9 69 5e ba
       0.11999828 -0.1460611 0.026971372 -0.00084844005
000350 57 23 19 3e 34 b6 b4 bd 72 88 76 3d 96 4b 6e 3d
       0.14954887 -0.08823815 0.06018872 0.058177553
000360 c0 7e 1e bd 6b c0 1f 3e 59 26 f4 3d 3e 87 af be
       -0.038695097 0.15600745 0.11921377 -0.3428287
000370 2e b0 41 be 42 97 ac bd fc 62 06 3c 48 4a ed bd
       -0.18914863 -0.08427288 0.008202311 -0.11586434
000380 da 7b 00 3e a1 b1 74 bd 4d d1 8c 3d 4b 03 e4 3d
       0.12547246 -0.059739713 0.068758585 0.111334406
000390 2d c8 23 be 23 c2 96 3d 1c fb d6 bd 09 ec 24 be
       -0.1599433 0.073612474 -0.10497114 -0.16105665
0003a0 bd 53 98 be ce 91 1c be ce 66 6e bd c9 9e 82 be
       -0.29751387 -0.15289995 -0.05820351 -0.25511768
0003b0 ee 9d 66 bd 22 aa 8f 3d cd 16 98 3e e2 d6 ba 3d
       -0.056302957 0.07014872 0.29704896 0.09123017
0003c0 a1 86 7f b9 44 f5 18 3e a3 4e 11 bd 1b 52 5b 3e
       -0.00024368848 0.14937311 -0.035475384 0.2141804
0003d0 c0 53 be 3c 89 32 14 3e 6f ad 8a be 93 81 74 be
       0.023233294 0.14472403 -0.27085444 -0.23877554
0003e0 51 ae 87 3d 47 23 65 bd a4 23 13 be 92 05 f1 3d
       0.06625045 -0.055941846 -0.14369065 0.117686406
0003f0 71 c4 63 3e 50 f6 68 be 01 71 56 bd 0a b7 e7 bc
       0.22242905 -0.22750211 -0.052353863 -0.028285522

layer1.0.bn1.weight f4 [16]
000000 3d 40 70 3f a0 06 2d 3f 12 b2 2e 3f 80 17 48 3f
       0.9384802 0.67588234 0.68240464 0.7816086
000010 13 88 39 3f 70 28 45 3f 82 5e 76 3f 4d f5 7d 3f
       0.7247326 0.7701483 0.9623796 0.99202424
000020 d5 e8 08 3f 19 4c 22 3f 5f e5 70 3f 42 1e 4e 3f
       0.53480273 0.63397366 0.9409999 0.8051492
000030 ef a2 58 3f f1 82 18 3f 0b b2 50 3f b5 3f 81 3f
       0.84623617 0.595748 0.8152167 1.0097567

layer1.0.bn1.bias f4 [16]
000000 b7 b8 85 3e 79 a0 52 3e bc 58 c8 3e 0b 97 e1 bd
       0.2611749 0.20569028 0.391302 -0.11015137
000010 0d 5f 95 3e 7f d9 6e bd e1 5d c6 be a1 86 9f 3d
       0.2917408 -0.05831289 -0.387435 0.0778935
000020 1f 4f 6a be 55 9e 3c be cc a5 a5 3d 6a b4 39 3e
       -0.22881745 -0.18419774 0.08088264 0.18135229
000030 34 ca 6f be db e8 95 bb 64 c2 fb 3d 35 ae 05 3f
       -0.23416978 -0.0045748777 0.122929364 0.52218944

layer1.0.bn1.running_mean f4 [16]
000000 e0 25 03 c0 f1 f8 25 bf ed 03 73 bf 6f 72 30 bf
       -2.0491867 -0.6483298 -0.94927865 -0.6892461
000010 ae 39 15 bf 5f bf 6d 3f 29 8e 50 3d 21 9f 3d bc
       -0.5829114 0.92870134 0.050916824 -0.011573584
000020 e4 45 bd 3f 0e ee 02 3f 0e 2d ea bf f5 ca f6 be
       1.4786954 0.5114449 -1.8295 -0.4820172
000030 bd 9c 87 bf b3 e9 86 3f 90 39 cc bf 87 e4 15 bf
       -1.0594708 1.0540069 -1.5955067 -0.5855183

layer1.0.bn1.running_var f4 [16]
000000 d2 d4 02 40 b8 19 9c 3f e5 13 86 3f c0 83 8c 3f
       2.0442395 1.2195349 1.0474821 1.0977707
000010 ea 4f 03 3f 36 4a 8c 3f cc a1 b4 3f 0d 68 1f 40
       0.51293814 1.0960147 1.4111876 2.4907258
000020 71 bd 3e 3f 56 b4 26 3f 90 53 cd 3f 5c 75 d2 3f
       0.74507815 0.6511892 1.6041126 1.6442065
000030 b3 c1 70 3f eb 3e 73 3f eb fb 83 3f 16 73 dd 3f
       0.9404556 0.9501788 1.0311254 1.7300746

layer1.0.conv2.weight f4 [16, 16, 3, 3]
000000 8a e9 fc bc 41 c7 66 be b6 89 02 be 62 76 b8 bc
       -0.030873079 -0.22536947 -0.12747845 -0.022517387
000010 d6 12 ff 3d b8 1e 6a bd f5 64 5d 3c 33 0b 07 be
       0.124547645 -0.057158202 0.01351284 -0.13187866
000020 7c 2b f8 3d 6d 59 1e 3e 12 8a f0 bc 6e 92 31 3d
       0.12117669 0.154638 -0.029362712 0.043352537
000030 38 6c 0d be fd f4 da 3d cd 7f 2a bd 30 a0 84 be
       -0.13810813 0.10691259 -0.041625787 -0.25903463
000040 6d 64 5a 3d 12 13 b9 bd e5 09 9a 3d 1c 7e aa 3d
       0.05331843 -0.090368405 0.075214185 0.08324835
000050 af 9e 81 bc 49 4a db 3d e5 5a 9e 3e 8b b6 65 3d
       -0.015822737 0.10707528 0.30928722 0.05608229
000060 58 db 06 3c ae cd 67 3e 2e b0 55 3e 53 a2 0b bd
       0.008231007 0.22637054 0.20867988 -0.03409035
000070 6c 0f f2 bc a6 dc ad 3d 35 42 11 3d b7 95 4d 3e
       -0.02954837 0.08489351 0.03546353 0.20076643
000080 94 40 d3 3d a3 3b ae 3d ed 79 03 3e fc a4 4e bb
       0.10315052 0.085074686 0.1283948 -0.0031531444
000090 28 c8 0d 3d 62 09 db 3b b2 44 05 3d 51 c9 09 3d
       0.034614712 0.006684468 0.032536216 0.033639256
0000a0 0c 4f 0c bd 4c d5 ab 3d cd 91 ae bd 60 64 b6 bd
       -0.034255072 0.083902925 -0.08523903 -0.08905864
0000b0 a8 f7 8b 3d 16 ca b5 3d 44 1a 05 be 2b 95 89 3b
       0.06834346 0.088764355 -0.12998301 0.0041986904
0000c0 30 9b e2 bc 25 b2 2c 3e db de 8f bc 9c e3 87 3d
       -0.02766189 0.16864832 -0.01756232 0.0663521
0000d0 ff 3b 8a bc 4b 5d 27 be 21 a5 bc 3d 7e f6 a7 3d
       -0.016874311 -0.16344182 0.09211183 0.082013115
0000e0 9e 81 a6 3d 5d 1e 58 3e 37 7f 8d 3d 7a 6b f0 3d
       0.08130191 0.21105333 0.0690903 0.117392495
0000f0 1f ac 98 3d 21 af 02 be a4 d5 4b be 3c 12 06 be
       0.074547045 -0.12762119 -0.19905716 -0.13092893
000100 fa 42 06 3d a6 72 9e 3d 91 d9 a5 3c e7 ca 0d 3e
       0.032778718 0.07736711 0.020245345 0.13846932
000110 eb 8c b4 3c 91 52 2f 3d e2 1b 9e bd b2 24 80 be
       0.022039851 0.04280335 -0.07720162 -0.25027996
000120 a4 19 f0 bd 69 cd 8c 3d 8b 46 fb bd 6e 82 df bd
       -0.117236406 0.068751164 -0.122693144 -0.10913549
000130 ed b1 86 3d 07 90 49 bd 7d ba cb bd 24 10 15 be
       0.065769054 -0.04920962 -0.09947679 -0.14556938
000140 a2 71 bd bc 6c fd 3c 3d 6a 80 c5 bd 69 3e 01 3e
       -0.023125473 0.04614012 -0.09643634 0.12621464
000150 94 75 56 be 06 42 b3 bc 36 5d c1 bd 55 53 59 bd
       -0.2094329 -0.021882068 -0.09441607 -0.053057987
000160 f0 01 df 3d 2f 4b 09 3d cb 57 15 bd 45 e7 cf 3a
       0.108890414 0.033518966 -0.03646068 0.001586177
000170 bb c8 13 3e 02 41 11 3e dc 60 8b 3e 59 7a 39 bd
       0.14432041 0.14184955 0.27222335 -0.045282695
000180 a0 b3 87 bd 24 a9 a6 3d 38 40 12 3e 40 98 5b 3e
       -0.066260576 0.0813773 0.1428231 0.21444798
000190 0c d2 8b bc 1d 56 a4 3a 33 88 23 3e dc 97 36 be
       -0.017067932 0.0012537871 0.15969925 -0.17831367
0001a0 44 ea 18 be f2 66 27 be 5c 96 9d bd 6d 78 27 be
       -0.14933115 -0.16347864 -0.076946944 -0.16354533
0001b0 d0 db 8f bd af 68 13 bd c8 7a 24 be 30 73 d3 3e
       -0.07024348 -0.035988506 -0.16062462 0.4129882
0001c0 06 52 34 3c 80 1c cd 3d 64 0c 4a 3e 35 66 48 bd
       0.011005884 0.100152016 0.19731289 -0.048925597
0001d0 1d 6d 21 3e 94 2d 85 3d b1 4d 82 3d 38 1e 14 bc
       0.1576428 0.06502834 0.06362475 -0.009040408
0001e0 d4 f6 e4 bd 05 75 8a bd 51 b8 35 be 5e 9e d0 bc
       -0.11179891 -0.06760601 -0.17746092 -0.02546614
0001f0 5f 33 ce bd 3c fe 00 3d 81 a9 1e 3e 77 5f f0 bb
       -0.10068392 0.031492457 0.15494348 -0.007335599
000200 4d 67 31 be ba 04 a5 bd bb f9 cd bc cd 78 88 bd
       -0.17324562 -0.08057542 -0.025143495 -0.06663666
000210 12 c2 56 be 61 e5 51 3e 2e 7b ba 3c 13 22 83 bd
       -0.2097247 0.20497657 0.022763815 -0.064029835
000220 50 4c fd 3d e5 2a a4 3d 9c fa 90 bc 4c 7d 3c 3e
       0.12368071 0.08015994 -0.017697625 0.18407172
000230 e5 5b 8c be 41 c1 e7 3d da 9f 75 be 55 2a d6 bc
       -0.2741386 0.11316157 -0.2398676 -0.026143232
000240 d5 80 72 bd 2b f2 d0 bc 7e 7d 95 bd 69 4d b3 3c
       -0.059204895 -0.0255061 -0.07299326 0.021887498
000250 1b 93 20 bd 67 09 59 3e b0 cd 42 be 34 c3 61 3e
       -0.03920279 0.21194993 -0.19023776 0.2204712
000260 84 a6 5a 3b ea be 83 bd 7f d3 4c 3e ba 5d d1 bc
       0.0033363411 -0.06432898 0.20002554 -0.025557388
000270 89 a6 ce bc 68 99 80 3e 00 2a 20 3e 3a f6 50 3e
       -0.025225895 0.2511704 0.15641022 0.20406428
000280 2e 15 52 bc 65 e1 53 3e 48 65 4a bd 66 81 98 bc
       -0.012822432 0.2069145 -0.049412996 -0.01861639
000290 40 ed 8f be 4d 77 a4 bc 4a 80 8c 3e 1f 23 86 3d
       -0.28110695 -0.020076418 0.27441627 0.065496676
0002a0 f2 cf 8f bd 70 d0 83 bd 3e 68 2a bb 91 68 d2 bd
       -0.07022084 -0.06436241 -0.0026002075 -0.10273851
0002b0 57 9c 76 3d 8b f3 2a be e0 b4 b0 bd b1 d7 57 be
       0.06020769 -0.16694467 -0.08628249 -0.21078373
0002c0 d2 38 c4 bd 75 3c bc 3d 8f 50 1b 3e 8a 9d 46 bd
       -0.0958115 0.09191219 0.1516745 -0.048490085
0002d0 75 dc e2 bd 96 32 d7 3d 9a 37 5e 3c ec 18 04 3d
       -0.11077205 0.105076954 0.013563061 0.03225033
0002e0 d7 dd f6 bb ab b8 64 bd 10 64 0a bb 69 f2 30 be
       -0.0075337696 -0.055840176 -0.002111677 -0.17279972
0002f0 14 2e 76 be 07 f2 fa bb cc 39 8f 3d 96 e2 15 3c
       -0.24041015 -0.0076582464 0.06993446 0.009148261
000300 fb 35 22 3e 5e f8 68 3e a2 ba 04 be d0 e3 59 3e
       0.15840904 0.22750995 -0.1296182 0.2127831
000310 c8 46 fa 3c 19 89 01 3e 6d c2 44 be 05 13 ac 3b
       0.03055133 0.12649955 -0.19214793 0.0052512907
000320 1d 84 58 bd f2 d0 d9 bc 46 d2 2a bd 42 5c 2f 3d
       -0.052860368 -0.02658889 -0.04170444 0.042812593
000330 ca 62 99 3d 80 de a8 3d 3e 80 97 3d 80 5d ac 3d
       0.07489546 0.082455635 0.07397507 0.08416271
000340 8b c0 f1 3d b4 77 af 3a 2c 70 48 bd 57 7e 36 3e
       0.11804303 0.0013387115 -0.0489351 0.17821632
000350 40 99 55 bd cf ad 21 be b0 05 82 3d c0 c5 8e 3d
       -0.052148104 -0.15788959 0.06348741 0.069713116
000360 df 5d 8b 3b 2e 5e 6b bc 23 84 3b bd 86 a4 60 3c
       0.0042531337 -0.014365716 -0.045780312 0.0137111
000370 b1 67 2e be 77 42 32 be b9 61 e4 bc 34 c4 2a 3d
       -0.17031743 -0.17408167 -0.027878629 0.04169102
000380 26 bf 42 3b ef 83 6b be ba 64 41 3e a5 4f 5d 3d
       0.0029715984 -0.22999547 0.1888608 0.054031033
000390 77 2d 05 bd 79 37 16 3e 0e 76 b4 bd af 32 c3 bd
       -0.03251406 0.14669599 -0.0881158 -0.095311515
0003a0 81 a5 3d bb 38 4a 00 3e d6 c4 46 3c d3 b2 0b 3e
       -0.002893776 0.12528312 0.01213189 0.13642435
0003b0 9a 29 ed 3c 9c 1c b2 3e 0b f6 a6 3d 32 34 4e bd
       0.028950501 0.34787452 0.08152398 -0.050342746
0003c0 78 3e 93 bb bf 68 52 3d 60 a8 96 3e f0 83 12 be
       -0.004493531 0.051369425 0.29425335 -0.14308143
0003d0 7c 58 0d be 7e ea 48 be ff ec 75 be 4f c3 8b bd
       -0.13803285 -0.19620702 -0.24016188 -0.068243615
0003e0 9a dd de bd a0 32 c3 3d 36 6c b1 bb fc 80 ac bb
       -0.10882111 0.0953114 -0.005414511 -0.0052643996
0003f0 c8 ce 47 be 85 8b 62 3e 5b c3 08 3e 22 ab bc bd
       -0.19512475 0.22123535 0.13355772 -0.092123285

layer1.0.bn2.weight f4 [16]
000000 4e c8 4a 3f 7c 7f 3f 3f 9f c0 46 3f 89 5d 6b 3f
       0.7921189 0.748039 0.77637666 0.919396
000010 41 06 53 3f 0b 3e 81 3f 17 37 22 3f fd bd 5b 3f
       0.8243142 1.0097059 0.6336531 0.85836774
000020 84 a0 99 3f 4f 18 15 3f 12 78 5c 3f bd 12 2b 3f
       1.200211 0.58240217 0.8612071 0.6682547
000030 98 14 9f 3f 6f 35 1c 3f 2a b7 1a 3f ec 01 2a 3f
       1.242816 0.61019033 0.60435736 0.6640918

layer1.0.bn2.bias f4 [16]
000000 f2 8d 10 bc a2 ed ee 3d a4 da 19 3d 65 61 1b be
       -0.008822905 0.116664186 0.037562028 -0.15173872
000010 ed f4 11 3e 7c eb b8 be f4 5d 32 3e 5d 33 9d 3e
       0.14253588 -0.3611716 0.17418653 0.3070325
000020 1f c0 16 be 84 5f 26 3e 35 27 a1 3e db 87 2d 3e
       -0.14721726 0.16247374 0.31475225 0.16946356
000030 f5 5a 50 be c2 f5 d6 be 50 71 30 3d cd 29 0d be
       -0.20347197 -0.41984373 0.043076813 -0.13785477

layer1.0.bn2.running_mean f4 [16]
000000 4a 75 b1 3e 2a 3d fd be 90 4b 73 3e a1 3f 88 3e
       0.34659797 -0.49460727 0.23759294 0.26611045
000010 56 ca 10 bf 2e 00 8c bf fb d9 72 be ed bc 76 bf
       -0.5655874 -1.0937555 -0.23715965 -0.9638203
000020 88 be 88 3d 92 4a 87 be df 6f 8d bf e0 bb 27 be
       0.06676966 -0.2642408 -1.1049765 -0.16380262
000030 fe 81 1e be cb 58 9a 3e 3f 34 f8 be 6e 81 80 3f
       -0.15479276 0.3014587 -0.4847736 1.0039499

layer1.0.bn2.running_var f4 [16]
000000 9a 37 2c 3f 58 cf 76 3f cb 51 31 3f 84 ad 89 3f
       0.6727234 0.9641013 0.6926543 1.0756078
000010 fb a7 4f 3f 49 5f 9d 3f 05 eb ad 3f c9 4c 95 3f
       0.8111569 1.2294704 1.3587347 1.1664058
000020 4b 4f b1 3f 62 1b 95 3f b1 f4 96 3f 6b 5c 7c 3f
       1.3852323 1.1648982 1.1793424 0.9857852
000030 55 8a 18 40 5a 52 db 3e 15 df 37 3f b1 d8 67 3f
       2.383443 0.42836267 0.7182477 0.9056502

layer1.1.conv1.weight f4 [16, 16, 3, 3]
000000 4b a0 cb 3c 54 7a 8e bd 5b 2b 01 bd f2 ff 16 bd
       0.024856707 -0.06956926 -0.031535488 -0.036865182
000010 a5 3d 3f be 87 3d 2b be b6 d0 67 3c 6d a5 cb 3d
       -0.1867586 -0.1672269 0.014148882 0.09943662
000020 ee 9e 0a be f1 96 f1 3d 91 50 aa 3e 75 2c ab 3e
       -0.1353719 0.11796368 0.33264592 0.33432356
000030 be 71 02 3e 5f c6 a4 3e c8 ff 41 3d 16 54 95 3d
       0.12738702 0.32182595 0.047363073 0.07291429
000040 70 a9 f2 3c f3 e1 09 be f2 18 07 3d df 0c 4c bd
       0.02962181 -0.13465099 0.032982774 -0.049816962
000050 3a 92 de 3d d8 80 27 bc af 30 1e 3e 74 a2 26 bd
       0.10867734 -0.01022359 0.15448259 -0.04068227
000060 2e 19 54 bc 3d e4 03 be d3 c2 3d be bb e5 6f be
       -0.012945456 -0.12880035 -0.18531351 -0.23427479
000070 c1 00 6f 3d ff 29 dd 3d 2e d0 74 bc f0 ba 15 3e
       0.05835033 0.10799026 -0.014942212 0.14622092
000080 10 28 b9 bc 7f 2b 01 be 30 10 6a 3e 8f 2b ab bb
       -0.022602111 -0.12614249 0.22857738 -0.0052236984
000090 b9 88 9b 3b 6a cb 28 bd a0 9b 21 be 13 69 32 bd
       0.004746523 -0.041209616 -0.15782022 -0.043557238
0000a0 c0 4e 28 bd 46 db 8d 3c f2 46 3c bd f4 05 d3 bd
       -0.041090727 0.017316472 -0.045966096 -0.1030387
0000b0 ec 14 1d 3e 05 6c 29 3e 32 69 81 bd df 63 90 3c
       0.15340012 0.16545112 -0.063188925 0.017625747
0000c0 3e 0a 1c 3d e6 99 bb 3d 52 ea 9a bd fd 95 37 be
       0.038095705 0.09160213 -0.07564224 -0.1792831
0000d0 6f bc 17 be a9 2d f2 3c 14 12 e0 bc 7f 1c 22 be
       -0.14817975 0.029562788 -0.02735237 -0.15831183
0000e0 6d f0 b2 3d d2 87 0f 3e b7 ef 30 3e 38 ee 03 3e
       0.08737264 0.14016655 0.17278944 0.12883842
0000f0 1b 3d 91 bc e2 61 3b 3e b1 6c 0f 3e 94 62 2e 3c
       -0.017729333 0.18299058 0.14006306 0.01064362
000100 55 a6 33 3d 9b c9 d6 3c 34 63 a0 3d d9 bc 16 be
       0.0438598 0.02621918 0.078314215 -0.14720477
000110 e5 b8 3e be 76 50 73 3e 5d 5b bc bd b5 51 3a be
       -0.18625219 0.23761162 -0.09197114 -0.18195231
000120 13 d9 12 be 03 ef ea bd 6f 45 be 3d da 55 56 be
       -0.1434062 -0.11471369 0.09290587 -0.20931187
000130 64 2d 6c 3d ac 22 e7 bc ba ec 8e bd ba 75 0f be
       0.057660475 -0.028214775 -0.06978746 -0.14009753
000140 af c8 a4 3d da 4d 03 be 1f 3b 8d be dc b9 99 bd
       0.0804609 -0.12822667 -0.27584168 -0.07506153
000150 a7 fc be 3d 75 1a 09 be ae 3c 64 bd 9d 93 12 3d
       0.09325533 -0.13388999 -0.05572193 0.035785306
000160 be 4c fa bc 9a f2 97 3e 76 ee 80 3e e3 7f 42 3d
       -0.030554172 0.29677278 0.2518193 0.047485244
000170 5c 91 f5 3d cb 9b 94 3d be 26 2c bd 60 e9 6c bd
       0.11990616 0.07256278 -0.042029135 -0.05783975
000180 70 ba 9f be 6d 89 9f bc b0 eb 96 bd a1 2c 37 3e
       -0.31196928 -0.01947471 -0.073691726 0.17888118
000190 f1 6a 95 3d fa c8 13 3d 24 5b 8d bd 05 6e 7c 3e
       0.07295788 0.036080338 -0.06902149 0.24651344
0001a0 14 4b 91 bd 14 0e f4 bd 3d 5f 1a bd 65 04 f8 bd
       -0.07094398 -0.11916748 -0.037688483 -0.12110213
0001b0 5b ac 1a be 9b 19 92 3d a9 8c 4c bd 26 34 44 be
       -0.15104811 0.0713379 -0.04993883 -0.19160518
0001c0 a6 8f 03 3e 9f 4d a0 bd 1b 00 14 be 6c 6c 36 3d
       0.12847766 -0.07827305 -0.14453165 0.044536993
0001d0 e4 25 ba 3a 90 e2 f1 bc 1c 8c 4b 3e e9 b4 14 be
       0.0014201966 -0.029526979 0.19877666 -0.14522137
0001e0 74 25 42 3d d9 65 7f 3d 9c c5 7b 3d 29 c1 cc bc
       0.047399 0.06235299 0.06146775 -0.02499445
0001f0 d9 62 f4 3c af 0f 30 3c ce c9 7c 3c 6c 7f a8 3d
       0.02983229 0.010745927 0.015428973 0.08227429
000200 ef 92 63 3d 62 77 b9 3c a5 b8 9c 3e 0b 5b af 3e
       0.05556005 0.022639934 0.30609623 0.34249148
000210 16 40 b3 bd 46 23 55 3e c0 06 20 3b c8 aa fb 3c
       -0.08752458 0.20814237 0.0024418086 0.030721083
000220 df 29 83 bd 1c f4 c1 bd a4 57 03 3d 6e df e7 3d
       -0.06404471 -0.09470388 0.032066002 0.11321913
000230 8d 98 8c bd eb 1a fd 3d 99 b3 1d bc a5 59 54 3e
       -0.06865034 0.1235865 -0.009625339 0.20737322
000240 e1 b8 50 3d a1 30 41 bb 33 7e 14 bc 07 0d fb 3c
       0.050957564 -0.0029478448 -0.009063291 0.03064586
000250 2f c7 4f 3c cc cb 90 3b 40 7c 15 bc e0 25 00 3e
       0.012681766 0.0044188257 -0.009123862 0.12514448
000260 20 32 5d 3e 25 bc d3 3d 91 e1 45 3d 1c cb 66 3e
       0.21601152 0.1033862 0.04831082 0.22538418
000270 0e 6e e7 bd 50 f5 19 be 61 39 70 3e 07 d4 f5 bd
       -0.11300288 -0.15034986 0.23459388 -0.12003332
000280 0a aa ae bd e0 88 58 3c 29 c5 24 be b4 7d 88 3d
       -0.08528526 0.013216227 -0.16090836 0.06664601
000290 1e 65 99 3d 75 3b 0f be e0 86 50 be c2 c7 f3 bd
       0.0748999 -0.13987525 -0.2036395 -0.11903335
0002a0 87 5b 2e be 42 9a ac 3d e6 96 80 bd a3 9e 9e 3b
       -0.17027102 0.0842786 -0.062787816 0.0048406883
0002b0 db fb ae be eb 9b 8e 3d d2 53 02 3d 29 95 8b be
       -0.34176525 0.06963333 0.03181822 -0.27262238
0002c0 c4 fa a8 3d fd 15 15 3d 31 17 67 3d 31 94 0d bd
       0.08250955 0.036397923 0.0564186 -0.034565154
0002d0 a4 3a 09 3e 3e 7e 0a bd 4d 43 27 be a1 fc df 3c
       0.13401276 -0.0338118 -0.16334267 0.027342143
0002e0 5d 47 5c bc 6b 19 d0 3d 11 ef 3b 3b 42 56 55 bc
       -0.013444749 0.10161098 0.002867643 -0.013021054
0002f0 e2 c7 68 3e 6b ee ce bd 5b f3 9a be 0f 22 a2 be
       0.22732499 -0.10104068 -0.3026379 -0.3166661
000300 be de 36 be d6 46 08 be 7d 7c c6 bd 12 53 2a be
       -0.17858407 -0.13308272 -0.09691713 -0.16633251
000310 8d fc 1d be c9 d6 64 be fc 10 4a 3e 95 81 9c be
       -0.15428372 -0.22347559 0.19733042 -0.30567613
000320 5e e0 7f bd 77 b5 40 3e 04 53 2d bc 12 e2 99 bd
       -0.062469833 0.18819223 -0.0105788745 -0.075138226
000330 07 7f 7a 3d b2 60 a8 3c b6 b1 8e be b9 cf 80 bc
       0.0611563 0.02055392 -0.27869958 -0.01572405
000340 c9 50 bb 3d ec 47 06 3e 74 4d a6 bd 38 45 b4 bd
       0.09146268 0.13113374 -0.08120242 -0.08802265
000350 47 eb f0 3d e5 85 67 bc 6a c2 71 3d 3d fe 66 3e
       0.117636256 -0.014131044 0.0590233 0.22557922
000360 ec 85 f6 3d 2f e7 47 bb 21 01 b1 bd 31 28 32 be
       0.12037262 -0.0030502786 -0.086427934 -0.17398144
000370 cc e7 2e be cf e0 34 be 92 94 94 3d ee 87 3c be
       -0.17080611 -0.17663883 0.072549 -0.18411228
000380 3d 7a 67 3d db 83 0c be 61 ed 58 be 7e 34 99 be
       0.05651306 -0.13722174 -0.21184303 -0.2992286
000390 d5 c8 06 bd 9a d8 43 bd 0f 9d 97 be 68 ae 37 3e
       -0.032906372 -0.04781399 -0.29612014 0.17937624
0003a0 7e 7d 1e 3c cc ae bd bd d8 85 f7 bb ba ac 0d be
       0.009673474 -0.092618555 -0.007553797 -0.13835421
0003b0 e2 28 3d bc 6e 37 98 bd d6 17 61 3d 4d ea ee bd
       -0.011545392 -0.074324474 0.054954372 -0.11665783
0003c0 48 94 a3 bd d9 38 b5 3d 3c 58 16 bd e0 0d 2d 3e
       -0.07987267 0.088487335 -0.03670524 0.16899824
0003d0 79 6e ff bc 3d 49 b4 3d 8c 65 64 bd f5 07 0d be
       -0.031180607 0.088030316 -0.055760905 -0.13772567
0003e0 d8 2a 43 bd 9e d4 bf 3d c7 e6 f8 bd 61 30 d8 bd
       -0.04764828 0.093667254 -0.12153392 -0.105561025
0003f0 9a 2f 72 3d 0b e0 64 bc e2 bf 90 be e3 48 df bc
       0.059127428 -0.013969432 -0.28271395 -0.027256435

layer1.1.bn1.weight f4 [16]
000000 b5 c8 3a 3f 8b ed 5a 3f 2b b0 7b 3f 65 d2 7b 3f
       0.72962505 0.8551871 0.98315686 0.9836791
000010 ed a1 2f 3f 6e 05 46 3f 32 23 0b 3f 82 db 36 3f
       0.68606454 0.77352035 0.5435058 0.7142869
000020 ad 19 67 3f d0 b6 4a 3f 61 b1 3c 3f 61 9a 66 3f
       0.90273553 0.791852 0.7370816 0.90079314
000030 ea 90 69 3f 9f 73 82 3f 3a 25 3b 3f 4d de 66 3f
       0.91236746 1.0191535 0.7310368 0.90182954

layer1.1.bn1.bias f4 [16]
000000 25 51 c7 bc b3 b6 4d 3e 7a b2 48 be 02 70 9b bd
       -0.024330685 0.20089225 -0.19599333 -0.07589723
000010 fd 12 c9 bd 9b 35 f4 bd 7d 3a b9 3c 53 83 bd bd
       -0.09818075 -0.11924287 0.022610897 -0.09253564
000020 5d a0 9e be 4e db 96 3b 0a 48 30 be e6 06 a6 3c
       -0.30981722 0.00460378 -0.1721498 0.020266961
000030 e0 0a 93 be 3b af 66 3e d4 04 74 3c 22 3a 8a bd
       -0.28719234 0.22527783 0.014893729 -0.06749369

layer1.1.bn1.running_mean f4 [16]
000000 cf ca 65 3f 39 31 44 c0 a4 53 e1 bf b1 92 5c bf
       0.89762586 -3.0655043 -1.760365 -0.86161333
000010 51 83 af 3e 29 7a 1b c0 eb 7a 20 bf 87 21 28 bf
       0.34279874 -2.429331 -0.6268756 -0.6567616
000020 7d 2c 46 40 d5 1e e5 bf 0b eb d5 bf 90 d1 a0 3d
       3.0964653 -1.7900034 -1.6712354 0.07852471
000030 ff 16 c0 bf d6 26 65 bf d8 5b 5d bf 02 26 7e bd
       -1.5007018 -0.89512384 -0.8646827 -0.062047966

layer1.1.bn1.running_var f4 [16]
000000 f3 57 24 40 29 2e 4e 40 a4 6b 8d 40 2b 69 96 40
       2.567868 3.2215674 4.4193897 4.700338
000010 b5 48 31 40 a2 4e 23 40 06 9e d3 3f 75 09 01 40
       2.7700627 2.5516744 1.65326 2.0162022
000020 09 60 50 40 72 e9 4b 40 f9 be 38 40 ba a9 94 40
       3.2558615 3.1861234 2.886656 4.6457186
000030 b2 6f 1f 40 02 3f 81 40 54 bf e9 3f 14 ae c5 40
       2.4911923 4.0389414 1.8261514 6.1775

layer1.1.conv2.weight f4 [16, 16, 3, 3]
000000 44 b9 a8 bb 70 04 15 be ca b1 77 bd d3 e6 cf bd
       -0.0051490385 -0.14552474 -0.060472287 -0.10151448
000010 7c 78 91 bd da 0a 57 3d 7e 0f da 3d 3e 8a cc bd
       -0.07103059 0.052500583 0.10647486 -0.09987305
000020 4e c6 9d 3d 91 26 29 be 16 06 59 bc e6 f5 fa 3c
       0.07703839 -0.16518618 -0.01324608 0.030634832
000030 e7 08 a2 bd 74 e6 bc bd e6 b4 51 3c f6 3a 9b 3d
       -0.07911854 -0.09223643 0.012799477 0.07579605
000040 8a 15 ea bd 3e 0b 19 3e c4 21 0d bd 0a 90 56 3d
       -0.114298895 0.14945695 -0.03445603 0.05238346
000050 c4 ad 33 3e 2e 99 17 be c7 a7 96 3d 36 3b 1f 3e
       0.17546755 -0.14804527 0.0735622 0.15549931
000060 ca 5c 87 bc ff 6e 6b 3d ed fd 97 3d 09 b2 fc bd
       -0.016523737 0.0574789 0.074214794 -0.12338645
000070 e2 d4 48 be 56 f7 fc bd 5b 8f 65 be 63 8a a6 be
       -0.19612458 -0.12351863 -0.22417967 -0.32527456
000080 5e 8c cf be 37 4d c3 bd db e8 d2 be fb 3e 93 be
       -0.4053678 -0.09536212 -0.4119328 -0.28758988
000090 dd 13 b7 3d b2 1c 6c 3e 2c 25 29 bd dc 5b 03 bd
       0.089393355 0.23057821 -0.041295215 -0.032070026
0000a0 8d da f9 3d 64 53 a8 3d a8 be 87 3d 89 77 2d 3d
       0.121998884 0.082190305 0.06628162 0.042350326
0000b0 9b df 1e 3e 58 0d 47 bd 2f 1d 26 be 97 c1 32 3d
       0.15514986 -0.04859671 -0.1622207 0.043641653
0000c0 be 86 52 bd 43 99 4e bd f9 40 53 be 55 91 3e bd
       -0.05139803 -0.05043913 -0.20630254 -0.04652532
0000d0 fc ed 5c bd ce 3f f5 3c 50 da ba 3c f3 29 1a 3e
       -0.053937897 0.029937651 0.022809178 0.15055065
0000e0 b3 c0 13 3e 32 86 53 bd 27 97 eb bd 7e 9f 28 be
       0.14428978 -0.05164165 -0.115034394 -0.16467091
0000f0 1c ec bb 3c b5 89 85 bd 61 51 85 bd df 68 0d be
       0.022939734 -0.06520406 -0.065096624 -0.13809536
000100 ac 91 96 bd 59 5e d8 bd 84 6d 8a 3c 2e 94 cb bd
       -0.073520035 -0.105648704 0.016897924 -0.099403724
000110 22 31 eb bd a7 1b 04 3e 8c ef 93 bd 1e f8 e5 3c
       -0.11483981 0.12901174 -0.07223424 0.028072413
000120 90 57 48 3e 06 44 d8 bd da f8 f2 3d be 7f 26 be
       0.19564652 -0.105598494 0.11863871 -0.16259667
000130 2d ed 33 bd 9f 4a 52 bc f6 37 22 3a d0 5c 59 bd
       -0.04392736 -0.012835174 0.00061881484 -0.05306703
000140 b4 52 f1 bd 10 27 21 3d 5e 13 21 bd d8 6e 42 bc
       -0.117833525 0.039343894 -0.03932511 -0.0118672475
000150 bb 9a 52 3d 5f 4f 84 bd 4a c3 c8 3d 23 52 6d bd
       0.051417094 -0.06460451 0.098028734 -0.05793966
000160 70 4d ec bc 51 3c 09 be 73 a9 ca bc 25 ef ee bc
       -0.028845519 -0.13401915 -0.024739003 -0.029166767
000170 93 ee d8 bc 39 93 2b be 97 3f 12 3c 13 cf 23 3d
       -0.026480949 -0.1675538 0.008926294 0.039992403
000180 d1 ea 22 3a 9b 16 fc bd 54 f3 9e bd f4 46 b9 3c
       0.00062148 -0.12308999 -0.07761255 0.02261684
000190 59 1b 10 3d 7c f2 fa bb d6 31 ec 3d 25 0d b1 3d
       0.03518233 -0.007658301 0.11532943 0.08645085
0001a0 b5 ef fa bc fa f8 0e bd 56 08 98 3e ca 7c db 3d
       -0.03063188 -0.03490541 0.2969386 0.10717161
0001b0 c1 78 8d bd 62 aa 63 be 8d ba fd bd 82 50 b3 3c
       -0.069077976 -0.22232965 -0.12389097 0.021888975
0001c0 29 3b 77 bd 26 42 6e 3d 70 7f 9a bd af 79 64 3e
       -0.060359154 0.058168553 -0.07543838 0.22312044
0001d0 36 50 90 3e 15 e0 f0 3a b5 8f 02 bd af f9 1b bc
       0.28186196 0.0018377329 -0.03187533 -0.009519978
0001e0 92 9d 4a 3e 6e b1 b9 bd d3 b1 3c be 5f 0a 98 3e
       0.19786671 -0.09067045 -0.1842721 0.29695413
0001f0 97 b8 8a 3d a4 b9 68 3d a8 8b 3d bb e3 68 91 3c
       0.06773489 0.056817666 -0.0028922353 0.01775021
000200 71 2b 08 3c d5 5e 5c be 11 dd a0 3d 29 1f a8 3d
       0.0083111385 -0.2152055 0.07854665 0.08209068
000210 ad 2b 5c 3d ab bb 40 bd da 51 0c bd 6d 08 f0 bb
       0.05375259 -0.047053974 -0.034257747 -0.007325223
000220 96 f0 f7 bd b5 ec 5b be f6 72 2d be 3e 10 e2 bc
       -0.12106435 -0.21477015 -0.16938385 -0.027595636
000230 63 3d 73 be 6a 83 30 3b 27 55 19 be d3 0c 77 be
       -0.23753886 0.0026933798 -0.1497389 -0.24125986
000240 46 83 0d be 2d d2 d2 be 99 07 6e be a6 a5 af bd
       -0.13819608 -0.41175976 -0.23245086 -0.08576517
000250 07 60 27 be 17 31 8e be 90 a7 9c bd 73 ff e6 bd
       -0.16345225 -0.27771828 -0.076491475 -0.11279192
000260 3b a6 6b bd 3a b5 35 bc e8 ce 86 be 81 6f 9c be
       -0.057531577 -0.011090571 -0.26329732 -0.3055382
000270 09 7d c0 3d 4e ac 3b 3e 6f 99 43 be 78 5c 20 3e
       0.093988486 0.18327448 -0.19101499 0.15660274
000280 11 72 f7 3d b2 a2 e8 3d d8 58 63 3d 1c e5 0f 3e
       0.12082303 0.11359157 0.05550465 0.14052242
000290 9c ee 1a bd bc 82 c3 3d 7e 18 fe 3c e8 24 d2 3d
       -0.037825212 0.0954642 0.031017538 0.102609456
0002a0 71 61 37 bc 60 7d e8 3d 4f ee 32 bd 2f 20 4b 3c
       -0.011192665 0.113520384 -0.0436843 0.01239781
0002b0 67 fe 87 3d ef 10 87 3d 24 af 16 3e e8 b0 47 3d
       0.0664032 0.06595027 0.14715248 0.048752695
0002c0 f2 98 14 bd 6e 67 10 3c 0d e8 9a 3d c1 57 d8 3d
       -0.036278673 0.008813722 0.075637914 0.10563613
0002d0 43 e7 bb bd f3 98 17 be 4c 5d 16 be d1 17 48 bd
       -0.09174969 -0.14804439 -0.14684027 -0.048850838
0002e0 92 36 95 bd 04 69 d6 bc fe 02 0c be cb 6a 86 bd
       -0.07285799 -0.026173122 -0.13673016 -0.06563338
0002f0 c4 4a 2b be 0a 5e a5 bd ce e9 af be b6 fc 86 be
       -0.1672774 -0.08074577 -0.34358066 -0.26364678
000300 59 13 b1 bd 63 7b 11 be f9 27 d3 bd 0a 30 82 3c
       -0.086462684 -0.14207225 -0.103103586 0.015892047
000310 ad 38 20 3d 48 4a 28 be 43 df 0d 3d c9 da 0f 3d
       0.03911655 -0.16434586 0.034636747 0.03512076
000320 12 ea 33 3e 87 e3 4b 3c f2 66 cb 3c 56 57 cb 3d
       0.1756976 0.012444383 0.024829362 0.099287674
000330 86 d6 59 be c3 49 6b bd 36 f6 56 3c 47 dc 81 3b
       -0.2127324 -0.05744339 0.013120225 0.0039630267
000340 6e e3 dd 3d 03 dd 71 3d e3 31 43 bc 0c 43 fb 3b
       0.108343944 0.059048664 -0.011913749 0.0076679047
000350 a6 02 4c 3e e5 8a ea bd ed ef 82 ba 32 d0 41 bb
       0.19922885 -0.11452273 -0.0009989716 -0.0029573557
000360 49 df da 3d 4e fd 3c 3e 26 57 c9 bd 37 5f 96 bd
       0.106871195 0.18456003 -0.09831075 -0.073423795
000370 cc a4 e6 3d 52 a3 81 3d 31 08 03 bc d5 3c 8a bd
       0.11261901 0.06329979 -0.007997558 -0.06749884
000380 42 3a 74 3d 06 27 62 be 54 de a4 be 18 d3 93 bd
       0.05962587 -0.22085199 -0.32200873 -0.07217997
000390 1d 82 ef bb a3 9c 40 be 44 08 3e be 8f 9b 03 3e
       -0.007309212 -0.18809752 -0.1855784 0.1285231
0003a0 c4 0e 6c 3d 14 7f ac 3c d1 b0 9a 3d fa b4 8b bd
       0.05763127 0.02105669 0.07553256 -0.06821628
0003b0 f6 32 e2 3a 2c 53 c7 bd 55 61 a4 bd 40 73 dc bd
       0.0017257619 -0.09732661 -0.08026377 -0.1076417
0003c0 1c 4a d4 3b c9 e7 af bc 79 e7 89 bd cd 91 f9 3d
       0.006478561 -0.021472828 -0.06733603 0.121860124
0003d0 94 55 01 3b 47 cc f0 3d 63 2a bd 3d 99 f4 8b 3d
       0.0019734846 0.11757713 0.092366 0.06833763
0003e0 fa 9f 50 3c 63 7e 17 bd 17 4e e8 bd ee 68 ac bd
       0.012733454 -0.036985766 -0.113430195 -0.08418451
0003f0 a3 4f 32 3e 5e c8 07 3e df 57 6a 3d 08 62 26 3d
       0.17413191 0.13260028 0.057212707 0.040620834

layer1.1.bn2.weight f4 [16]
000000 70 e0 91 3f 66 ab 73 3f 64 97 37 3f 16 61 73 3f
       1.1396618 0.9518341 0.7171538 0.95070016
000010 b5 a8 24 3f 3f 1c 89 3f 8d b4 54 3f b8 6c 3f 3f
       0.64319927 1.0711745 0.83088 0.74775267
000020 01 c9 65 3f b8 e0 4c 3f 46 e1 3e 3f 4c e7 32 3f
       0.8975983 0.80030394 0.7456249 0.6988418
000030 0c af b0 3f 75 84 4c 3f 17 0f 28 3f 76 eb 93 3f
       1.380342 0.79889613 0.65648025 1.1556232

layer1.1.bn2.bias f4 [16]
000000 37 d3 48 3e 2b 71 f0 bb a9 48 a1 bc 70 ea d2 be
       0.19611822 -0.0073377094 -0.019687967 -0.41194487
000010 6f 6b 13 3e c5 e0 02 bf 04 c0 0d 3d 4b 8c 41 bd
       0.14396451 -0.5112422 0.03460695 -0.047252934
000020 9c b5 a0 3e 53 f7 05 3e ff ea bb 3d 87 98 04 3e
       0.31388557 0.13082628 0.09175681 0.1294881
000030 28 ca d8 be 91 55 13 3e 80 8b 80 3e 04 e4 4d bd
       -0.42341733 0.1438811 0.2510643 -0.05026628

layer1.1.bn2.running_mean f4 [16]
000000 e0 59 7b bf 83 f5 8b be 14 42 14 bf d1 44 42 bf
       -0.98184013 -0.27335748 -0.5791333 -0.75886256
000010 68 08 4f be 6a e9 6e bf 71 92 6a 3f fc 71 c8 be
       -0.2021805 -0.9332491 0.916297 -0.39149463
000020 7f b0 1c 3f d8 d6 8a 3f 07 9a 72 3d b8 e9 0e 3f
       0.6120681 1.0846815 0.059228923 0.55825377
000030 10 de f1 bd f6 a9 94 3d bd 88 bf 3e 5b 32 75 3f
       -0.11809933 0.0725898 0.3740901 0.9577996

layer1.1.bn2.running_var f4 [16]
000000 38 6f 5c 3f 67 c7 5f 3f 77 46 38 3f 9c c1 21 3f
       0.86107206 0.8741364 0.7198252 0.6318605
000010 d2 28 43 3f c9 6a 35 3f f7 72 9d 3f 60 86 17 3f
       0.7623416 0.70866066 1.230071 0.59189415
000020 76 2e 8c 3f 6b 94 8a 3f c8 e5 93 3f dc 92 73 3f
       1.0951679 1.0826544 1.1554499 0.95145965
000030 4e 26 f0 3f 4b 1a 85 3f 61 cb 28 3f b8 3d 80 3f
       1.876169 1.0398649 0.6593533 1.0018835
