Result/teacher/84.48_resnet8_paik_20_128 # 5_best.pth.tar (torch_old, 641092 bytes, 76 tensors)

conv1.weight f4 [16, 3, 3, 3]
00000000: 2d3e 3ebe 511a 6fbf aafb 07bf c92b 3bbd
00000010: 9151 8a3f c397 0cbc 5cc6 b93e 320a 4a3d
00000020: f2ca 1f3e 1fca 59be 0477 10bf ebcc 75be
00000030: e312 26be 89bd b03f 5495 503e 405d 43be
00000040: 1eb8 28be 05b7 8e3c ba43 ed3d 2a25 9bbe
00000050: 38b0 8dbe 972e c4bd d7c0 753f dbdd 0abe
00000060: 54e3 1c3c 971a 3cbe 8515 a8bd f4db 36be
00000070: 9fc3 f9bc 7b32 303e 93d1 4ebe fc5d 9cbe
00000080: f389 d93d 8844 92be e001 963d f059 103d
00000090: a4e1 ddbd 65da da3c 6e96 a13e 399f afbd
000000a0: 23c6 d4bd dca5 5abd 2603 28bd 8d0c f5bc
000000b0: 20e3 193c 8491 d8bc 4421 af3e a85b d53e
000000c0: d3c3 373d 86cd 963e 30f7 2f3e 25c7 0b3e
000000d0: 6098 c03c 6899 ca3d ee69 05be b589 08bd
000000e0: 9d1e 343f 89c8 cebe 54a6 07bc cc19 fb3e
000000f0: 7a8c 76bf b4b6 17bf 944d fb3e 9334 253f
00000100: 0b89 27be 7a85 00bf 6add 573f 46de 163f
00000110: 8115 4dbe 4383 3abe 51e0 5cbe 4591 1bbe
00000120: 970d 9cbe 3209 5abe 6e76 bfbe 95b9 0d3f
00000130: c21c 083f c39b c9be 1f5e e53d 4290 083e
00000140: f62c 97bd 9870 603e 4983 09bf bf0a e4bd
00000150: 4d3f 81bd 0565 2cbf 48bc 97be 2b95 033d
00000160: 1e15 08bf 8117 f93d 1dd0 993d ca01 42be
00000170: b843 c8bd 3616 213e 3928 12be 77f7 6a3d
00000180: 66b2 843d b6db 8fbe 4a16 923d 328f c33e
00000190: c4c0 763e d520 c7bd bfc0 353f ab44 043f
000001a0: f0bf 3d3e 78f7 a33e a03f 983d 9caa b0bc
000001b0: 2a1e cc3e 1069 da3e b3ae b63e 5110 eb3e
000001c0: 328c 5dbd 78ee 7ebd d2c6 a3be 37e4 45bf
000001d0: 5da6 e4be 728c 883d 5ef4 84be 92d1 31be
000001e0: 1942 f13e 357a 05bd a4ef b7bc 2d43 233e
000001f0: 98ae d7be d495 b43d a0e1 9cbe 050e 22bf
00000200: 3cd4 38bd b55e 413e 36f0 333e 282a 9f3e
00000210: 9ba0 46bd 98a7 f8ba b6b3 d43e 443d ab3d
00000220: a0ad 88be d304 0e3e a8bf 9abe 7756 1ebf
00000230: 6877 53be b0ae 9c3e 6faa 27be a269 953e
00000240: 1386 d13e bd47 98be fafc c83d d966 8fbe
00000250: 7a61 d4be 8e1a 14be 741e 9e3d d2a3 7dbe
00000260: 74d2 ee3d 698e 103e 2d4b fcbd 31a1 a63e
00000270: c5c3 1ebe bb0d b4be 736a 16bd 0ec9 be3d
00000280: 1193 323e 4bec 973d 7f56 21be bc73 11be
00000290: 2d07 c5bd 9d8a 373f 1ba2 abbf bebc 293f
000002a0: c1fb 0bbe 0c05 413f dcae 26be bef7 723d
000002b0: 5b2c 5dbe 74c4 973e ff54 003f e3ad 97bf
000002c0: f514 283f 3355 c0be 9151 d13e 5f5b b0be
000002d0: 5ab2 b2bd 14f7 f73e e667 c33d 0881 d73e
000002e0: d083 78bf 5986 d13e cfe2 20be fa7b 373e
000002f0: f23c 2abe f09b fcbd 0e10 713e 6ab7 cc3e
00000300: c51b afbe 44c0 dc3e 5e0d 553e c4f0 edbe
00000310: a7ac 4cbd d05b 95be 6d06 66bf c80d 413e
00000320: ccac 233f a1c7 1abf 7347 143e 7e83 8e3e
00000330: 808c 65be d118 003f e4ee 9a3d 9993 0fbf
00000340: 13e8 8dbd e5b3 9f3e 77fa b8be c95e 4f3e
00000350: 1e40 63be 42bd 2b3d c62b 0c3f 19a7 22bd
00000360: af31 1ebf 9398 063e 0656 853e 159a 4d3f
00000370: f356 42bf a98f 80be ea83 203f 3b76 2dbf
00000380: cdf9 b43e 0e97 4fbd 8aac ab3e 5524 ce3d
00000390: 3d4d ac3f 7dd7 14bf 9ded 16bf 4794 893e
000003a0: 4072 35bf 61ee b33d e952 b6be ebab e63d
000003b0: 6136 823d 05f8 823f f1f2 95be 4698 fabe
000003c0: ffbc 113f cab1 0cbf a627 45be d916 053f
000003d0: 0760 703e 1f85 1cbd 6c02 103f 64ef 783e
000003e0: 0bd0 fabd 4346 2abe a435 12bf bb85 62bf
000003f0: 88dc dabe d0c5 b6be ab99 3abe bdc9 df3e
-0.18578406 -0.9339953 -0.53118384 -0.045696054 1.0806142 -0.008581105 0.3628415 0.04932613
0.15604761 -0.2126851 -0.56431603 -0.24003951 -0.16218142 1.3807842 0.20369464 -0.19078541
-0.16476485 0.017421255 0.115851834 -0.3030179 -0.27673507 -0.09579199 0.95997375 -0.13561194
0.009575684 -0.18369518 -0.082072295 -0.17857343 -0.030488787 0.17206757 -0.20197134 -0.30540454
0.10622015 -0.2856791 0.073245764 0.03524202 -0.10834053 0.026715467 0.3156008 -0.08575291
-0.10389354 -0.053380832 -0.041018628 -0.029913211 0.00939253 -0.026436575 0.34205067 0.4167149
0.044864487 0.29453677 0.17184138 0.13650186 0.023510158 0.09892541 -0.1302869 -0.033334453
0.7035921 -0.4038737 -0.008279402 0.4904312 -0.963081 -0.5926316 0.49082625 0.64533347
-0.16360871 -0.5020367 0.84322226 0.5893291 -0.20027734 -0.18214135 -0.21569945 -0.15192135
-0.30479118 -0.2129257 -0.37395042 0.553613 0.5316888 -0.3937665 0.11199593 0.1333628
-0.073816225 0.21917951 -0.5371595 -0.11134862 -0.06310902 -0.67341644 -0.29635835 0.03212468
-0.5315722 0.12162686 0.075103976 -0.18945995 -0.09778541 0.15731129 -0.14273156 0.057364907
0.06479339 -0.28097314 0.071331576 0.38195187 0.24096972 -0.09723059 0.7099723 0.5166728
0.1853025 0.3202474 0.074340105 -0.021565728 0.39866763 0.4265828 0.3568016 0.45910886
-0.05408878 -0.06223914 -0.31987625 -0.77301353 -0.44658175 0.06667413 -0.25967687 -0.17365101
0.4712074 -0.03258725 -0.022453137 0.15943594 -0.42125392 0.0881764 -0.30640888 -0.6330264
-0.045124277 0.18883784 0.17572102 0.3108685 -0.04849301 -0.0018970845 0.4154336 0.08361295
-0.26694965 0.13869028 -0.30224347 -0.61850685 -0.20651019 0.30602026 -0.16373609 0.29182154
0.40922603 -0.29742232 0.098138765 -0.28008154 -0.4148062 -0.14463255 0.07720652 -0.24769524
0.116612345 0.14116825 -0.12319026 0.32544854 -0.15504368 -0.35166726 -0.03672261 0.09315692
0.17438914 0.07418116 -0.15755652 -0.14204305 -0.09620509 0.7169588 -1.3408846 0.6630362
-0.13670255 0.75398326 -0.16277641 0.059318297 -0.21598952 0.2964207 0.50129694 -1.1849941
0.6565698 -0.37565002 0.40882543 -0.3444471 -0.08725424 0.48430693 0.095413014 0.4209063
-0.9707613 0.40922812 -0.1571152 0.17918387 -0.16624811 -0.1233443 0.2354128 0.39983684
-0.34200874 0.43115437 0.2080588 -0.46472752 -0.04996934 -0.2917161 -0.89853555 0.18852913
0.6393554 -0.6046086 0.1448038 0.27834696 -0.22416878 0.50037867 0.07565096 -0.5608459
-0.0692903 0.31191936 -0.3612859 0.20251001 -0.22192428 0.041928537 0.5475429 -0.039710138
-0.6179456 0.1314414 0.26042193 0.80313236 -0.75913924 -0.25109604 0.62701285 -0.6775853
0.35346833 -0.050681166 0.33530074 0.100655235 1.3461071 -0.5814131 -0.5895632 0.2687094
-0.70877457 0.087857015 -0.3561013 0.112632595 0.06358028 1.023194 -0.29286912 -0.489443
0.5692901 -0.54958785 -0.19253406 0.5198799 0.23474132 -0.03821289 0.56253695 0.2431007
-0.12246712 -0.16628365 -0.571131 -0.88485307 -0.42746377 -0.35697794 -0.18222682 0.43708602

bn1.weight f4 [16]
00000000: 0168 623f b9c4 e73e 3a45 0b3f 8908 b33e
00000010: 06be 093f b99a 933f 0f3e 7b3f 2ec6 353f
00000020: 4edc 753f f11c fc3e d406 123f 8d1c ce3e
00000030: a68f 293f 3454 223f 8974 f73e 355f ea3e
0.8843995 0.45267275 0.54402506 0.3496745 0.5380558 1.1531593 0.9814157 0.71005523
0.96039283 0.4924083 0.5704167 0.40256158 0.66234815 0.63409734 0.48331097 0.45775762

bn1.bias f4 [16]
00000000: a15c 823e 0dd6 6dbe e37d ae3e 5506 883e
00000010: 2bd0 cfbd 64e8 32bf ccd2 6b3f 2496 873e
00000020: 6a22 323f 8059 753e 2850 06be 2fb8 4fbc
00000030: 1438 e3bd 5311 da3d fbdf b8bb 6bee da3d
0.25461295 -0.23226185 0.3408042 0.2656733 -0.10147127 -0.6988585 0.92118526 0.26481736
0.6958376 0.23959923 -0.13116515 -0.01267819 -0.110946804 0.106478356 -0.005641935 0.10690006

bn1.running_mean f4 [16]
00000000: 375f 0cbe c918 96bd c6e1 a5bd 55da 513e
00000010: a98c fd3c bc33 f33e a43d 4d3d ef37 5fbd
00000020: fc71 a73d fffc a2bd 15b3 e63d 44e6 63be
00000030: 9429 d0bc c6c1 533e 8083 8c3d d2fc a53c
-0.13708197 -0.07328946 -0.080997035 0.20493443 0.030950861 0.47500408 0.050107613 -0.0544967
0.08176038 -0.079584114 0.11264626 -0.22255808 -0.025410451 0.20679387 0.06861019 0.020262156

bn1.running_var f4 [16]
00000000: 971b 4740 3f63 ab3f 7329 853f 8edc 0640
00000010: 7ba5 753f 2fce 4240 912f 523f cde9 6340
00000020: 4318 7640 a120 b43f d382 fe3f 8e46 5c3f
00000030: 5b4e b13f 6f1c 8340 f239 773f e0f8 6e3f
3.111059 1.3389663 1.0403274 2.1072116 0.9595563 3.0438344 0.8210383 3.561145
3.8452308 1.4072458 1.9883674 0.8604516 1.3852037 4.097221 0.9657279 0.93348503

layer1.0.conv1.weight f4 [16, 16, 3, 3]
00000000: 9bcc 28bc d992 893c 3c20 30be 9109 f1bd
00000010: e575 9c3e 29a2 5ebe a05d adbe 20db a93e
00000020: cabc 38be 9af8 583d a87d 0abe 91e7 483c
00000030: 81ed 663d fc22 08bd 380f 493e 75d9 c93d
00000040: 56bf 6dbe 0214 8d3e e8fc 9abd 22e5 423e
00000050: cc91 71bd c58f 7bbe 8cb7 2d3e 6f8f ddbd
00000060: 63fe b43d 9064 12bd b55d 6fbe b51b 0b3e
00000070: aa8e 9abe 0930 9d3e d08c 74bd be06 6bbe
00000080: 2fe3 6e3d 6332 cf3d 4459 d2bd 6c57 6c3e
00000090: 97b9 19bd ceaf 363e 436e ae3c 86a2 09be
000000a0: 018e 8ebd 4fe0 4bbc 2195 10bd 4d33 0a3e
000000b0: 827c 4f3c 6f40 043e eb70 e8bb de02 9b3d
000000c0: f83e 323b bf8a 70bd 6f23 be3c da7a ccbc
000000d0: eb9f a0be 583b d33c ae1f 89bd c6bc c3bd
000000e0: fda3 90bd 5c9b b13e cf21 68bf a644 3f3f
000000f0: 7bb5 063f 5f61 14bf 6b39 103e 7ecc 913e
00000100: 47f4 803d fe0b 64be ac8f 11be 20f5 51be
00000110: b9ca d1bd f770 43bd b1e9 a93e 6c9e 40be
00000120: cf65 48be 1792 a7be 0b3b f93e 8c7a 4dbd
00000130: 3569 1ebf fc8c dd3e 2997 693e c252 e7be
00000140: 5c18 8a3e d1a7 99bd 8726 663d 8b69 463d
00000150: d144 673d 7110 adbd c0a6 073e 7105 263e
00000160: 1b4d 113e 1cf6 06be f0c0 90bc 9a7c 203e
00000170: 0174 60bd 7dec a9bd 84f0 413e cef7 843d
00000180: 0147 76be fb63 073b 9bad 773d c449 663e
00000190: e495 43be d6a8 71be e75d 2e3e d4a8 8bbc
000001a0: 7200 40bd fb0e 273e 0786 e2bd 0acd 633d
000001b0: d4bd 953e 8c6a 103e 4284 d03c d61f 683e
000001c0: be1f 2e3e 5262 673d 0a40 4cbe ec6c 49bd
000001d0: 1459 ae3d 6c39 07bd 04cb e53c 47a4 66bd
000001e0: 8dc7 663e 9384 d3bc 15c2 c8bd 1219 163d
000001f0: 1c94 3dbd 575b debd a3e0 96bc e065 363e
00000200: aeb1 d63d 494a 7f3d 695e 5fbe 2662 153e
00000210: f6e7 313d 248a 6ebe a3c8 80bb cd12 103c
00000220: 553f 56bc ed33 77bd d68c 673e 50d5 293d
00000230: 143b 7fbe f9bd 693e 593d 373b 5dc5 5dbe
00000240: 3887 50bd 1ec1 b0bc e9e0 3b3b 73ea 893e
00000250: a099 3bbe e962 a7bc 4c3e 88bf 7dbf 2f3f
00000260: 987d 6b3e 3f0c 14be da15 b9be ae91 f23c
00000270: b98f 993d 8b36 483e c594 dd3d cdb4 fe3d
00000280: 7c23 023c 76fe d5ba 6642 01be cca1 acbd
00000290: 85ae 003e 2373 523d acfd 86bd 12bb 07be
000002a0: 61ac 5f3d ab25 24be 3f17 0d3c a938 9bbd
000002b0: 5157 513e 2017 59be 3466 1f3e d657 ae3d
000002c0: a211 03be b868 1e3e 1b78 6f3d e953 9dbe
000002d0: da84 50be d2ec 2ebe 1017 22be fd82 933c
000002e0: bb9c b13d dcd6 05be d404 2fbd bb95 89bc
000002f0: fe6e a43c d988 c4bd 8d9f d6bd efc1 4a3d
00000300: f714 cabd 0b7e f53d 5755 0dbe 676a 843d
00000310: 0f26 9ebd 310a 43bd 1852 473e 6f67 9dbe
00000320: ef56 e03d b94f 92bf b4bc 493f 522d 4abe
00000330: 1504 223f 0953 bbbe b1c9 223e b4f0 923c
00000340: 19e4 bcbc 8d21 e33e 06f6 273c 4a8c 033e
00000350: 002f 76be 9fdf 81be 1baa 11be 667c adbe
00000360: a6a3 bdbe 9ad7 233e b00c 963d 8a7b 2cbc
00000370: c550 c23e 2f4b 713d bbfc 9e3e 7010 39bf
00000380: c69e 103e bb08 ad3c 5b6b 1a3e 23ee c63d
00000390: 885a c73d 1c30 57bc 9631 46be 79ac 0d3e
000003a0: f9eb 3abe 532f 9abc 0984 58be 41fe 903d
000003b0: 534a 0dbe b45b 57be 7f37 f43d 0912 f2bc
000003c0: 79ab f73d a055 9ebd 0578 c9bd 2f91 9dbe
000003d0: 360e 95be 592a a13c cb0b cebd 271e 313d
000003e0: 9065 9d3c a553 b93d 3361 803e cdb0 923e
000003f0: f047 033e a80f adbd 83cb 37be 1f21 6abd
-0.010302688 0.016793655 -0.17199796 -0.11769403 0.30558696 -0.21741547 -0.33860493 0.33174992
-0.18040767 0.05297146 -0.13524497 0.012262241 0.056378845 -0.03323649 0.19634712 0.0985593
-0.2321752 0.27554327 -0.07567769 0.1903272 -0.058976933 -0.24566562 0.16964549 -0.108183734
0.08837583 -0.035740435 -0.2337559 0.13584788 -0.3018697 0.3070071 -0.0597046 -0.2295179
0.058322128 0.101170324 -0.10270932 0.23080224 -0.037530508 0.17840502 0.021292811 -0.13440904
-0.06960679 -0.012443616 -0.03529847 0.13496132 0.012663962 0.12915204 -0.007093539 0.07568906
0.0027198177 -0.05872607 0.023210255 -0.024960924 -0.31372008 0.025785133 -0.066954955 -0.0955749
-0.07062528 0.34688842 -0.9067659 0.74714124 0.5262067 -0.57961076 0.14084403 0.28476328
0.06296592 -0.222702 -0.14214963 -0.20503664 -0.102437444 -0.047715154 0.33186105 -0.18810433
-0.19570087 -0.32728645 0.4867786 -0.050165698 -0.61879283 0.43271625 0.2281157 -0.45180327
0.2697171 -0.075027116 0.056189086 0.048440497 0.056462113 -0.084504016 0.13247204 0.16213013
0.1418957 -0.13179821 -0.017670125 0.15672532 -0.05479813 -0.0829706 0.18939406 0.064925775
-0.24050523 0.0020658958 0.060468297 0.22489077 -0.19100147 -0.23599562 0.17028008 -0.017048277
-0.046875425 0.16314308 -0.1106072 0.055615462 0.2924639 0.14103144 0.02545369 0.22668394
0.17004296 0.05649025 -0.19946304 -0.04917614 0.08513084 -0.033013746 0.028050907 -0.05630901
0.2253706 -0.025820052 -0.09802643 0.036645003 -0.046283826 -0.108572654 -0.018417662 0.178123
0.104831085 0.062326703 -0.21813358 0.14588222 0.043434106 -0.23294884 -0.0039301678 0.008793545
-0.013076623 -0.060352255 0.22612318 0.041463196 -0.2492488 0.22826375 0.002796015 -0.2165732
-0.050910205 -0.02157646 0.0028667992 0.26936683 -0.18320322 -0.020432906 -1.0644011 0.6865156
0.22997129 -0.14457797 -0.36149484 0.029610481 0.07498116 0.19552056 0.10819391 0.12436829
0.00794303 -0.0016326446 -0.12622985 -0.08429298 0.12566574 0.051379334 -0.06591353 -0.13254955
0.054607753 -0.16029994 0.008611499 -0.075791664 0.20443465 -0.21200228 0.15566331 0.08512847
-0.12799695 0.15469635 0.05846415 -0.3072808 -0.20363179 -0.17082527 -0.1582911 0.018006796
0.08672472 -0.13070244 -0.042729214 -0.01679503 0.020072456 -0.09596414 -0.10479651 0.049501356
-0.0986728 0.119869314 -0.13802086 0.06465607 -0.07722103 -0.04761714 0.1946491 -0.30742976
0.10954081 -1.143058 0.78803563 -0.19743851 0.6328748 -0.36586788 0.15897252 0.017937042
-0.023057984 0.44361535 0.010251528 0.12846485 -0.24041367 -0.25365922 -0.14225046 -0.3388397
-0.37038916 0.16000214 0.07326639 -0.010527501 0.37952247 0.05890959 0.31052193 -0.72290707
0.14123067 0.021122327 0.15080015 0.0971339 0.09734064 -0.013134029 -0.19354853 0.13835324
-0.18254079 -0.018821394 -0.21144117 0.07079745 -0.13797884 -0.21031076 0.119246475 -0.029549615
0.12093253 -0.077311754 -0.09837345 -0.3077483 -0.29112405 0.019673513 -0.10060843 0.043241646
0.019213468 0.09049157 0.25074157 0.28650513 0.1282041 -0.08450252 -0.17948727 -0.057160493

layer1.0.bn1.weight f4 [16]
00000000: f6f5 9a3f b56d 7f3f 8027 7a3f 0b01 743f
00000010: 5b0c 933f 79fe 563f cd0f 573f f557 733f
00000020: ed0a 6c3f d1fb 9c3f 6463 433f 9ec2 4e3f
00000030: 7c7a 333f 0814 7f3f 340b 823f adb7 433f
1.2106311 0.99776775 0.9771652 0.9531409 1.1488146 0.83982044 0.84008485 0.95056087
0.9220417 1.2264348 0.76323533 0.8076571 0.7010877 0.9963994 1.0159669 0.7645214

layer1.0.bn1.bias f4 [16]
00000000: 4deb b6bd e29f 48be 6816 d4bd 538f 28be
00000010: 23cd fe3d a660 20bd 9432 83be bb81 13bc
00000020: 54ca 95be 8864 b83c 5cdb 95bd ae51 16be
00000030: c6ed 483e d2ba a7be 418e 74be 4aad 41be
-0.08931599 -0.1959224 -0.10355836 -0.16460924 0.124414705 -0.03915467 -0.25624526 -0.009003098
-0.29255927 0.022508875 -0.0731723 -0.14679596 0.19621953 -0.3275972 -0.2388239 -0.18913761

layer1.0.bn1.running_mean f4 [16]
00000000: 456c f4be 2b7c 30bf 7f51 94bf fc01 c1bf
00000010: 468d f7be da2e 803e 27fe e2be 0778 3cbe
00000020: 9a3e c03e 26d8 40be 65af 183e 2f09 01bd
00000030: bc1d 94bf 2585 a4bf 2ed0 9fbf 59b3 c23f
-0.47738853 -0.68939465 -1.1587371 -1.507873 -0.4834997 0.25035745 -0.44334528 -0.18405162
0.3754776 -0.18832454 0.14910658 -0.0315029 -1.1571574 -1.2853132 -1.2485406 1.5210983

layer1.0.bn1.running_var f4 [16]
00000000: fca7 f940 8367 be3f b08e ef3f b387 0c40
00000010: 73d2 0a40 43f4 4d40 ae17 f93e 5773 3c40
00000020: c2fe 853f 6efd 0d41 5dab 8d3f 4063 db3f
00000030: 3786 6d3f 3a3f d73f 6a73 1240 2fba 8b3f
7.801756 1.4875339 1.871542 2.1957824 2.1690948 3.2180336 0.4865088 2.9445398
1.0468371 8.8743725 1.1067921 1.7139664 0.9278292 1.681617 2.2882943 1.0916194

layer1.0.conv2.weight f4 [16, 16, 3, 3]
00000000: 7289 8c3c ef04 39bd 5843 b13d 1edb 0f3e
00000010: ea7f 1a3e 49b4 ef3c c5f9 e63b 1db3 d83d
00000020: a271 f23d d22e 943d 2903 573e 3229 e8bc
00000030: 78cd 6ebd 4b33 41be 06e4 893d 0a19 0abd
00000040: 1a66 51be 8806 98be ad18 503c 4f92 93bd
00000050: a572 eebb b144 3c3e 1d51 ab3e 8f4a 033e
00000060: f439 06bd 3514 7bbd f94b a2be 74fa 1fbd
00000070: 8ef3 bc3d 2cad 123e 0279 2bbe 9b9f 42be
00000080: b320 7b3c f17d 9ebd 5fb8 0dbe e324 82be
00000090: 536a a93e 3699 de3e 7c8f 6c3d 52aa fabe
000000a0: b79e 12bf 4682 0fbf 2cf9 333e 0373 1c3e
000000b0: b51b a43d 30ab 9abd 62f8 36bd 6879 acbd
000000c0: 0246 ed3d 3f38 46bc 1ca8 15bd a395 613d
000000d0: 0645 8abc 77a7 aebe 021f 05be 2b12 dbbd
000000e0: 72e4 2cbd 90cc 30be d405 333d d62c 6d3d
000000f0: 6289 273d 7c47 3dbe 2eea 02be 0378 4abd
00000100: 922a 8bbc 2fcd 03bd 08bb 13bd 13d1 97bd
00000110: 6a76 5bbd e828 463e 91ae d93e 3eb1 113f
00000120: e59d 713c cdd3 143e 5694 daba b7d7 9ebd
00000130: f385 d4bd 2f28 44be 8466 6dbe 01d7 71bb
00000140: 0591 1abe 3e5c 743c a797 f63d 76be 8c3e
00000150: e74d 29be b8ad f7bd 0091 b23d a678 57bc
00000160: e6be dd3d f623 353d 5ff4 f4be 57de a4be
00000170: 9cfc a1be 0b0b ab3e e6f2 ed3e f46a 913d
00000180: 7e5b 63bd 44b5 69be 5c83 843d 6b7c 5cbd
00000190: c523 27bd cacd 67be 20dc 9dbd 5f2c 4a3c
000001a0: 8b24 a63d 870f c43d ed66 843c e46a 91bd
000001b0: 5b53 e6bd 49d9 c0bd 5064 7dbe c76a 60bc
000001c0: 815b f83d 2115 353e 3150 753e a671 6d3c
000001d0: 06a5 2dbe 807d bf3d 553c bd3d a931 2e3e
000001e0: e709 60bd 963e e43d 2709 40be 4eaf 8abc
000001f0: 2754 35be 8798 fcbd 95bb 223c cd7a f4ba
00000200: 5110 1ebb 102d 903c d4f8 843c a1d4 693e
00000210: fe6a 04bd c652 f33c 4bac f13c 7f0e e43d
00000220: b1bb 843d bcb0 103e 24ec 4a3d ae70 d93d
00000230: 60be 683e 0a6c 1fbe e756 ec3c bbbb 6b3e
00000240: 1494 963b f666 723d 034e ee3d 27f9 afbe
00000250: a7aa 20be b1f3 97bd ee39 f4be 52ba f3be
00000260: 4aac a4be 83bd 3d3e 2d1f 033f 6f79 843e
00000270: be51 033e cb99 f13d 49e3 ef3a 133b 1cbc
00000280: e4e3 87be a8de 71be 0458 ffbd 8d08 df3d
00000290: dd1d 063e 14ff a7bd 6eeb 123e 9d95 8cbd
000002a0: 7615 43bc 655a f0bd ef8c ccbd e3dd 983e
000002b0: cf20 98bd 6a4a 04bd 9218 a73d 92c9 4c3c
000002c0: c343 64be 9c1e cdbd c723 15be 9be0 bebe
000002d0: 80ba 58bd cd1b ea3b 6776 303e 12c2 143c
000002e0: 4d20 203d 135a ac3d 2275 12be e7dc 8b3c
000002f0: 0aa4 083c d264 a3bd eb3c 3a3e 1f38 1c3e
00000300: c63f 81be 3167 833d e32f ddbd ca05 f7bd
00000310: d0be b7bd 6e7c 9cbe bd00 08be b06e 9bbc
00000320: 9002 be3d 6176 e5bb 20aa 363e cf55 543e
00000330: 805b 5ebe 14ad b53c 9b91 89bd 3cf1 b1bd
00000340: 419c bb3d f038 293d 591a f13d 4f71 14be
00000350: 69b0 bfbd 92ee 3abd 3eec 0abe 255f 0cbe
00000360: cd49 59bd c97f d23d b934 c9bc 2d83 b03d
00000370: 5dea dfbc 9680 a83d 7d48 fbbd 18af b1bd
00000380: 5eb7 28be 0843 c83c 61aa 933d c489 a2bd
00000390: bf7a dcbd 6ca3 71be 8d07 8ebe d712 0dbe
000003a0: c9ad c8be 8170 8fbe 9c00 0dbe f1cd 4b3e
000003b0: bb00 ab3e 7b5a e3bd 2ae6 e3bd 4614 b73b
000003c0: d3fa 3fbe eed2 59be ccdf 5dbd 842a 17bd
000003d0: d716 01ba a868 12bd 3463 83bd 5b33 c1bc
000003e0: 1cd7 abbd d886 2b3c dbd9 75bd 37c4 a2bc
000003f0: 6a8f 99bd 6566 68bd 6bdc e33d 4d83 de3c
0.017155383 -0.04517072 0.08655423 0.1404843 0.15087858 0.029260771 0.007048818 0.10581038
0.1183808 0.07235493 0.20997299 -0.028339956 -0.05830142 -0.18867223 0.06732945 -0.033715285
-0.20449105 -0.29692483 0.012701196 -0.072056405 -0.0072768503 0.18385579 0.33460322 0.1282141
-0.032770112 -0.061298568 -0.31698588 -0.03905721 0.09226142 0.14323872 -0.1674538 -0.19006197
0.01532762 -0.07738865 -0.13839863 -0.25418767 0.3308893 0.43476266 0.057754025 -0.4895807
-0.5727343 -0.56058156 0.1757552 0.15278248 0.08013097 -0.07552183 -0.04467047 -0.08421594
0.115856186 -0.012098371 -0.036537275 0.055074345 -0.016878616 -0.3411214 -0.1300011 -0.10696825
-0.04221005 -0.17265534 0.04370673 0.057904087 0.040902503 -0.184843 -0.12784645 -0.04943086
-0.016988073 -0.0321781 -0.03606704 -0.074129246 -0.053579725 0.19351542 0.42515996 0.56911075
0.014747118 0.1453392 -0.0016676288 -0.07755988 -0.10377111 -0.19155954 -0.23183638 -0.0036901834
-0.15094383 0.01491457 0.12040644 0.2748906 -0.16533624 -0.12093681 0.08719063 -0.013151323
0.108274266 0.04422375 -0.4784269 -0.32200882 -0.31638038 0.33406863 0.4647438 0.07100478
-0.055507176 -0.22823054 0.06470367 -0.05382959 -0.040805597 -0.22637096 -0.07708001 0.01233968
0.08112439 0.09573274 0.01616236 -0.07100466 -0.112463675 -0.09416444 -0.24745297 -0.013697333
0.12126828 0.17683841 0.23956372 0.014492428 -0.16957483 0.09350109 0.09240023 0.17011131
-0.054696944 0.1114475 -0.18753491 -0.016929295 -0.17707883 -0.1233378 0.009932418 -0.001865232
-0.0024118612 0.017599612 0.016231932 0.22835018 -0.0323286 0.029702555 0.029501101 0.111355774
0.06481112 0.14129919 0.049541607 0.10617195 0.22728872 -0.15568557 0.028850032 0.23020832
0.004595289 0.059180222 0.11635973 -0.34369776 -0.15690099 -0.07419527 -0.47700447 -0.4760309
-0.32162696 0.18529324 0.51219445 0.25873896 0.12824151 0.11796912 0.0018301989 -0.009535569
-0.26541054 -0.23620093 -0.124679595 0.10890303 0.1309733 -0.08202949 0.14347622 -0.06864474
-0.011906972 -0.117359914 -0.099878184 0.29856786 -0.07428133 -0.03229753 0.08158983 0.01249923
-0.22291474 -0.10015604 -0.14564429 -0.37280735 -0.052912235 0.0071444274 0.17232667 0.009079473
0.039093304 0.08415618 -0.14302495 0.017073108 0.008339891 -0.07978214 0.18187301 0.15255783
-0.25243968 0.064161666 -0.10800149 -0.12061651 -0.089719415 -0.30563682 -0.13281532 -0.018973678
0.092778325 -0.0070026373 0.17838335 0.20735858 -0.21714592 0.022177257 -0.06717225 -0.0868859
0.091606624 0.041314065 0.117726035 -0.14496349 -0.093598194 -0.045637675 -0.13566682 -0.1370817
-0.053048898 0.10278279 -0.024561273 0.0861877 -0.027333433 0.08227651 -0.122696854 -0.086759746
-0.16476199 0.024446025 0.072102316 -0.07936433 -0.107655995 -0.23597497 -0.27740136 -0.13776718
-0.39195088 -0.2801552 -0.13769764 0.19902779 0.33398995 -0.11101242 -0.11127885 0.0055871336
-0.18748026 -0.2127187 -0.054168507 -0.03690578 -0.0004924363 -0.03574434 -0.06415406 -0.023584059
-0.08390638 0.010469161 -0.060022216 -0.019868953 -0.07498057 -0.056738276 0.11126026 0.027162218

layer1.0.bn2.weight f4 [16]
00000000: 7afe 943f 89cb 913f bbdf 863f cbd2 543f
00000010: 7921 963f bc77 813f a634 903f 9499 513f
00000020: ecfb 6e3f c66f 883f ed59 923f 25ba 893f
00000030: 0b85 df3f 6149 563f 1ad4 5a3f 3e80 553f
1.164016 1.1390239 1.0537027 0.83134145 1.1728965 1.0114665 1.1266067 0.81874967
0.9335315 1.065911 1.1433693 1.0759932 1.7462476 0.8370572 0.8547989 0.8339881

layer1.0.bn2.bias f4 [16]
00000000: 5454 94be 6f52 d03e a49c 5a3b aa76 d5bd
00000010: 2ac7 ae3e 9edb 093f 5ecf c2be 443b 7bbe
00000020: 83a5 213e 2e33 773d 82a8 23bd 4105 b7bd
00000030: 4c73 68bd f1c6 d53d 4227 7b3e 795e 45bd
-0.28970587 0.40687892 0.0033357525 -0.10423024 0.34136325 0.53850734 -0.38048834 -0.24534327
0.15785794 0.060351543 -0.039955623 -0.08936549 -0.05675058 0.10438336 0.24526694 -0.0481858

layer1.0.bn2.running_mean f4 [16]
00000000: a59b 0ebe 407c 4fbf d16d 96bd 01c4 6fbc
00000010: 5c0b 62bf 60e9 bfbf 8348 823f ab6e e13e
00000020: 4da6 bbbc f65a 283f 5f85 45be f3fd 97bf
00000030: a898 1ebf 0d49 7a3f d5f4 563e 8914 acbe
-0.13926561 -0.81048965 -0.073451646 -0.014634133 -0.88298583 -1.4993095 1.0178379 0.44029745
-0.022906447 0.65763795 -0.19289158 -1.1874374 -0.61951685 0.97767717 0.20991834 -0.33609417

layer1.0.bn2.running_var f4 [16]
00000000: 3309 1140 796a e23f 8954 b43f 4029 9a3f
00000010: 2ca1 ca3f 2a5b d03f 4c7b ba3f 5d66 8e3f
00000020: 5074 ca3f 92b8 d33f 1949 0140 2ea0 633f
00000030: 9f70 7540 59d3 a23f 9b90 993f 623d 843f
2.2661865 1.7688743 1.4088298 1.2043839 1.5830436 1.6277821 1.4568877 1.1124989
1.5816746 1.6540701 2.0200865 0.8891629 3.8349988 1.2720748 1.1997255 1.0331233

layer2.0.conv1.weight f4 [32, 16, 3, 3]
00000000: 749e aa3d cd21 b2bd 66a6 a5be 88d5 84bd
00000010: c428 69be a96b c6be a5eb 40be 040b 06be
00000020: c124 1dbe 1861 d1bc c263 e33d 5978 213d
00000030: 3166 f03d edee a53d ff7b dc3d feed ec3d
00000040: b2e4 033e 830e c93d 32ec 853c f39a 523e
00000050: 246f 823e 2eb0 fb3d 2c30 f13d 8abe 7e3d
00000060: a24e 06bd 42b9 2fbc 71aa c7bc 5c02 7b3d
00000070: e0b8 bc3d 0bde 133d 8343 30be 7bf0 1d3c
00000080: 8341 8e3c 3cf4 5bbe 0f55 b3bd 3fd3 f8bc
00000090: 3e40 ab3d e826 d93d f938 df3d 7254 143e
000000a0: 8531 393e 11a7 6ebd 73b1 283d a10c 973d
000000b0: 6908 22be 8606 183e 1940 f6b8 4ff3 7cbd
000000c0: 6108 29bd 7d25 afbc 0464 a53b 020b cdbd
000000d0: 9f7e c63d aa32 593d b946 9dbd b028 16be
000000e0: c5ef a0be 3a8a 2dbd e84d 8cbe a286 9bbe
000000f0: 238e 51be 68b7 6bbe 90f5 24be d3c2 45bd
00000100: f809 b33d f5d0 5cbd 00cc 1abe e047 423d
00000110: 8eaf 463e 2aba e7bd fad4 c93d d0ae 653e
00000120: df30 013e 84a1 883e 2f95 113e 447d 0e3e
00000130: 6e78 153e 4ddb 513b 1114 d2bd 389b c2bb
00000140: da93 5a3d c29d 76bd bdc5 e93c 03d0 fa3d
00000150: 02c4 a5bd de48 013e 8fcb 233e ae7a 93bc
00000160: fd47 683d 5c3f b63d 4791 c73d f720 7c3d
00000170: abb9 bc3c f9ea cc3d 6db1 ae3d 43fa 203c
00000180: 30a3 053e 79d8 823d 5c82 54bd a000 123e
00000190: 9eac dc3c f741 2d3d c223 923d a39b 0abd
000001a0: 5390 b7bd e116 3dbc 0270 d5bc e5a7 43bd
000001b0: e912 b53b 915b d7bd fc8c 85be eedf 0bbe
000001c0: 6b08 04be 8208 58be 7bec 85be eec6 20be
000001d0: 45bb c1ba ef30 c53c 4ad8 6bbd b8bd 04be
000001e0: c68b d6bc fc59 e5bd a4a2 5fbe 3771 4fbe
000001f0: 2ca1 c5bd f897 aebd 9b94 473d 4cf7 f63d
00000200: 49d7 8d3e 2a56 073e 4410 423e 173f 053d
00000210: 69da b23d 63ac 593e 686f 9e3d e922 43bb
00000220: b5b4 c1bc b336 063b 50c4 0d3d 931e ac3c
00000230: 7eaa 823d 1394 ddbc b21d d53d 054c d23d
00000240: bc75 693c a1f7 473d 6597 c73d 00b5 3c3c
00000250: 94cb f93c 399f da3d 5393 6ebd b4cd 15bc
00000260: 05ab 643d f13b 31be b111 b3be f223 a5be
00000270: 7857 7cbd d6a8 8abe cb03 55be ee23 ca3c
00000280: ff6c 03be b5e8 36bd 0718 313d fc22 df3d
00000290: 751e b63d 5938 5c3e 865f 783e 711e 323e
000002a0: 1dc7 183e c367 883e f8ee 2e3e 05bc 1abb
000002b0: 939d 2bbd c2f8 3d3e aa23 2c3d 5efc b4bb
000002c0: 463b 673d 873f ef3c cff7 babd 7706 9c39
000002d0: d2d3 f9bc 50d7 7d3c 17e2 2d3e 8a60 4b3d
000002e0: 5f72 08bc 8b7e 003c 23c3 b23d 7b55 533c
000002f0: 2645 ac3d 0842 95bd 5a83 2ebd 73f4 273d
00000300: 1384 28be 79dc f9bd 6edd f33b 1dfb 633c
00000310: 2693 a2bc ebbc bd3c d2cd 0a3e 5105 01ba
00000320: e648 6dbd b640 b63d 61fa afbd f8fb a4bd
00000330: 8cfa f7bd 6907 2cbe 7781 1dbe ad9b 833c
00000340: 7056 c73c 38e5 9f3d 9136 dcbd 0c48 e1bc
00000350: b04a 383d 78c4 2fbe 3411 70be 1969 81bd
00000360: f179 233d 25d6 71bd 548b 0fbe f736 c23d
00000370: 96d3 d6bd 0731 acbd b3d3 063e 686d af3c
00000380: ccfd 203e 6037 463b 3cc0 06be d1a4 92bd
00000390: 3aca 8b3d 60fd 29be f95e 5bbe fdf5 6abd
000003a0: f0ad 98bd ec51 3bbe 6a48 f73d ea51 043d
000003b0: b9f6 29bb 2507 ffbb 5eab 25bd 20ea a8bb
000003c0: 55aa 6a3d 31af aabd 8912 c3bd 4ad4 5bbc
000003d0: c992 8ebd b577 fc3c ea00 fcbd c1b0 d5bd
000003e0: 10f3 bcbd e87b b5bd 73a4 8c3d 4688 a83d
000003f0: 7990 553b 66c0 eebd 8c78 74bd cf54 5abe
0.08331004 -0.08697853 -0.32353514 -0.0648604 -0.22769457 -0.38754013 -0.18839891 -0.1309014
-0.15346052 -0.025558993 0.11103012 0.039421413 0.117382415 0.08102212 0.10765838 0.11568831
0.12880209 0.09817221 0.016347978 0.20566921 0.2547542 0.12289463 0.11776766 0.06219343
-0.032789834 -0.010725321 -0.024373265 0.061281547 0.092149496 0.03610043 -0.17213254 0.009639855
0.017365223 -0.21479887 -0.08756458 -0.030374167 0.083618626 0.10603124 0.108995385 0.14485338
0.18085296 -0.058264796 0.041184854 0.07375456 -0.1582352 0.14846238 -0.00011742133 -0.061755475
-0.041267756 -0.02138018 0.005047323 -0.10011865 0.0969212 0.053026833 -0.07679505 -0.14663959
-0.3143293 -0.04236815 -0.27403188 -0.30376154 -0.20464377 -0.23019183 -0.161093 -0.048281502
0.08742136 -0.053910214 -0.15116882 0.047431827 0.19402906 -0.11314805 0.09855075 0.22429967
0.12616299 0.26685727 0.14217065 0.13914973 0.14596722 0.0032021583 -0.102577336 -0.0059389137
0.05336366 -0.060209043 0.028536672 0.12246706 -0.08094026 0.12625453 0.1599562 -0.018002834
0.05670928 0.088988036 0.09744506 0.061554875 0.023037752 0.10005755 0.08529935 0.009825292
0.13050532 0.06388945 -0.051882133 0.14258051 0.026937779 0.042299237 0.071357265 -0.033839833
-0.089630745 -0.011541099 -0.026054386 -0.04776754 0.005525936 -0.10515512 -0.26084125 -0.13659641
-0.12893836 -0.21096995 -0.26156983 -0.15700886 -0.0014780542 0.024071185 -0.057579316 -0.12962997
-0.026189696 -0.11198804 -0.21839386 -0.20258032 -0.09649882 -0.085250795 0.048725706 0.12058887
0.27703312 0.13216463 0.18951517 0.03253087 0.08733065 0.21257167 0.07736093 -0.0029775447
-0.023645738 0.002047938 0.034611046 0.021010673 0.06380175 -0.027048146 0.104060546 0.10268406
0.0142492615 0.04882014 0.09745673 0.011517763 0.030492581 0.106749006 -0.058245968 -0.009143282
0.05582716 -0.17308022 -0.34974435 -0.32253987 -0.061606854 -0.27081937 -0.20802228 0.024675336
-0.12834547 -0.04465552 0.043235805 0.108953446 0.08892528 0.2150587 0.2425519 0.17394425
0.14919706 0.26641664 0.17083347 -0.0023610604 -0.04189832 0.18551925 0.0420262 -0.0055232486
0.056453012 0.029205097 -0.09129297 0.00029759455 -0.030496512 0.015493229 0.16980778 0.049652614
-0.008328049 0.00784267 0.087286256 0.012898798 0.084116265 -0.07287985 -0.042605735 0.04100461
-0.16456632 -0.12200255 0.007442168 0.013914851 -0.019845556 0.023161372 0.13555077 -0.00049217517
-0.05793085 0.088990614 -0.08592678 -0.08055872 -0.12108335 -0.16799702 -0.15381418 0.016065443
0.024333209 0.07807392 -0.10752595 -0.027500175 0.044993103 -0.1716479 -0.23444062 -0.06318874
0.039911214 -0.059042115 -0.14017993 0.0948314 -0.104895756 -0.08407789 0.13166694 0.021414474
0.15721816 0.0030245408 -0.13159269 -0.071603425 0.06825681 -0.16600561 -0.21422948 -0.0573635
-0.07455051 -0.1829297 0.12074359 0.03230468 -0.0025934412 -0.007782834 -0.04044663 -0.005154863
0.057291348 -0.08334196 -0.0952502 -0.013417313 -0.06961591 0.0308188 -0.12304862 -0.10434104
-0.09226048 -0.08861524 0.06867304 0.08229117 0.0032587333 -0.11657791 -0.059685275 -0.21321414

layer2.0.bn1.weight f4 [32]
00000000: 7e1d 913f 9de8 2d3f c63f 443f 5022 3a3f
00000010: fbce 6d3f 80b8 173f 4d58 433f 22c2 6d3f
00000020: 7cc9 803f bab4 4a3f 9e4e 663f ff6c 8f3f
00000030: 997a 7e3f 7666 2d3f 6a03 5f3f a665 3e3f
00000040: a53e 773f b929 543f 7f84 653f 542d 533f
00000050: cb3b 553f d8f4 843f cc99 333f 92df 403f
00000060: bf73 303f c414 553f 4dcd 3c3f f4d8 863f
00000070: 9be2 2c3f 7a43 5c3f d9ad 453f a146 4e3f
1.1337125 0.67933065 0.7665981 0.72708607 0.9289395 0.592659 0.7630661 0.9287435
1.0061488 0.79182017 0.8996371 1.1205138 0.9940582 0.6773447 0.87114584 0.74373853
0.9657996 0.82876164 0.896553 0.8249104 0.8329436 1.038722 0.7015655 0.7534114
0.68926615 0.8323481 0.73750764 1.0534959 0.6753327 0.8604046 0.77218395 0.8057652

layer2.0.bn1.bias f4 [32]
00000000: dd68 e1be 2fc8 1e3e ac88 d03d 36b7 69be
00000010: 2b06 7dbe 9f17 103e cb0b 7fbd 90a1 92bd
00000020: f257 47be 17ce 3ebe 04aa c7bc 2397 8abe
00000030: 95b8 65be 2b44 2ebd 27a0 943b 5737 0bbe
00000040: ee73 99be a354 9fbd 7651 a5bd 6313 853a
00000050: 0d38 eabd 693e e5bd ae77 a1be 7d02 c3bd
00000060: e096 fdbd 9633 54be a304 33be 4951 e7be
00000070: fc40 37bd 3fe8 5e3d c7da 14be a064 8fbe
-0.44025317 0.15506051 0.10182318 -0.22823796 -0.24709384 0.1407151 -0.062267106 -0.07159722
-0.19467142 -0.18633305 -0.024373062 -0.27068433 -0.22433694 -0.04254548 0.004535693 -0.13595329
-0.2997126 -0.07779815 -0.08072178 0.0010152872 -0.11436472 -0.111935444 -0.3153662 -0.09521959
-0.12382293 -0.20722803 -0.17482238 -0.45179203 -0.04473971 0.054420706 -0.14536582 -0.28006458

layer2.0.bn1.running_mean f4 [32]
00000000: 6137 9c3d a82a 0ec0 edfb 91bf 96c9 3e40
00000010: e117 273f ec51 71bf cd6a ea3f e2a2 3ec0
00000020: 6d0a 0ac0 2eb3 b2bf d992 f3bf 794d 5ac0
00000030: 8e44 83be 6d1e 1dbf 5a8d 4dc0 3af4 81be
00000040: 0701 35c0 1422 1440 2c6d 61bf bb76 18be
00000050: 3894 0640 bacd 46c0 2d0f 70be 8e13 e8bf
00000060: 0c07 c4bf 04f8 6dbe 17e3 b1bf 7d95 393f
00000070: aa98 47bf b20a 963f 2998 b83f 28b0 df3e
0.0762775 -2.2213535 -1.1405007 2.9810538 0.6527081 -0.9426563 1.8313843 -2.9786916
-2.1568863 -1.3960931 -1.9029189 -3.4109786 -0.2563824 -0.6137455 -3.2117524 -0.25381643
-2.8281877 2.31458 -0.8805721 -0.14889042 2.1027966 -3.1063066 -0.23443289 -1.8130968
-1.531465 -0.23239142 -1.3897427 0.72493726 -0.7796732 1.1722014 1.4421436 0.43689084

layer2.0.bn1.running_var f4 [32]
00000000: fb20 bc40 f4de 8640 a482 4740 e1db 0840
00000010: 62f1 7440 65d3 7540 b985 3640 f3ff a740
00000020: 76b9 9440 4678 4b40 37f4 3040 ecff 2f40
00000030: c13a 8740 4624 4140 c072 8640 4e54 3f40
00000040: c76f 5040 89b5 4740 61c4 2940 9a0f 3940
00000050: 6e83 8440 44d2 9340 cbfa c53f 2f1f 3440
00000060: 1e42 1b40 3dc4 f33f 81d6 1140 d7d5 8b40
00000070: 7e5d 0640 1031 4840 aae8 5e40 9a2d 3b40
5.879026 4.214716 3.1173487 2.1384203 3.8272328 3.8410275 2.8519118 5.249994
4.6476393 3.179216 2.7649057 2.7499952 4.225922 3.017839 4.2015076 2.9895205
3.2568223 3.120455 2.652611 2.8915772 4.1410437 4.619417 1.5467161 2.8144033
2.4259105 1.9044262 2.2787173 4.3698535 2.0994563 3.1279945 3.4829507 2.9246583

layer2.0.conv2.weight f4 [32, 32, 3, 3]
00000000: e12e b83d d23b 29bd 44d0 2ebe 41a7 953d
00000010: 26d1 cdbc 7dd3 033b d1eb 0c3b 0e92 2abe
00000020: a1f6 d3bd cf73 683e 93dd 81bd 359b a8bd
00000030: 402d 643d 3c8b dcbb 34a5 99bd 37be 813d
00000040: 466f 19bc 2929 7a3e f0f9 b03d cc95 8d3d
00000050: c6a0 7cbe 4947 303e 35e9 27be 40f8 57be
00000060: de6c 823d 771c 71be d0ba 91be fa5e 9f3d
00000070: cebb c7bd 97ef 90bd 7762 003d 7459 6f3c
00000080: 66ee 57be 830d 2c3e ca3a 983d 5b89 af3b
00000090: b173 c1bd 7e06 d9bc f2c7 9f3d 3c70 36be
000000a0: d284 87bd a35b c3bd 2efe b8bd a067 c6bc
000000b0: 6baf 1dbe 6c6e 883e e9e7 15bd 43f6 8b3e
000000c0: 8459 933a 59a1 cabb e16a 64bd 9a9f 29bd
000000d0: 32d9 1cbe 06f3 90be 78c4 873d 78bf 38bd
000000e0: 3b1a 7e38 a126 ae3d 6d5a 9e3c 4d99 d0bb
000000f0: 669b 7e3d 802d f03c 7f62 213d 9b35 833e
00000100: ba4f 763d 5cd5 b9be 7035 8b3e f993 803e
00000110: 220b b83c 5ada 053e 62cf 99ba 0837 9b3c
00000120: 40c0 2b3e 592f 6b3d 8c79 e63d 046a c63d
00000130: 7108 2cbd ead2 a23d 9721 23be ab2a 41be
00000140: c91a 2bbc acb2 fd3c 3472 6fbd 2360 e1bc
00000150: e959 c23c 8e26 003b fca9 a83c 7121 9fbd
00000160: 1577 1bbc 4bf5 3b3d 5d1c 28bc 845f 35bd
00000170: 9eae 073e 7d68 f6bc 1ea8 383e 5b1a a03c
00000180: d849 f5bc 991c eabc d494 6cbd 6ee4 5bbe
00000190: 71c2 21bd 06b5 76be 48f6 d8bc 1aaa c53c
000001a0: 83f7 3abe 255f 023c 1d8e 36bc ab43 06be
000001b0: 79da 023d 1244 243d d597 9e3d 3f3a 1d3e
000001c0: 1708 0b3e cbdc 353e 60ad 3b3e c80e 1f3e
000001d0: aae3 4c3e c956 573d b262 9e3e 8664 9e3e
000001e0: 7caf 31bd 006d 9b3b fc7f 803d b64d e9bd
000001f0: 8619 4cbd 4677 093c 3e50 f93d e557 1e3e
00000200: 091a 963d 3a5c 4ebe 85f7 d7bd 063c 86bd
00000210: 0c3e 3bbe 8e6e 15be dcc4 bcbd eef1 b03d
00000220: 5277 c63d bb43 f43d 0975 e43d 7858 9dbd
00000230: f633 acbc f616 503e 0782 d13d 5572 693d
00000240: 0588 773c 0076 02be f1e7 c5bc f9e9 553d
00000250: 3f55 b1bd 3e38 98be d10a 9e3d 3374 08be
00000260: 75b2 8ebe 0a3e f3bd 3f77 76bd 2d27 2cbe
00000270: 176c a6bd 572a 86bc 1921 87bd 10f3 2cbd
00000280: 7a82 b7bd a0a2 ebbd 8679 b7bd 1b89 e43d
00000290: e4f0 8fbd 32df a33b 01dd 963d 32b7 e8bd
000002a0: 314e 83bd 65d6 96be 7f34 42be cf82 613d
000002b0: c158 aebd 57d3 1ebe 7f58 72be 59f0 febd
000002c0: 31d3 19be 9ff3 983d cd3b e43b bb50 21be
000002d0: c5f4 07be b84e 81bd e11b 143e e3d2 dfbd
000002e0: a2d8 00bd 7f36 b33d 9005 0ebd 4c3e 21bd
000002f0: 8bbe 463e 3f54 45bc a238 2f3d 4bb6 1e3e
00000300: 1101 623e 5033 a1bd c100 873e bbea a93d
00000310: 4b16 4dbd b083 ba3d 96a6 88be 0374 88be
00000320: 2991 7bbc 85b4 e1bd 5be4 d5bd 4444 fe3a
00000330: 142c 823d 90dc d63b 9e99 223d a4c7 28bd
00000340: 2f43 1ebe 0c26 80be 0798 b3bd cca1 81be
00000350: 043c 50be 363b 1cbd 92e1 3bbd d036 d13d
00000360: 33ed ab3d b94b 87bb 9c75 9e3d c37c 993d
00000370: 0f72 50be 49a6 923e 7408 21bd 61db c83d
00000380: b44c c13d 5b89 553d 2a39 173c 4e1f 583c
00000390: 5141 97bb b1a8 51be c73a 0fbe 9629 1c3d
000003a0: d013 b8bc 7e36 4e3e 104d a03e 20cf b03d
000003b0: aca8 2cbe 7a4d fa3d 2042 0d3e fd90 d7bd
000003c0: 9607 6a3d a78c 1fbc 8983 b53c b3df 3c3e
000003d0: 7ae9 32bd 27f7 473d 940a da3b e35f 04be
000003e0: 3f55 ccbd 11a1 09be a29d 8fbd 4832 2abe
000003f0: f008 2e3e c089 51bd 1f3a 163e 6914 c4bc
0.089933164 -0.041316815 -0.17071635 0.07307292 -0.025124144 0.002011507 0.0021502862 -0.16657278
-0.10349775 0.22700427 -0.0634109 -0.082327284 0.055707216 -0.006730465 -0.07502213 0.06335109
-0.009364909 0.24429764 0.08641422 0.06913337 -0.24670705 0.17214693 -0.16397555 -0.21090794
0.06368421 -0.23546015 -0.2846284 0.07781787 -0.09752618 -0.07076948 0.031343903 0.01460873
-0.21087036 0.1680203 0.07433088 0.00535695 -0.094458945 -0.026492354 0.078018084 -0.17816252
-0.0661713 -0.09538963 -0.09032856 -0.024219334 -0.15398948 0.26646745 -0.03659812 0.2733632
0.0011241888 -0.006183785 -0.05576599 -0.041411974 -0.15317228 -0.28310412 0.0662927 -0.045104474
6.0582748e-05 0.08503462 0.019330228 -0.006365931 0.06215992 0.029318571 0.039400574 0.25626835
0.060134627 -0.36295593 0.27189207 0.25112894 0.022466246 0.13071576 -0.0011734779 0.01894714
0.16772556 0.0574182 0.11253652 0.096881896 -0.042000238 0.07950385 -0.15930782 -0.18863933
-0.010443398 0.030968986 -0.058458522 -0.027511662 0.023724513 0.001955423 0.020588867 -0.0777005
-0.009488841 0.045888226 -0.010260669 -0.044280544 0.13250205 -0.03007912 0.18032882 0.019543817
-0.029942438 -0.02857809 -0.05775912 -0.21473858 -0.039492074 -0.24092492 -0.026484624 0.024128962
-0.1825848 0.007957255 -0.011142281 -0.13111751 0.031946633 0.04010398 0.077438034 0.1535425
0.13577305 0.17760007 0.18327856 0.15532982 0.20008722 0.052573 0.30934674 0.30936068
-0.043380246 0.0047432184 0.06274411 -0.11391775 -0.04982903 0.008390253 0.12173508 0.15463217
0.073291846 -0.20152369 -0.105452575 -0.06554417 -0.18285388 -0.14592955 -0.092172354 0.086398944
0.09690727 0.11926981 0.11155135 -0.0768289 -0.02102087 0.20321259 0.10229879 0.0569938
0.015108113 -0.12740326 -0.02415845 0.052225087 -0.086588375 -0.2973041 0.07716907 -0.13325576
-0.27870527 -0.118770674 -0.060172316 -0.1681182 -0.08126085 -0.016377611 -0.0659811 -0.04222399
-0.08960433 -0.11505628 -0.08958726 0.11158963 -0.07028368 0.005000972 0.07366372 -0.11363067
-0.06411398 -0.29460445 -0.18965338 0.05505639 -0.08513022 -0.15510307 -0.23666571 -0.124481864
-0.1502197 0.07468342 0.0069651366 -0.15753452 -0.13276966 -0.063138425 0.1446376 -0.10928895
-0.031456597 0.08750629 -0.034673274 -0.03936605 0.19408624 -0.012044012 0.04277862 0.15499227
0.2207072 -0.07871115 0.26367763 0.082967244 -0.05007009 0.09107149 -0.26689595 -0.2665101
-0.015354433 -0.110207595 -0.10443946 0.0019399007 0.063560635 0.006557055 0.039697282 -0.041206017
-0.15455316 -0.25029027 -0.08769231 -0.25318754 -0.20335394 -0.038142405 -0.045869417 0.10215533
0.083948515 -0.0041289 0.07737276 0.074944995 -0.2035601 0.2864249 -0.039314702 0.09807468
0.09438458 0.052132946 0.009229938 0.013191057 -0.0046159406 -0.20474507 -0.13987266 0.038125597
-0.022470385 0.20137975 0.31308794 0.08633256 -0.16861218 0.12221809 0.13794756 -0.10525701
0.05713614 -0.009738124 0.022157447 0.1844471 -0.04367969 0.048819687 0.006654093 -0.12927203
-0.09977197 -0.13440348 -0.07012488 -0.16620743 0.16995597 -0.05115676 0.14670609 -0.023935514

layer2.0.bn2.weight f4 [32]
00000000: 1c2c 993f 3546 613f 3598 763f 557a 973f
00000010: 842d ab3f 56f0 853f 141d 7f3f 0030 873f
00000020: 3185 893f 3c35 9a3f e30f 913f 1ac5 823f
00000030: f9ad a63f d89b 833f b8cb 9c3f dc68 723f
00000040: 7e5f 893f d516 953f cb33 873f 784f 533f
00000050: b699 803f 65e0 713f 0392 8e3f de36 703f
00000060: 11e6 763f 58b2 a03f 2c97 713f f854 943f
00000070: 0669 903f a275 7a3f 3b69 9f3f 7abd 923f
1.1966586 0.8799775 0.96326 1.1834208 1.3373265 1.046397 0.99653745 1.0561523
1.0743772 1.2047496 1.1332973 1.0216401 1.3021842 1.0281935 1.224967 0.9469125
1.0732267 1.1647593 1.0562681 0.82543135 1.0046909 0.94483024 1.1138309 0.9383372
0.96444803 1.2554426 0.94371295 1.158843 1.1282051 0.97835743 1.2453989 1.1464074

layer2.0.bn2.bias f4 [32]
00000000: e1d9 cfbe 490e c03d 8d0d ddbd 96c5 97bd
00000010: be93 8dbe 0248 e8bd f3f9 153d 21cd 153d
00000020: 7653 c8bb e591 86be f923 0abe 636a 15bc
00000030: c746 123e c14f 35be 8514 24be 6e25 72bd
00000040: 81e7 67bd bae6 b1bd 416f debc b938 0dbd
00000050: ff5e 8abd 3ec8 963c 9060 883d 2ae7 b7bc
00000060: b6d7 8c3c 452d 51be fa12 82bc 9c48 0ebe
00000070: 00a8 e7bd b46c 4abd c435 98be 4d75 8bbb
-0.40595916 0.09377725 -0.107936 -0.074107334 -0.2765178 -0.113418594 0.036615323 0.03657258
-0.006113465 -0.26283184 -0.13490285 -0.009119603 0.14284812 -0.17706205 -0.16023453 -0.059117727
-0.056617264 -0.08686586 -0.02715266 -0.034477923 -0.067564 0.01840603 0.06659043 -0.022449095
0.017192703 -0.20427425 -0.01587819 -0.13894886 -0.1131134 -0.049420074 -0.2972852 -0.0042559267

layer2.0.bn2.running_mean f4 [32]
00000000: 4aab 0cbf e042 54bf fe42 9a3f 137b 9cbe
00000010: a39a d4be ab44 a5bf 6c30 e63e a22f 623f
00000020: d087 01bf 2d7b cabf 1bc6 60bf b9fb 83be
00000030: a46e b0bf 7584 e7bf fcd9 dbbf c787 25bf
00000040: dab4 f1be d808 64bf 24e5 35bf b7b0 79be
00000050: 81d1 2a3f 7d26 5fbe bde0 40bf 4786 a43e
00000060: 17b5 cfbf 08b3 cdbf 0ea2 ff3e 6acd d8be
00000070: e988 38c0 ded1 6abe 100f 33bf 0f96 60be
-0.54948866 -0.82914543 1.2051694 -0.30562648 -0.41524228 -1.2911581 0.44958818 0.8835393
-0.5059786 -1.581884 -0.87802285 -0.25777987 -1.3783765 -1.8087298 -1.7175899 -0.64660305
-0.4720829 -0.89075994 -0.71052766 -0.24383818 0.6672593 -0.21792026 -0.75342923 0.32133695
-1.6227139 -1.6070261 0.49928325 -0.42344218 -2.8833563 -0.2293162 -0.6994486 -0.21932243

layer2.0.bn2.running_var f4 [32]
00000000: 119e 993f 17db da3f 7f9d 4a3f 6fb9 803f
00000010: 540a 943f 0209 a53f c1c1 ae3f 7299 8d3f
00000020: 7ade a73f d314 893f 5d19 8b3f 95c4 583f
00000030: eb6f ae3f ae8f bb3f 3ec6 de3f c4d5 3a3f
00000040: e7ea 873f e039 b73f 7a7e 6d3f 0804 3d3f
00000050: 02b4 453f 3eb3 943f eed7 873f ebe4 703f
00000060: d9ce d13f 470b 923f 7046 563f 5770 803f
00000070: 4fd9 a63f 2947 6a3f f379 893f 84f2 d33f
1.2001363 1.7098111 0.7914657 1.005659 1.1565652 1.2893374 1.3652879 1.1062453
1.311477 1.070948 1.0867115 0.8467496 1.3627905 1.4653223 1.7404249 0.7298243
1.0618562 1.4314537 0.9277111 0.73834276 0.77227795 1.16172 1.0612772 0.940993
1.639125 1.1409692 0.8370123 1.0034283 1.3035067 0.9151483 1.0740341 1.6558385

layer2.0.downsample.0.weight f4 [32, 16, 1, 1]
00000000: d512 4ebe ec4e ad3d 0784 37be d88b 21be
00000010: 836c 57be 0812 37bd 5ef9 a2be 94e2 bcbd
00000020: 62a9 46be ac6b ee3d 4dd0 7fbe 1cc3 5f3e
00000030: ca54 88bd d19e 56be 28fb 1ebe 0cad c3be
00000040: d001 743a f27e ddbc 7ecf 763d 9077 b6bd
00000050: dd65 b8bd 017f e53d 3643 85bd e0d1 fbbd
00000060: 77ed bfbe 2a7c b23d 3879 81bd 7094 c93e
00000070: 84a6 f7bd f9f5 1cbf 0e17 cf3d d3cd 05bd
00000080: 7b8a a137 ccb1 79be 5319 1d3e 014e 863b
00000090: 7701 b5bd 5900 10be 3bd2 d23e eeca 14be
000000a0: 219c b6bd a641 c83e 4fa5 e63d 5949 cbbe
000000b0: 742a cebc 5161 c93e 8672 873e ffa8 1f3e
000000c0: 9055 cf3d 052c 163e 7c81 f6bd 94c8 033e
000000d0: 2b49 e93e ec68 bf3e fda4 3c3e 8dd2 5abe
000000e0: e57b 273e eac8 9a3e b2ab 203e 6036 47bd
000000f0: 4799 91bd 8805 2c3e d889 a6be 5213 8bbe
00000100: 832d 05bd e132 873e 4653 94be 04fa 0fbe
00000110: 584c fa3d f2cd 963e 9f3e 9abe 4b52 0ebe
00000120: 2a86 65bd aded fb3d a372 1bbd b4d1 48be
00000130: f29c 1abe 935d afbe 0cd5 1bbd f1be 8c3d
00000140: c64f 003e 74b3 7bbd 25b8 823e 205f ba3e
00000150: bed8 d6bc cc6e 19be 04e0 c93e b3f3 83bc
00000160: 0919 7fbd 8b67 ebbd 3cd9 6c3e 4619 3cbe
00000170: c003 523e 640b 49bd e478 4c3c cd5b afbe
00000180: a06d 50be 931c c33d b951 5c3e 4925 9a3d
00000190: 0586 70be d19a a4be c7d9 c73e f34a 413d
000001a0: 6831 a63e 82e9 0e3c b6b3 abbe 60ea 89bc
000001b0: a930 7c3d b367 283e 8851 57bc 99bc 2c3e
000001c0: 11bc 5bbe fb68 b9bb 3433 8f3d fcec 95be
000001d0: 80ff 8b3e 950b 7c3d 2ee3 3fbd 81ee e8bd
000001e0: 67bc 16be 4359 bdbc f01e 22be fc73 b53e
000001f0: 274f c5be cb2c 323e 0013 363e f130 a13d
00000200: 078a ffbd 53ed b03e b7a7 b4bb 0611 873e
00000210: 3b90 933c 6319 ebbd 27ff dbbd f394 a0be
00000220: b5b0 7d3e aff0 90be b405 b2bd 0343 303e
00000230: 9983 933e 4953 b83d dd79 e3be 6ba1 b53d
00000240: 0b4d 7abd b23c d4bd 837e c83c 36cf b53e
00000250: 7401 9a3e 344e a83e df18 d2bd a904 043e
00000260: a6d8 dabe dbfc b7bd eee1 3ebb 5b9a c93d
00000270: beec ebbd c1e3 3a3c b95c 8dbd 744b 883e
00000280: a45a ccbd bdd6 92be cca3 8a3d b373 413e
00000290: 3d03 3abc da3b c1be e1b8 e43d 8abf 0bbd
000002a0: 8c1e 7e3e 25f9 2e3e ac43 afbe ff33 323d
000002b0: c0d0 173e 4719 a7bd 436a 6fbe 1c61 d5be
000002c0: e5ff d1bd 8c7f f33d af8a 8b3d 40d2 1cbe
000002d0: 9311 6c3e aff9 983e 8ef4 9bbe 8096 363e
000002e0: bc45 d0bd ef3b 143c 6a85 a33c d72d b43e
000002f0: b4a1 3c3e 27bc a0be 1431 f7be 0cdd da3e
00000300: fbfb 373e cd0a dabd ea25 a6bc 8db0 323e
00000310: 2cba f73d 8259 423e e01d 6ebe 2bbd 413b
00000320: 80f9 2abc b693 1fbe 7cf7 92bd 80ee 233d
00000330: 1026 bebe e3fc 613d 4af9 78be ffc7 fe3e
00000340: 4a74 073c 0a71 1fbe 6651 2bbe fbca ef3d
00000350: 6020 183e 3273 6fbe 34be 30be b6ad 7abd
00000360: c14d 8c3e e6be ac3d eedd 333d 882d fa3d
00000370: fe0e da3d 3a67 c8be 6aa1 58bc 0002 213e
00000380: 330d 70bd eca3 8abe 4547 443e 1bb0 09bb
00000390: 9115 37be 6723 a6be d303 4d3e ce3b 13bd
000003a0: 9ccf fa3b 8fad 4a3e c79d 25bd 4f60 633e
000003b0: 6e52 99be d68a 2fbe c64d 243e d856 e6bd
000003c0: cb74 c2be 070b a43d 4936 703d 6323 ac3e
000003d0: 61a0 8a3e 58f1 573e d1d4 3537 aefc 1f3e
000003e0: 42b3 c13d 3270 83bc 310b 4bbe 466f 983d
000003f0: fcd7 a83e e071 5d3e 2b02 b33d 91c4 613d
-0.20124371 0.08462319 -0.17921458 -0.15776002 -0.21037488 -0.04469493 -0.31830877 -0.09222904
-0.19400552 0.116416305 -0.24981804 0.21851772 -0.06656797 -0.20959021 -0.15525496 -0.38217962
0.00093081314 -0.027038071 0.060256474 -0.089095235 -0.09003804 0.11205865 -0.0650696 -0.1229589
-0.3748586 0.08715089 -0.06321949 0.3937106 -0.12092307 -0.61312824 0.10111819 -0.032666992
1.925718e-05 -0.2438423 0.15341692 0.0040986543 -0.0883817 -0.14062633 0.41176018 -0.14530537
-0.08916498 0.39112586 0.11261999 -0.39704397 -0.025166728 0.3933206 0.26454562 0.1559181
0.101237416 0.1466523 -0.12036416 0.12869483 0.45563635 0.37384737 0.18422313 -0.21369381
0.16355856 0.3023141 0.15690497 -0.04863584 -0.071093135 0.16798985 -0.3252704 -0.27163178
-0.032514106 0.26406005 -0.28969783 -0.14060217 0.12221593 0.29454 -0.301259 -0.1389858
-0.056036152 0.123011924 -0.037951123 -0.19611245 -0.15098932 -0.3425108 -0.038044974 0.06872357
0.12530431 -0.061450437 0.25531116 0.364007 -0.026226398 -0.14983672 0.39428723 -0.016107416
-0.062279735 -0.11494359 0.23129743 -0.18369016 0.20509243 -0.04908313 0.012479994 -0.34249726
-0.20354319 0.095269345 0.2151555 0.07526643 -0.23488624 -0.32149366 0.39033338 0.047190618
0.3245957 0.008722665 -0.33535546 -0.016835392 0.061569843 0.16445808 -0.013141997 0.1686882
-0.2145846 -0.0056582666 0.06992188 -0.29282367 0.2734337 0.061534483 -0.046847515 -0.11373616
-0.14720307 -0.023113852 -0.15832114 0.35440052 -0.3853695 0.173999 0.17780685 0.07870663
-0.124774985 0.34556064 -0.005513157 0.26380175 0.01801311 -0.114794515 -0.10742026 -0.3136364
0.2477444 -0.28308627 -0.08692494 0.17213063 0.2881134 0.090002604 -0.44428912 0.08868679
-0.06110863 -0.10363139 0.024474388 0.35509652 0.30079234 0.32872164 -0.1025865 0.12892403
-0.42743415 -0.08983775 -0.0029126364 0.09843894 -0.11519764 0.01140684 -0.06902451 0.26620066
-0.09978226 -0.28679457 0.06769523 0.18891792 -0.011353311 -0.37740976 0.11168075 -0.034118213
0.2481634 0.17087229 -0.34231317 0.04350662 0.14825726 -0.08159118 -0.2338038 -0.4167565
-0.10253886 0.11889562 0.06813561 -0.15314579 0.23053579 0.29877993 -0.30460018 0.17830849
-0.10169551 0.009047492 0.019961078 0.35191223 0.1842106 -0.3139355 -0.4827963 0.4274677
0.17967217 -0.10646591 -0.02028175 0.17450161 0.12096056 0.18979457 -0.23253584 0.0029562216
-0.010435462 -0.15583691 -0.0717611 0.040022373 -0.37138414 0.055172812 -0.24313846 0.4976196
0.008267472 -0.15570465 -0.1673027 0.11708637 0.148561 -0.23383787 -0.17260057 -0.06120082
0.27403072 0.084348485 0.04391282 0.12215716 0.10647391 -0.39141256 -0.013222078 0.15723419
-0.058606338 -0.27078187 0.19167812 -0.0021009508 -0.1787932 -0.32448885 0.2002099 -0.035945706
0.0076541435 0.1979277 -0.04043367 0.22204708 -0.299457 -0.17142805 0.16045293 -0.11247033
-0.3797973 0.08009916 0.05864552 0.33620748 0.27075484 0.21088159 1.0837991e-05 0.15623733
0.09458019 -0.01604471 -0.19828488 0.07443099 0.32977283 0.21625471 0.08740648 0.0551191

layer2.0.downsample.1.weight f4 [32]
00000000: 891b 183f 1c9e 0b3f 3b32 063f efa2 b13e
00000010: f5e3 f53e 34d6 bb3e 1281 a13e ab8c b53e
00000020: 4f2e d33e 2b4f 003f d7d2 813e 3d15 113f
00000030: 7a5f bb3e ae4d b23e bbe0 ab3e 7478 d93e
00000040: b9ac bb3e 1692 743d 9344 103f b980 003f
00000050: c404 e73e fb65 df3e fb3f 4e3e baf4 f93e
00000060: d5df c63e ef5a af3e 15e9 ca3e 2452 023f
00000070: 0301 333e 1cdb c53e fffc b33e 49bd c43e
0.59417015 0.5453813 0.52420396 0.3469462 0.4802548 0.36686862 0.31543785 0.35458884
0.41246268 0.501208 0.2535617 0.5667303 0.3659628 0.3482489 0.33569893 0.4247471
0.36655214 0.05970963 0.56354636 0.50196415 0.45120823 0.43632492 0.20141594 0.48819524
0.38842645 0.34249064 0.39630952 0.50906587 0.17480855 0.3864373 0.35153958 0.38425663

layer2.0.downsample.1.bias f4 [32]
00000000: e1d9 cfbe 490e c03d 8d0d ddbd 96c5 97bd
00000010: be93 8dbe 0248 e8bd f3f9 153d 21cd 153d
00000020: 7653 c8bb e591 86be f923 0abe 636a 15bc
00000030: c746 123e c14f 35be 8514 24be 6e25 72bd
00000040: 81e7 67bd bae6 b1bd 416f debc b938 0dbd
00000050: ff5e 8abd 3ec8 963c 9060 883d 2ae7 b7bc
00000060: b6d7 8c3c 452d 51be fa12 82bc 9c48 0ebe
00000070: 00a8 e7bd b46c 4abd c435 98be 4d75 8bbb
-0.40595916 0.09377725 -0.107936 -0.074107334 -0.2765178 -0.113418594 0.036615323 0.03657258
-0.006113465 -0.26283184 -0.13490285 -0.009119603 0.14284812 -0.17706205 -0.16023453 -0.059117727
-0.056617264 -0.08686586 -0.02715266 -0.034477923 -0.067564 0.01840603 0.06659043 -0.022449095
0.017192703 -0.20427425 -0.01587819 -0.13894886 -0.1131134 -0.049420074 -0.2972852 -0.0042559267

layer2.0.downsample.1.running_mean f4 [32]
00000000: a837 abbf ced6 3dbf 1b52 023f 098e 863f
00000010: 86d4 ddbe ed4c bd3e 0bbd c43e daa9 08be
00000020: d9ca ec3d 957e d73d 8185 eebe c07c fd3d
00000030: 75dd b3bd 0ee6 1bbe 9b39 e4be c08b 753f
00000040: 041f 743e 1fbe a13d ad3d 34bf 70d2 b3bf
00000050: a677 a7bd 128e 14bf e77f 31bf 480d 2a3e
00000060: 63b8 20bf 9be9 9abf f246 3c3f e3e5 38bf
00000070: bdc7 a7be 4f2e 5fbe 0cc4 89bf c202 f3be
-1.337636 -0.7415589 0.50906533 1.0512096 -0.43326205 0.36972752 0.38425478 -0.13346043
0.115621276 0.105221905 -0.4658623 0.1237731 -0.08782474 -0.15224478 -0.445752 0.95916367
0.23839957 0.07897591 -0.7040661 -1.4048595 -0.08177118 -0.5802928 -0.6933579 0.16606629
-0.6278135 -1.2102541 0.73545754 -0.7222578 -0.32769576 -0.21795009 -1.0762954 -0.47463042
