Result/teacher/resnet8_paik_20_128 # 3_best.pth.tar (torch_old, 641072 bytes, 76 tensors)

conv1.weight f4 [16, 3, 3, 3]
-0.19207841 -0.85096925 -0.42756814 -0.10045856 1.0574616 0.14410268 0.17533904 0.10690046
0.09861887 -0.2031663 -0.61895156 -0.27991557 -0.14392307 1.2561871 0.20388632 -0.08424328
-0.016131325 0.09140816 0.1169018 -0.3680163 -0.23391971 -0.004450276 0.90064734 -0.05892323
-0.021531282 -0.2088441 -0.117913246 -0.005499757 0.053495612 0.12825473 -0.21195407 -0.37852988
0.078960575 -0.17572571 -0.019872267 0.036500115 0.02931266 0.14909689 0.39875972 -0.12774855
-0.13450024 0.074623376 0.0088592665 -0.13731991 0.109341815 -0.032372132 0.29458228 0.3504304
-0.024825834 0.21323924 0.25140792 0.11770631 -0.122985266 0.19872129 -0.23942114 -0.08500219
0.7813735 -0.5800728 0.2603479 0.5621649 -0.7840529 -0.5121799 0.39851302 0.48026744
-0.11442337 -0.6560636 0.6319795 1.0024155 -0.34900096 -0.12831701 -0.0870988 -0.36375815
-0.43922603 -0.2210657 -0.23719662 0.31332853 0.7585378 -0.40157023 0.10964426 0.22660129
-0.25817734 0.13915056 -0.5649319 -0.16179375 -0.15569575 -0.74164474 -0.26698998 0.003784724
-0.5056162 0.20268728 0.02514521 -0.13347721 -0.10433511 0.111654446 -0.18735905 0.11706348
0.11055947 -0.2278745 0.22551799 0.30355218 0.3306078 -0.0052860756 0.6372607 0.4977503
0.28607887 0.26526904 0.020602252 0.015975876 0.60088 0.39571723 0.19241434 0.5765488
-0.24342121 -0.27549648 -0.13218053 -0.807001 -0.6910137 0.25999886 -0.01460374 -0.038068242
0.48811492 -0.036720898 -0.04441111 0.25086948 -0.3326691 -0.10557859 -0.42657527 -0.6884218
-0.13848987 0.05811448 0.10801836 0.3098346 -0.06683391 0.13605121 0.42081407 0.00090366387
-0.15213394 0.11835707 -0.28972602 -0.46031117 -0.2457702 0.30927742 -0.07646565 0.26059905
0.39497274 -0.26454264 0.07469321 -0.30532137 -0.37797338 -0.17889106 0.0045068874 -0.25338024
0.1417919 0.23499958 -0.035007153 0.27773196 -0.20273809 -0.3862338 -0.17662984 0.012158212
0.14843021 0.028122228 -0.1720488 -0.18260245 -0.064509265 0.7064971 -1.3557677 0.6091436
-0.00035141926 0.78199744 -0.2504864 0.17973132 -0.11933704 0.26316437 0.49618036 -1.151656
0.70797145 -0.39432856 0.3818795 -0.45682174 -0.09769338 0.3835443 0.038091358 0.4036389
-0.9824177 0.41831514 -0.31024495 0.25628608 0.012895588 -0.19630714 0.3306403 0.19797924
-0.4873631 0.6019381 0.05559576 -0.27605203 0.11600497 -0.4115777 -0.95812035 0.106423266
0.48849308 -0.80794 0.2996617 0.41435996 -0.26413566 0.57538134 0.14644796 -0.5441543
-0.011579083 0.3823847 -0.5839884 0.35851473 0.030710049 -0.070305035 0.5327934 -0.011200893
-0.5615668 -0.12271405 0.3320599 0.59339726 -0.7420345 -0.11176352 0.47094443 -0.59458494
0.5528602 -0.06524723 0.32420927 0.30696204 1.0802245 -0.47278073 -0.5446094 0.11575313
-0.6397454 0.10998278 -0.29881334 -0.0054051103 0.026363544 1.0209606 -0.16452134 -0.5990513
0.7088328 -0.4045704 -0.29605594 0.33205545 0.14798862 -0.048964027 0.501554 0.28096768
0.22382636 -0.43409494 -0.51611394 -0.4906626 -0.41311842 -0.45474917 -0.21549077 0.4710472
00000000: 34b0 44be 1fd9 59bf 36ea dabe 38bd cdbd
00000010: e75a 873f a78f 133e 148c 333e a1ee da3d
00000020: b1f8 c93d d40a 50be 9c73 1ebf 1851 8fbe
00000030: 9260 13be bdca a03f 93c7 503e be87 acbd
00000040: d725 84bc 3434 bb3d 366a ef3d a26c bcbe
00000050: a688 6fbe 9fd3 91bb d390 663f 7c59 71bd
00000060: 5f62 b0bc 3adb 55be 807c f1bd 4e37 b4bb
00000070: 371e 5b3d 3555 033e 7d0a 59be abce c1be
00000080: 15b6 a13d 71f1 33be 2acb a2bc 2581 153d
00000090: 1b21 f03c dbac 183e 3c2a cc3e 84d0 02be
000000a0: 6eba 09be 24d4 983d 7526 113c 979d 0cbe
000000b0: 9aee df3d a498 04bd 7dd3 963e 9d6b b33e
000000c0: 8c5f cbbc 635b 5a3e 8ab8 803e 0110 f13d
000000d0: b3df fbbd 987d 4b3e d12a 75be a115 aebd
000000e0: 1808 483f a77f 14bf 524c 853e 0aea 0f3f
000000f0: b1b7 48bf 391e 03bf e609 cc3e 9de5 f53e
00000100: cd56 eabd c9f3 27bf 69c9 213f 274f 803f
00000110: 41b0 b2be 8965 03be db60 b2bd 823e babe
00000120: 3ce2 e0be 0c5f 62be ace3 72be 996c a03e
00000130: 892f 423f 9d9a cdbe 2b8d e03d 2b0a 683e
00000140: d22f 84be 7c7d 0e3e 619f 10bf 43ad 25be
00000150: b56e 1fbe 6edc 3dbf e9b2 88be 2209 783b
00000160: 1070 01bf 418d 4f3e 54fd cd3c 40ae 08be
00000170: a5ad d5bd 16ab e43d 0ddb 3fbe fabe ef3d
00000180: 016d e23d ef57 69be 30ee 663e 316b 9b3e
00000190: 6d45 a93e d136 adbb 8423 233f 21d9 fe3e
000001a0: ee78 923e 58d1 873e 0ec6 a83c d7df 823c
000001b0: 46d3 193f 739b ca3e 4408 453e b498 133f
000001c0: 6943 79be e00d 8dbe 555a 07be 9e97 4ebf
000001d0: 46e6 30bf 921e 853e 8644 6fbc 72ed 1bbd
000001e0: 33ea f93e a768 16bd 6de8 35bd f771 803e
000001f0: 9b53 aabe 9639 d8bd 1368 dabe 693c 30bf
00000200: 4ad0 0dbe 7309 6e3d bb38 dd3d a4a2 9e3e
00000210: 38e0 88bd 0251 0b3e f174 d73e dbe3 6c3a
00000220: 00c9 1bbe 3165 f23d f856 94be e8ad ebbe
00000230: 2fab 7bbe 9c59 9e3e 069a 9cbd 3d6d 853e
00000240: de39 ca3e 2272 87be c1f8 983d 1553 9cbe
00000250: ba85 c1be 382f 37be 83ae 933b 0ebb 81be
00000260: e531 113e bba3 703e a963 0fbd e232 8e3e
00000270: 939a 4fbe 70c0 c5be 74de 34be 3d33 473c
00000280: 17fe 173e 9660 e63c 902d 30be 23fc 3abe
00000290: 6f1d 84bd fedc 343f cc89 adbf d6f0 1b3f
000002a0: b23e b8b9 fc30 483f c13f 80be 7d0b 383e
000002b0: fa66 f4bd 7bbd 863e 5a0b fe3e 7769 93bf
000002c0: 9e3d 353f 6fe5 c9be b685 c33e 8ae4 e9be
000002d0: 7813 c8bd eb5f c43e af05 1c3d c2a9 ce3e
000002e0: ba7f 7bbf 672d d63e 6dd8 9ebe ee37 833e
000002f0: 0448 533c bd04 49be af49 a93e 12bb 4a3e
00000300: a887 f9be 9e18 1a3f 61b8 633d b156 8dbe
00000310: 0494 ed3d 50ba d2be 6047 75bf 71f4 d93d
00000320: c41b fa3e 28d5 4ebf 426d 993e fd26 d43e
00000330: ca3c 87be 314c 133f 74f6 153e b24d 0bbf
00000340: 32b6 3dbc edc7 c33e 4480 15bf 3e8f b73e
00000350: a493 fb3c 16fc 8fbd 2665 083f f383 37bc
00000360: d8c2 0fbf 8151 fbbd c103 aa3e e2e8 173f
00000370: f9f5 3dbf 46e4 e4bd a11f f13e b836 18bf
00000380: 3f88 0d3f 57a0 85bd c2fe a53e 212a 9d3e
00000390: cc44 8a3f 5110 f2be 866b 0bbf fa0f ed3d
000003a0: 5bc6 23bf a73e e13d 10fe 98be 5a1d b1bb
000003b0: 5cf8 d73c d6ae 823f 4878 28be 6d5b 19bf
000003c0: 1176 353f da23 cfbe a594 97be 2c03 aa3e
000003d0: 548a 173e 818e 48bd d865 003f ffda 8f3e
000003e0: bd32 653e b141 debe 0b20 04bf 2138 fbbe
000003f0: 4284 d3be e2d4 e8be 9da9 5cbe 192d f13e

bn1.weight f4 [16]
0.713157 0.45135725 0.73409843 0.3053881 0.45811406 1.1618038 0.89952344 0.80765706
0.83774924 0.54828346 0.5961437 0.37542543 0.6653645 0.56876016 0.38286006 0.44027913
00000000: 7591 363f 4c18 e73e e0ed 3b3f d45b 9c3e
00000010: ed8d ea3e fdb5 943f 2b47 663f 9dc2 4e3f
00000020: bc76 563f 4e5c 0c3f e09c 183f c337 c03e
00000030: 5455 2a3f 449a 113f 3c06 c43e 446c e13e

bn1.bias f4 [16]
0.14937584 -0.20033248 0.43018967 0.2531383 0.032086536 -0.93896073 0.8466941 0.3420164
0.5490269 0.10574804 -0.09114345 0.073971 -0.15577619 0.28164968 0.15007278 0.09133025
00000000: fbf5 183e f523 4dbe d241 dc3e 589b 813e
00000010: 2c6d 033d bb5f 70bf f2c0 583f c61c af3e
00000020: 078d 0c3f 6e92 d83d 6ba9 babd 1c7e 973d
00000030: cb83 1fbe 6334 903e aeac 193e 5b0b bb3d

bn1.running_mean f4 [16]
-0.17936064 -0.16817848 -0.11258323 0.18094729 0.06391943 0.4645324 0.0463389 -0.07818223
0.07931666 -0.038994674 0.10764946 -0.10123183 -0.009581692 0.100738436 0.13264976 0.035831343
00000000: 51aa 37be fb36 2cbe 0992 e6bd 3f4a 393e
00000010: 31e8 823d 31d7 ed3e dccd 3d3d 011e a0bd
00000020: c670 a23d e1b8 1fbd 5277 dc3d a252 cfbd
00000030: 87fc 1cbc f44f ce3d 57d5 073e e3c3 123d

bn1.running_var f4 [16]
3.2262228 1.789484 1.1487126 1.9783788 1.4550692 3.0151544 0.79035753 4.768867
2.6683705 2.0927763 2.1700256 0.53676367 2.247025 4.2536044 1.0590211 0.89526474
00000000: 6f7a 4e40 d00d e53f 0409 933f 843b fd3f
00000010: b53f ba3f 4af8 4040 df54 4a3f 8f9a 9840
00000020: 95c6 2a40 0cf0 0540 b3e1 0a40 5869 093f
00000030: 42cf 0f40 871d 8840 018e 873f 1230 653f

layer1.0.conv1.weight f4 [16, 16, 3, 3]
-0.017189387 0.17491716 -0.14382939 -0.18438913 0.2166333 -0.24587001 -0.26160985 0.39442512
-0.2874889 -0.06021707 -0.15720686 0.028531471 0.09910647 0.08478366 0.27410167 0.041888352
-0.28765932 0.2381064 -0.31209 0.18576455 -0.30782235 -0.17119646 0.265241 -0.117833294
0.06948164 0.10555168 -0.16708465 0.28585437 -0.37941477 0.31300995 0.03354724 -0.31245753
0.04303905 0.14423163 -0.19050139 0.28311896 -0.12464721 -0.039446957 -0.0017925603 -0.06617746
-0.17652348 0.0025267017 -0.078945205 0.0051805545 0.1537244 0.18362015 0.019547971 0.075407594
-0.0040196083 0.015232298 0.078446016 -0.11951935 -0.31322616 -0.035182614 0.14123802 -0.48953795
0.1367409 0.35161862 -0.9322636 0.59041715 0.17266686 -0.40735635 0.24362801 0.1374765
0.22825542 -0.2168908 -0.33137217 -0.0917465 -0.11350596 -0.16871902 0.34232503 -0.24743201
0.1649888 -0.50953984 0.17620541 0.29218322 -0.42819595 0.12460417 0.17228055 -0.5030175
0.35595998 -0.101470225 0.032576352 0.033286292 0.04765938 -0.086004354 0.2801379 0.18038574
0.076668285 0.018895615 -0.04026459 0.09826623 -0.049831156 -0.07842993 0.115942225 -0.054780208
-0.16435249 0.16661337 -0.009143488 0.120281115 -0.22004482 -0.13341682 -0.010192935 -0.06641781
0.03980533 0.08900827 -0.1504249 0.08861837 0.2884652 0.22956276 0.3017768 0.18756644
-0.027831314 0.054588806 -0.16455331 -0.10728501 0.09609442 -0.16106635 0.020069862 -0.21767592
0.35760307 0.20381226 -0.11697727 0.0018231424 0.033270277 -0.16527636 0.1370291 0.1268295
0.027699703 0.16031154 -0.2164142 -0.0012781426 -0.009126268 -0.1940307 0.005298157 -0.1785145
0.08835092 -0.033221457 0.06324409 0.19640264 -0.04278215 -0.016359568 0.042628504 -0.09119242
-0.061831437 0.04074654 0.028988905 0.109170064 -0.18941052 -0.04522174 -1.0231718 0.44119656
0.2698057 -0.23336218 -0.41215917 0.061129306 -0.006365565 0.1286847 0.10848198 0.061717223
0.06098095 0.11144013 -0.08635189 -0.10781342 0.042451154 0.09457734 -0.06583867 -0.09292244
-0.1026645 0.0609415 -0.089911535 0.003067924 0.19361404 -0.23697609 0.22076172 0.08348299
-0.16660625 0.21025053 0.03783532 -0.284565 -0.046289075 0.07078222 -0.104795255 0.05733926
0.07615557 -0.091011174 0.004739756 -0.013622049 0.22316517 0.007249779 -0.082664564 -0.03326994
0.006686197 0.18121317 -0.130197 0.23403448 0.015435402 -0.14483173 0.13100715 -0.25408846
0.12206952 -1.1668494 0.62693286 -0.12804951 0.656463 -0.36690447 0.07238698 0.054579966
-0.008836227 0.38289094 0.106109306 0.023573704 -0.35574073 -0.24965498 -0.107241236 -0.13889605
-0.35547766 0.179713 0.09545812 -0.02114669 0.288669 0.14638272 0.3620694 -0.78358823
0.013184949 -0.13668932 0.03835191 0.08058698 0.03719812 0.02721369 -0.15744913 0.22048219
-0.16579024 0.029059572 -0.16270748 0.11806183 -0.035975743 -0.22827794 0.06925256 -0.057884
0.061819546 -0.051748153 -0.05766958 -0.24159265 -0.26657712 -0.0012058942 0.06197655 0.1409871
-0.040165395 0.009215458 0.23594867 0.21189761 0.27453062 -0.015409601 -0.15846455 -0.14607005
00000000: c2d0 8cbc 7c1d 333e 0348 13be 81d0 3cbe
00000010: 1fd5 5d3e 59c5 7bbe baf1 85be 17f2 c93e
00000020: bf31 93be 2da6 76bd d6fa 20be d5ba e93c
00000030: 55f8 ca3d 0ea3 ad3d 0e57 8c3e 1f93 2b3d
00000040: 1548 93be 2ad2 733e 43ca 9fbe 1039 3e3e
00000050: e49a 9dbe 204e 2fbe abcd 873e 9552 f1bd
00000060: 644c 8e3d 7b2b d83d 3d18 2bbe 815b 923e
00000070: a742 c2be d742 a03e d568 093d 6ffa 9fbe
00000080: b749 303d 75b1 133e cc12 43be f8f4 903e
00000090: 0947 ffbd 2293 21bd 58f4 eaba 0c88 87bd
000000a0: 92c2 34be 0597 253b 06ae a1bd a4c1 a93b
000000b0: ee69 1d3e ec06 3c3e 1123 a03c 4c6f 9a3d
000000c0: ebb6 83bb e390 793c 4ea8 a03d 90c6 f4bd
000000d0: 2e5f a0be a51b 10bd b3a0 103e b8a4 fabe
000000e0: ce05 0c3e 5b07 b43e d4a8 6ebf 9425 173f
000000f0: 95cf 303e 0391 d0be 9f79 793e a4c6 0c3e
00000100: cabb 693e 9f18 5ebe 9da9 a9be 97e5 bbbd
00000110: d075 e8bd aec4 2cbe 3a45 af3e d15e 7dbe
00000120: d3f2 283e 3471 02bf 316f 343e 0a99 953e
00000130: 803c dbbe 7930 ff3d 506a 303e c1c5 00bf
00000140: 6340 b63e 9fcf cfbd c86e 053d 3557 083d
00000150: 7b36 433d 0d23 b0bd 3c6e 8f3e 0ab7 383e
00000160: 4304 9d3d faca 9a3c 7cec 24bd ce3f c93d
00000170: c11b 4cbd df9f a0bd 1e73 ed3d 3661 60bd
00000180: 054c 28be b29c 2a3e 91ce 15bc f255 f63d
00000190: 6e53 61be 6b9e 08be 4500 27bc 1006 88bd
000001a0: ea0a 233d f849 b63d fc08 1abe 8c7d b53d
000001b0: b6b1 933e 8012 6b3e 7d82 9a3e 6b11 403e
000001c0: 7ffe e3bc 8398 5f3d aa80 28be 3eb8 dbbd
000001d0: 27cd c43d 94ee 24be 8d69 a43c 70e6 5ebe
000001e0: c017 b73e 29b4 503e c791 efbd 82f6 ee3a
000001f0: 6a46 083d 353e 29be 5b51 0c3e 98df 013e
00000200: 7dea e23c b528 243e af9b 5dbe 5987 a7ba
00000210: 5886 15bc fcaf 46be 2a9c ad3b 81cc 36be
00000220: 54f1 b43d 3913 08bd 1e86 813d c61d 493e
00000230: 563c 2fbd 8004 86bc 3a9b 2e3d 17c3 babd
00000240: f642 7dbd d8e5 263d 247a ed3c 8e94 df3d
00000250: d5f4 41be 6e3a 39bd 4bf7 82bf 84e4 e13e
00000260: f923 8a3e 7ff6 6ebe 8706 d3be b962 7a3d
00000270: 3b96 d0bb ecc5 033e cd2b de3d 33cb 7c3d
00000280: 29c7 793d b93a e43d 42d9 b0bd 48cd dcbd
00000290: 43e1 2d3d c4b1 c13d 6dd6 86bd 1f4e bebd
000002a0: c441 d2bd cb9d 793d 8a23 b8bd 390f 493b
000002b0: c242 463e dca9 72be 5c0f 623e 21f9 aa3d
000002c0: d49a 2abe ea4b 573e 35f9 1a3d 81b2 91be
000002d0: 9d99 3dbd 45f6 903d e59e d6bd 92dc 6a3d
000002e0: 74f7 9b3d 1164 babd f54f 9b3b 042f 5fbc
000002f0: 6985 643e 8e8f ed3b 0a4c a9bd 1046 08bd
00000300: e317 db3b f28f 393e 5d52 05be bca6 6f3e
00000310: c5e4 7c3c c54e 14be bd26 063e e217 82be
00000320: 96ff f93d 525b 95bf ac7e 203f 691f 03be
00000330: f60d 283f e7da bbbe a03f 943d 3e8f 5f3d
00000340: d2c5 10bc 480a c43e d64f d93d a41d c13c
00000350: a623 b6be 8ea5 7fbe 4ba1 dbbd c43a 0ebe
00000360: 2b01 b6be af06 383e 8c7f c33d d33b adbc
00000370: 6ccc 933e 5ae5 153e 2961 b93e 3d99 48bf
00000380: af05 583c 49f8 0bbe e416 1d3d c90a a53d
00000390: 0e5d 183d 3fef de3c 583a 21be 15c6 613e
000003a0: ebc4 29be 570e ee3c ca9c 26be 67ca f13d
000003b0: 4d5b 13bd b1c1 69be 49d4 8d3d c617 6dbd
000003c0: 7e36 7d3d dff5 53bd f036 6cbd 1064 77be
000003d0: cc7c 88be 180f 9eba 1fdb 7d3d ec5e 103e
000003e0: 7884 24bd 6ffc 163c 879c 713e b0fb 583e
000003f0: 478f 8c3e 8d78 7cbc 8844 22be 6393 15be

layer1.0.bn1.weight f4 [16]
1.2751913 0.99587494 1.0231655 0.77485716 1.0851821 0.8797362 0.8762022 1.0334257
0.90828985 1.1963829 0.89032316 0.753194 0.7706774 0.97159165 1.0484843 0.7727289
00000000: 7839 a33f a9f1 7e3f 16f7 823f 0a5d 463f
00000010: 3fe7 8a3f 6436 613f ca4e 603f 4b47 843f
00000020: af85 683f 1323 993f 38ec 633f 52d1 403f
00000030: 1d4b 453f 3bba 783f bc34 863f 90d1 453f

layer1.0.bn1.bias f4 [16]
-0.12088096 -0.1942037 -0.11711917 -0.10876879 0.13834903 -0.14845745 -0.16982007 -0.060520656
-0.35496983 0.015037168 -0.03454943 -0.119787216 0.21170592 -0.112576716 -0.19759215 -0.16584763
00000000: 7090 f7bd 56dd 46be 2ddc efbd 2cc2 debd
00000010: 5eab 0d3e 3b05 18be 50e5 2dbe 82e4 77bd
00000020: 9bbe b5be 745e 763c b483 0dbd 0053 f5bd
00000030: 70c9 583e 9f8e e6bd 9955 4abe f6d3 29be

layer1.0.bn1.running_mean f4 [16]
-0.78714424 -0.9112519 -0.7070053 -1.3956977 -0.33481306 -0.86005646 -0.58526206 -0.30569452
0.4465174 -0.189693 0.45142412 0.42345858 -0.7404379 -0.7336472 -0.9666652 1.211114
00000000: 4982 49bf ce47 69bf 4dfe 34bf 39a6 b2bf
00000010: 9e6c abbe a92c 5cbf bcd3 15bf fe83 9cbe
00000020: ee9d e43e e23e 42be 1021 e73e 90cf d83e
00000030: 578d 3dbf 4ed0 3bbf 5f77 77bf c905 9b3f

layer1.0.bn1.running_var f4 [16]
7.9070973 1.1793387 1.9196758 1.4045396 1.7801552 2.6403017 0.6377173 2.2451072
0.7222925 7.3496394 1.0464331 1.0536795 1.0526177 2.9278722 1.9968972 0.8210361
00000000: f106 fd40 92f4 963f f0b7 f53f f4c7 b33f
00000010: 20dc e33f b4fa 2840 7141 233f d6af 0f40
00000020: 29e8 383f 3f30 eb40 85f1 853f f8de 863f
00000030: 2dbc 863f 4262 3b40 549a ff3f 6c2f 523f

layer1.0.conv2.weight f4 [16, 16, 3, 3]
-0.115069985 -0.13609512 0.11620836 0.15390976 0.14520544 0.03663924 -0.04119111 0.065155014
0.12860246 0.07155973 0.21277195 -0.0154388575 0.030922245 -0.13001548 0.23135768 0.020869058
-0.20332767 -0.16501531 -0.02846339 -0.036558107 0.0011483484 0.02714216 0.23913157 0.13551937
0.030663587 0.056883853 -0.24434094 -0.05058321 0.11683552 0.10312348 -0.07180187 -0.12581596
-0.06408657 -0.16176362 -0.069168516 -0.27185178 0.3791875 0.41376835 0.20043431 -0.524736
-0.5174498 -0.5660047 0.06494997 0.1006732 0.023775766 -0.10804547 0.021436885 -0.04856507
-0.03777966 -0.026707701 0.0005048507 -0.10588725 -0.013897002 -0.20578347 -0.24736933 -0.050591905
-0.103693396 -0.23511563 0.13749811 0.088266805 0.12892948 -0.093461856 -0.19811612 0.059837654
0.042387046 -0.057585705 0.046645045 0.0031484133 -0.04481908 0.32784975 0.46005365 0.58736575
0.09724817 0.20155288 -0.028224934 -0.10902684 -0.1295328 -0.16787575 -0.10954535 0.112234384
-0.075893484 0.027698072 0.13114572 0.13510533 -0.18954873 -0.26378396 0.02150657 0.11982243
0.07108659 0.09076734 -0.36460927 -0.5013888 -0.21949752 0.43217006 0.44271025 -0.066020004
-0.13818766 -0.25429854 0.118640184 -0.17927818 -0.15323871 -0.25096405 0.02617894 0.0018818167
0.2827722 0.11953943 0.016169544 0.05867949 -0.2563606 -0.25303447 -0.32105446 -0.053182293
0.23712504 0.2639456 0.20683151 0.057944775 -0.12202555 0.073983245 0.093430646 0.14784066
-0.17659253 -0.11609443 -0.3232838 -0.08752905 -0.15026182 -0.13912708 0.02211921 0.07235031
0.16953781 0.028113896 0.08674126 0.2486614 -0.048785847 -0.052260324 -0.074576385 0.1036899
0.066657074 0.08103275 0.12290183 0.12839109 0.1805684 -0.1387237 -0.057525113 0.06940106
0.019198157 -0.044669267 -0.04331568 -0.20219219 -0.08944047 -0.09506558 -0.4987368 -0.22800824
-0.2442444 0.08471884 0.50726956 0.44549164 -0.06410507 0.15039364 0.20517619 -0.12893336
-0.20185873 -0.18647133 0.122271635 0.18803279 0.15869927 0.19199784 0.29404253 0.013611877
0.07504475 -0.2146436 -0.027177487 0.10650229 -0.07887871 0.08531459 -0.04211213 -0.07432264
-0.08745882 -0.21136908 -0.27508298 -0.15417184 0.0050446973 -0.008399845 0.059804022 0.008988901
0.0073461165 -0.054702967 -0.21181202 0.1350138 -0.08693461 -0.047847357 0.044636928 0.059778407
-0.30022946 -0.012722725 -0.17280385 -0.28937727 -0.22382377 -0.4090599 -0.0013944589 -0.08695857
-0.028054075 0.1138623 0.16003922 0.026450386 0.029655801 0.0022182493 -0.14463589 -0.12340553
0.038396552 0.03164479 0.016062057 -0.25335404 -0.010451183 -0.05469025 -0.21124534 -0.22023614
-0.057519615 -0.08961196 -0.072942 -0.015688283 -0.24087243 -0.0015757798 -0.1189087 -0.07870435
-0.18548071 0.015607763 -0.06494238 0.06701678 -0.106715515 -0.24792022 -0.16140062 -0.14054969
-0.19883473 -0.26392722 -0.06696404 0.15808924 0.34093282 0.023128556 -0.074608944 -0.16780595
-0.17226548 -0.27197707 -0.33938208 -0.017920222 0.03848799 0.11698242 0.0756969 0.07692039
0.13024741 0.018771762 -0.060120407 0.094754234 0.03273925 0.052061036 0.10988463 -0.18045238
00000000: d0a9 ebbd 855c 0bbe a6fe ed3d 859a 1d3e
00000010: bcb0 143e 0713 163d 02b8 28bd fe6f 853d
00000020: 5db0 033e e88d 923d e4e0 593e 43f3 7cbc
00000030: a650 fd3c c722 05be 07e9 6c3e 96f5 aa3c
00000040: 2135 50be c6f9 28be 0e2c e9bc f4bd 15bd
00000050: 2e84 963a 3c59 de3c e8de 743e 97c5 0a3e
00000060: 3432 fb3c 0bff 683d 8334 7abe 5730 4fbd
00000070: 7647 ef3d 6732 d33d dc0c 93bd e6d5 00be
00000080: d23f 83bd 5da5 25be 39a8 8dbd 2830 8bbe
00000090: dd24 c23e 72d9 d33e a73e 4d3e 1955 06bf
000000a0: 9777 04bf afe5 10bf 7d04 853d c02d ce3d
000000b0: 65c5 c23c f246 ddbd 689c af3c 2bec 46bd
000000c0: d8be 1abd 1cca dabc f557 043a 6adb d8bd
000000d0: 40b0 63bc e7b8 52be 634e 7dbe 7539 4fbd
000000e0: 345d d4bd 27c2 70be 4ecc 0c3e 3ac5 b43d
000000f0: 1706 043e ee68 bfbd f4de 4abe 5418 753d
00000100: 0a9e 2d3d fdde 6bbd e00e 3f3d 9c55 4e3b
00000110: 3694 37bd ecdb a73e 278c eb3e 9a5d 163f
00000120: 0c2a c73d e163 4e3e fa37 e7bc 7749 dfbd
00000130: 3fa4 04be 9fe7 2bbe 5059 e0bd 24db e53d
00000140: 0b6e 9bbd 11e7 e23c 104b 063e 0d59 0a3e
00000150: 1019 42be b10e 87be 8c2e b03c 7665 f53d
00000160: d995 913d 3ae4 b93d 11ae babe 045b 00bf
00000170: f5c3 60be 6545 dd3e ebaa e23e 7f35 87bd
00000180: 1181 0dbe 6b33 82be a0f9 f23d b394 37be
00000190: 9cea 1cbe 5c7e 80be 3775 d63c 4aa7 f63a
000001a0: 85c7 903e 17d1 f43d fe75 843c e859 703d
000001b0: b241 83be bc8d 81be 4061 a4be add5 59bd
000001c0: e8d0 723e e123 873e a4cb 533e 8057 6d3d
000001d0: 88e8 f9bd 8784 973d 9158 bf3d 8b63 173e
000001e0: acd4 34be ebc2 edbd 7485 a5be 6e42 b3bd
000001f0: 3cde 19be 5477 0ebe 5833 b53c 662c 943d
00000200: 529b 2d3e 1d4f e63c 67a5 b13d 18a1 7e3e
00000210: abd3 47bd ec0e 56bd 81bb 98bd 5f5b d43d
00000220: 8183 883d 80f4 a53d f4b3 fb3d f478 033e
00000230: ece6 383e 960d 0ebe 749f 6bbd 2522 8e3d
00000240: 7445 9d3c 1ff7 36bd c86b 31bd 780b 4fbe
00000250: 912c b7bd beb1 c2bd 6e5a ffbe fe7a 69be
00000260: 341b 7abe 1281 ad3d 6bdc 013f 7b17 e43e
00000270: 8549 83bd ca00 1a3e b519 523e 1b07 04be
00000280: 0eb4 4ebe 57f2 3ebe 8d69 fa3d ab8b 403e
00000290: 1082 223e 159b 443e be8c 963e 5a04 5f3c
000002a0: 10b1 993d 88cb 5bbe 52a3 debc df1d da3d
000002b0: 298b a1bd 6ab9 ae3d c57d 2cbd 7836 98bd
000002c0: 9c1d b3bd 2371 58be add7 8cbe 39df 1dbe
000002d0: fd4d a53b 819f 09bc 10f5 743d 2f46 133c
000002e0: b1b7 f03b 3810 60bd 40e5 58be 0f41 0a3e
000002f0: c60a b2bd 97fb 43bd 36d5 363d 34da 743d
00000300: adb7 99be fa72 50bc 7ef3 30be 4229 94be
00000310: 0f32 65be 4d70 d1be 47c6 b6ba 5617 b2bd
00000320: a9d1 e5bc a330 e93d 52e1 233e 7bae d83c
00000330: b9f0 f23c 0c60 113b 6e1b 14be 0abc fcbd
00000340: b445 1d3d f89d 013d 9394 833c 9fb7 81be
00000350: 703b 2bbc e202 60bd b350 58be 9585 61be
00000360: b099 6bbd 7a86 b7bd 9e62 95bd b784 80bc
00000370: 43a7 76be 658a ceba 6886 f3bd bf2f a1bd
00000380: a8ee 3dbe b4b7 7f3c 8300 85bd 1840 893d
00000390: aa8d dabd ccde 7dbe 3446 25be 42ec 0fbe
000003a0: 559b 4bbe 7821 87be 7124 89bd 25e2 213e
000003b0: bf8e ae3e 1978 bd3c 93cc 98bd 53d5 2bbe
000003c0: 5d66 30be 9440 8bbe 7dc3 adbe 6ecd 92bc
000003d0: 95a5 1d3d 7b94 ef3d fa06 9b3d 7088 9d3d
000003e0: 945f 053e 3dc7 993c d140 76bd 820e c23d
000003f0: 9819 063d f43d 553d 310b e13d 82c8 38be

layer1.0.bn2.weight f4 [16]
1.208254 1.141041 1.0634221 0.830537 1.1647134 0.98093355 1.0814459 0.8099191
1.1093955 1.0350467 1.0802873 0.9814731 1.7459992 0.91087157 0.96599567 0.8996104
00000000: 11a8 9a3f a20d 923f 371e 883f 139e 543f
00000010: 5415 953f 761e 7b3f d26c 8a3f dc56 4f3f
00000020: ac00 8e3f 697c 843f db46 8a3f d241 7b3f
00000030: e77c df3f e12e 693f 7e4b 773f de4c 663f

layer1.0.bn2.bias f4 [16]
-0.06847647 0.3833129 -0.4243724 0.060668994 0.24850358 0.49972844 -0.17123891 -0.19007121
-0.22465648 0.019779408 0.03355937 0.08911594 0.16945714 0.0023654702 0.32182437 0.008200767
00000000: 643d 8cbd 9741 c43e 5747 d9be 0d80 783d
00000010: b977 7e3e 68dc ff3e 4159 2fbe 07a2 42be
00000020: 590c 66be 6d08 a23c 8d75 093d 6b82 b63d
00000030: 2c86 2d3e 0106 1b3b 2ac6 a43e 835c 063c

layer1.0.bn2.running_mean f4 [16]
-0.15225911 -1.0191566 -0.17599422 0.12750034 -1.2050469 -1.5188792 0.3907889 0.7877703
-0.49533635 0.5440407 -0.16375192 -1.0890346 -1.1585459 0.45599842 -0.27989835 -0.32949635
00000000: d0e9 1bbe b973 82bf d437 34be 738f 023e
00000010: fa3e 9abf a26a c2bf 7c15 c83e 50ab 493f
00000020: ba9c fdbe 4046 0b3f 95ae 27be 7c65 8bbf
00000030: 3b4b 94bf a078 e93e d64e 8fbe bfb3 a8be

layer1.0.bn2.running_var f4 [16]
2.2461984 2.150832 1.175773 1.3652002 1.995658 1.4470679 1.432483 1.2256744
1.8345705 1.1654665 2.5401611 0.9860718 5.2408876 1.4543842 1.2527544 1.1792437
00000000: b7c1 0f40 3ba7 0940 bb7f 963f e1be ae3f
00000010: b971 ff3f 8539 b93f 9a5b b73f e6e2 9c3f
00000020: 35d3 ea3f 022e 953f 0092 2240 346f 7c3f
00000030: 5ab5 a740 4329 ba3f 425a a03f 75f1 963f

layer2.0.conv1.weight f4 [32, 16, 3, 3]
0.11167444 -0.047902416 -0.06678248 -0.09891637 -0.012885371 -0.030013932 -0.18379596 0.030572457
0.10707622 0.045028284 0.25727227 0.08091391 0.060665537 0.009506866 -0.013342951 0.09110623
0.08419715 0.06330111 0.03127932 -0.00025297253 -0.016342644 0.017028796 -0.17156258 -0.09131981
-0.18218607 -0.19680734 -0.008927957 0.22481473 0.06476167 -0.039794594 0.07416647 -0.013152388
-0.11256069 0.0192354 -0.033122174 -0.1277841 -0.08383725 -0.07257447 0.09384499 -0.17449714
-0.049890775 -0.029376037 -0.21506703 0.05647404 0.09909146 -0.17053431 -0.21833673 -0.13793583
-0.28725776 -0.16856515 -0.068593286 -0.10625075 0.17834294 0.17172621 -0.08372012 -0.006710542
-0.030815171 0.03478421 0.038298745 -0.04698183 0.034825355 -0.04641538 -0.08366138 0.11152639
-0.03630101 -0.25995737 -0.15434575 -0.31412604 -0.2257263 -0.13318029 -0.16600153 -0.0014104155
-0.04377954 0.12530988 -0.0053245043 -0.008312816 0.04870794 -0.030845327 -0.0664399 -0.061245058
-0.092684485 -0.050924223 -0.002457998 0.015932852 -0.03108136 0.15498038 0.055400137 0.087156676
0.08873638 0.048519425 -0.045497384 -0.22417068 -0.19429605 -0.16709326 -0.26765138 -0.26284966
-0.19978109 -0.12670179 0.074348554 0.072449744 0.059465643 -0.012731095 0.057491016 0.056471407
-0.15241608 0.1596302 0.015017758 -0.08651481 -0.04495726 -0.032452535 0.017383765 -0.056456354
0.03939754 0.046739955 0.03926615 0.012394426 0.009690162 0.103240155 -0.050754223 -0.14301711
0.0003176976 -0.037363537 -0.12781596 -0.06789311 -0.027560292 -0.07673754 0.12638198 0.09221969
0.15049453 0.14623435 0.13108669 -0.05829546 0.00880839 -0.048007566 -0.063148186 -0.021777537
0.02735966 -0.02000606 0.037413206 0.07004743 -0.084293246 0.040492166 0.08421555 -0.026439099
0.028579867 0.13711335 0.14465182 -0.04561693 0.030016547 0.11048602 -0.05412747 -0.04038479
0.07954843 -0.08006429 -0.29010728 -0.31706423 -0.073204204 -0.2558302 -0.21631433 0.013384521
-0.14368202 -0.06275623 -0.025375294 0.031105924 0.09667095 0.15422045 0.22310832 0.22632203
0.16584975 0.31495646 0.18386528 0.014281643 -0.017733736 0.1792779 -0.023704905 0.03545428
0.077340655 0.036445443 -0.05918683 0.014127216 0.06464544 0.027335698 0.081739925 0.056910746
-0.05492292 -0.03848107 0.17421533 -0.010966172 0.06780382 0.008955273 -0.00146776 0.114514776
-0.09552442 -0.121354975 0.0022175724 0.10086998 -0.057602238 -0.05286221 0.20077136 0.09271446
0.13164468 0.028874429 -0.07743872 0.031901564 -0.118026674 -0.11022522 -0.0034662723 -0.018729487
-0.032196164 -0.14673026 -0.15310559 -0.040720314 -0.026348716 -0.24767368 -0.13691524 0.039466605
-0.034024287 -0.09733499 -0.23115796 0.08830065 -0.14674328 -0.18649933 0.1369127 -0.059304427
-0.068466224 -0.24097632 -0.25027102 -0.10063515 -0.10432371 -0.32384616 -0.18757537 -0.14808846
-0.18497215 -0.09497168 0.123637795 0.11270825 0.02111792 0.01948388 -0.058795463 -0.06904012
0.0012845926 -0.14103875 -0.10199882 0.15815736 -0.05103373 -0.07233792 0.09218862 -0.088123135
-0.15968914 0.0839339 0.12521863 0.053533636 -0.007915922 -0.16429122 -0.051808428 -0.14917736
00000000: 92b5 e43d 5335 44bd 41c5 88bd aa94 cabd
00000010: 2a1d 53bc c7df f5bc 0235 3cbe 1773 fa3c
00000020: c74a db3d 946f 383d 31b9 833e 31b6 a53d
00000030: 6d7c 783d b0c2 1b3c 659c 5abc e795 ba3d
00000040: 8e6f ac3d 03a4 813d bf1e 003d 66a1 84b9
00000050: 02e1 85bc f97f 8b3c 1aae 2fbe e105 bbbd
00000060: fc8e 3abe dd87 49be 9146 12bc d535 663e
00000070: c4a1 843d a8ff 22bd 97e4 973d 1d7d 57bc
00000080: 3886 e6bd 8f93 9d3c 1eab 07bd d6d9 02be
00000090: ddb2 abbd eca1 94bd cd31 c03d 61af 32be
000000a0: 455a 4cbd 04a6 f0bc 883a 5cbe 5351 673d
000000b0: 77f0 ca3d 8ca0 2ebe aa93 5fbe 0d3f 0dbe
000000c0: 7313 93be 589c 2cbe a37a 8cbd fe99 d9bd
000000d0: 889f 363e ffd8 2f3e 7475 abbd 1be4 dbbb
000000e0: 1970 fcbc e379 0e3d 25df 1c3d 0570 40bd
000000f0: 08a5 0e3d 0e1e 3ebd a856 abbd f367 e43d
00000100: 5eb0 14bd 2219 85be d00c 1ebe 21d5 a0be
00000110: cc24 67be 6a60 08be 4efc 29be b1dd b8ba
00000120: 2d52 33bd 3c51 003e 2e79 aebb 7a32 08bc
00000130: fa81 473d 57af fcbc a411 88bd 19dc 7abd
00000140: 5dd1 bdbd eb95 50bd 5d16 21bb 9d85 823c
00000150: 569e febc 2db3 1e3e 41eb 623d 337f b23d
00000160: 6bbb b53d 4ebc 463d 775b 3abd 008d 65be
00000170: 8bf5 46be 7f1a 2bbe 9a09 89be 3b94 86be
00000180: 6a93 4cbe 1dbe 01be 0e44 983d 8860 943d
00000190: 3f92 733d 1596 50bc b37b 6b3d 904e 673d
000001a0: f612 1cbe 1976 233e 0b0d 763c ad2e b1bd
000001b0: 1b25 38bd f3ec 04bd 6668 8e3c c73e 67bd
000001c0: 515f 213d 6572 3f3d 8bd5 203d fe11 4b3c
000001d0: 7cc3 1e3c 936f d33d a9e3 4fbd 1473 12be
000001e0: a690 a639 820a 19bd 30e2 02be 8b0b 8bbd
000001f0: 1fc6 e1bc 9228 9dbd 476a 013e addd bc3d
00000200: 3d1b 1a3e 75be 153e 973b 063e 38c7 6ebd
00000210: 1151 103c 95a3 44bd d653 81bd ce66 b2bc
00000220: 5e21 e03c c0e3 a3bc 973e 193d 0775 8f3d
00000230: f0a1 acbd 1ddb 253d 3479 ac3d cf96 d8bc
00000240: 5320 ea3c 7167 0c3e 9b1f 143e d1d8 3abd
00000250: 43e5 f53c 7f46 e23d c4b4 5dbd 866a 25bd
00000260: 4aea a23d bff8 a3bd f188 94be 3e56 a2be
00000270: 16ec 95bd 2dfc 82be 8181 5dbe c04a 5b3c
00000280: 6121 13be 5786 80bd d9df cfbc dad1 fe3c
00000290: 6bfb c53d f7eb 1d3e 8276 643e f6c0 673e
000002a0: 84d4 293e f941 a13e 2e47 3c3e 8dfd 693c
000002b0: 5746 91bc a094 373e ca30 c2bc 8238 113d
000002c0: c764 9e3d d147 153d e46d 72bd d775 673c
000002d0: d464 843d 1def df3c 4367 a73d 3e1b 693d
000002e0: dbf6 60bd 549e 1dbd 8165 323e 76ab 33bc
000002f0: bbdc 8a3d 23b9 123c da61 c0ba b986 ea3d
00000300: 4fa2 c3bd f588 f8bd b154 113b ec94 ce3d
00000310: 53f0 6bbd 0b86 58bd 0297 4d3e 14e1 bd3d
00000320: ddcd 063e 118a ec3c 3198 9ebd 37ab 023d
00000330: f8b7 f1bd c3bd e1bd 662a 63bb 956e 99bc
00000340: 20e0 03bd 7540 16be b6c7 1cbe 58ca 26bd
00000350: 43d9 d7bc 2b9e 7dbe 8233 0cbe bca7 213d
00000360: 0d5d 0bbd 9157 c7bd acb4 6cbe f9d6 b43d
00000370: df43 16be aef9 3ebe d832 0c3e 33e9 72bd
00000380: 0538 8cbd 7fc2 76be 8623 80be cd19 cebd
00000390: aba7 d5bd 2acf a5be c213 40be 80a4 17be
000003a0: 5769 3dbe 8380 c2bd d035 fd3d 95d3 e63d
000003b0: 7dff ac3c a89c 9f3c 83d3 70bd e864 8dbd
000003c0: c65f a83a 766c 10be c2e4 d0bd 01f4 213e
000003d0: bf08 51bd e725 94bd 63cd bc3d e779 b4bd
000003e0: 8d85 23be 89e5 ab3d 5039 003e 1646 5b3d
000003f0: c9b1 01bc f53b 28be 1335 54bd f3c1 18be

layer2.0.bn1.weight f4 [32]
0.92731863 0.7462537 0.7919374 0.72659814 0.88566554 0.57723904 0.814716 1.0735865
1.0771929 0.78534234 0.9632818 0.9915152 0.8577213 0.68042135 0.8372723 0.6765382
0.907385 0.9057021 0.9079447 0.8579315 0.7502305 1.0514076 0.8222844 0.78044957
0.761907 0.9128398 0.6960271 1.1343614 0.6668528 0.944185 0.75354695 0.7631556
00000000: c164 6d3f 7c0a 3f3f 69bc 4a3f 5602 3a3f
00000010: faba 623f f0c5 133f 3a91 503f 486b 893f
00000020: 75e1 893f 320c 493f a399 763f f1d3 7d3f
00000030: a093 5b3f 1830 2e3f 7a57 563f 9c31 2d3f
00000040: 624a 683f 18dc 673f 106f 683f 66a1 5b3f
00000050: 1b0f 403f 8694 863f 3b81 523f 8bcb 473f
00000060: 560c 433f deaf 693f d52e 323f c132 913f
00000070: ddb6 2a3f 1cb6 713f 74e8 403f 2a5e 433f

layer2.0.bn1.bias f4 [32]
-0.15020724 0.1805042 -0.099836975 -0.13323708 -0.049578033 0.15486379 -0.04602249 -0.03176375
-0.13095729 0.02346376 0.011214409 -0.18741627 -0.21469988 -0.083393306 0.09159516 -0.09318369
-0.25311574 -0.07633165 -0.07093994 -0.19930476 -0.0013781493 -0.050087426 -0.29283592 -0.08620446
-0.28259054 -0.3438481 -0.068042696 -0.49938112 -0.127715 -0.05230042 -0.09598463 -0.2507354
00000000: edcf 19be 18d6 383e 5477 ccbd 4d6f 08be
00000010: 5612 4bbd 9d94 1e3e 1482 3cbd b51a 02bd
00000020: ab19 06be 1237 c03c a4bc 373c 0dea 3fbe
00000030: 49da 5bbe 1cca aabd 3e96 bb3d 17d7 bebd
00000040: 6398 81be c553 9cbd f648 91bd 8c16 4cbe
00000050: 04a3 b4ba 7928 4dbd 97ee 95be f78b b0bd
00000060: b5af 90be dc0c b0be f859 8bbd e2ae ffbe
00000070: b9c7 02be f738 56bd 9793 c4bd 6460 80be

layer2.0.bn1.running_mean f4 [32]
-1.7429259 -2.9984438 -1.8011307 2.4851687 -2.108365 -0.31291786 1.3627797 -2.924913
-3.7921584 -1.1940991 -2.9436488 -2.41267 -0.93613356 0.6832144 -1.631003 0.23557499
-1.7534292 2.377835 -0.2035013 -0.9638204 2.1926367 -1.776193 -0.75730747 -1.3430707
-1.1517664 0.28668112 -1.295209 0.06035692 -0.4878709 -0.06700945 1.6274823 2.3517022
00000000: 3218 dfbf 81e6 3fc0 738b e6bf 010d 1f40
00000010: 74ef 06c0 c536 a0be 916f ae3f c631 3bc0
00000020: b9b2 72c0 3dd8 98bf be64 3cc0 2f69 1ac0
00000030: 73a6 6fbf 24e7 2e3f b5c4 d0bf 923a 713e
00000040: 5e70 e0bf 732e 1840 a562 50be efbc 76bf
00000050: 2954 0c40 4b5a e3bf e7de 41bf bee9 abbf
00000060: 156d 93bf dec7 923e 69c9 a5bf d138 773d
00000070: 37ca f9be 403c 89bd 5751 d03f 4a82 1640

layer2.0.bn1.running_var f4 [32]
2.0938907 4.0543003 2.3872085 1.6667601 3.040537 2.9436355 2.6167407 5.1712794
5.096165 3.160358 4.130124 2.38798 2.8737695 3.3806074 4.117686 2.2188847
2.5120192 2.787361 2.4131155 2.2844121 3.6549835 4.5655737 2.1477032 2.5109284
2.2631452 2.2375271 2.4976676 4.7332544 1.840644 3.085493 2.7746537 3.0995655
00000000: 4e02 0640 d4bc 8140 06c8 1840 6558 d53f
00000010: 2998 4240 8664 3c40 ae78 2740 1f7b a540
00000020: c913 a340 4e43 4a40 fa29 8440 aad4 1840
00000030: d7eb 3740 df5b 5840 15c4 8340 3502 0e40
00000040: ecc4 2040 1f64 3240 7c70 1a40 cf33 1240
00000050: 40eb 6940 2e19 9240 f873 0940 0db3 2040
00000060: 5fd7 1040 a533 0f40 c9d9 1f40 d276 9740
00000070: 399a eb3f b878 4540 ed93 3140 485f 4640

layer2.0.conv2.weight f4 [32, 32, 3, 3]
0.30595553 0.06276368 -0.19643386 0.09751403 -0.038476575 -0.11029378 0.0079291025 -0.09955254
-0.1481534 -0.03348946 -0.13743915 -0.0048109754 -0.17167088 -0.15465455 -0.06627162 -0.099338554
-0.121492095 0.033840768 -0.061411466 0.064602256 -0.14353952 0.08471196 -0.057420984 0.07443446
0.0850677 -0.031277943 0.028901728 -0.15970787 -0.24982238 -0.08026832 -0.24736102 -0.18627176
-0.023712289 -0.015339379 -0.08330014 -0.007400577 -0.17400374 0.09932281 0.18087369 -0.26174408
-0.15233094 -0.14860976 -0.19714531 -0.053727668 -0.17946579 0.27940866 0.074901104 0.11302704
0.12616597 0.01572906 -0.069457985 -0.049055986 -0.1590862 -0.13195294 -0.15666728 -0.11460958
0.30349267 -0.074956246 -0.114284866 -0.026906686 0.043365728 -0.11755047 -0.052991442 0.18882127
-0.11497661 -0.27596158 0.12238244 0.072394855 0.04931469 -0.02880734 -0.065694034 0.034952663
0.0270978 -0.00950375 0.15997818 0.035338376 -0.05016689 0.16167122 -0.13456531 -0.16361585
0.01935942 0.008173405 0.044143923 0.07658908 -0.10175675 -0.044460576 -0.026964353 -0.028762212
0.055232614 0.013002652 0.025205191 0.004995824 0.122325495 0.030349197 0.10699177 0.06148323
0.028861195 0.014325776 0.09561677 -0.22716261 -0.15472162 -0.036065802 -0.23113126 -0.1915443
-0.29705307 -0.21142887 -0.119952776 -0.2098293 0.069610156 0.10410189 0.039520223 -0.0057268506
0.019252038 -0.009874756 -0.04228017 0.042256314 0.013229751 0.024296237 0.19782506 0.16760126
0.15803888 0.3150329 0.15499543 0.06813923 -0.010465407 -0.089492075 0.17185938 -0.22630209
-0.286883 -0.042614333 -0.19213937 -0.24584821 0.020328619 0.0004215925 0.03192114 0.021740457
-0.014798523 -0.057060245 0.06830043 -0.06381723 -0.08253267 0.30138704 0.12609656 0.14975934
-0.067777716 -0.14708622 -0.0117588695 -0.043924138 -0.026552513 -0.11176733 -0.07324082 -0.10209308
-0.13794264 -0.19453464 -0.10945793 -0.08585229 -0.09873751 0.020026062 0.060701646 -0.18941262
-0.062891275 0.008612136 -0.025085203 0.014926298 0.1700072 0.004368665 0.08189765 -0.014033866
-0.101722956 -0.17687823 -0.22067064 0.12337268 -0.17178458 0.033627573 -0.09093883 -0.1396496
-0.10358316 0.12486485 -0.05975963 -0.028461542 0.022384565 0.011661848 0.28508937 -0.07890949
0.009287033 0.10500088 -0.0011638103 -0.061965976 0.07654823 -0.06598485 -0.0012087943 0.18644768
0.15566856 -0.11047098 0.2567239 0.14324827 -0.04571117 0.017757522 -0.1513788 -0.07533173
0.08478803 -0.09427889 -0.0848387 0.14379774 0.10100693 -0.009685306 0.078803025 -0.061934963
-0.11656946 -0.06369888 -0.12579075 -0.20125078 -0.20911424 -0.110140845 -0.07864338 -0.049364056
0.01213771 -0.0033178295 0.0036625594 0.0070439545 0.002171972 0.096453704 0.08492422 -0.0011884188
-0.0022455002 -0.07742216 -0.094516926 -0.06501281 0.024405824 -0.003579188 -0.075595684 0.2533834
0.12516585 0.14069468 0.32828715 0.08327035 -0.09946232 0.11380106 0.084714234 -0.08923931
-0.009394079 -0.05301482 -0.045539625 0.09675747 -0.110478096 -0.15004826 -0.08683615 -0.15477514
-0.17791685 -0.09834258 -0.11879303 -0.05141257 0.05270921 -0.056532025 0.010738905 -0.012158451
00000000: 34a6 9c3e 3f8a 803d f525 49be 70b5 c73d
00000010: 9d99 1dbd b5e1 e1bd 11e9 013c 34e2 cbbd
00000020: 86b5 17be 3e2c 09bd d9bc 0cbe 63a5 9dbb
00000030: 7eca 2fbe c35d 1ebe 6ab9 87bd 0372 cbbd
00000040: d9d0 f8bd 9e9c 0a3d 978a 7bbd 304e 843d
00000050: 06fc 12be 777d ad3d 4432 6bbd 1871 983d
00000060: f937 ae3d 4d1d 00bd 51c3 ec3c 768a 23be
00000070: 70d1 7fbe b863 a4bd 354c 7dbe 06be 3ebe
00000080: 4640 c2bc 0552 7bbc 4499 aabd 8a80 f2bb
00000090: 092e 32be c269 cb3d f436 393e 5203 86be
000000a0: a4fc 1bbe 282d 18be 76e0 49be 8b11 5cbd
000000b0: e1c5 37be a70e 8f3e c065 993d b97a e73d
000000c0: a731 013e 3bda 803c fd3f 8ebd eeee 48bd
000000d0: 7ee7 22be ac1e 07be 636d 20be 6db8 eabd
000000e0: 6463 9b3e a982 99bd 2f0e eabd 696b dcbc
000000f0: 43a0 313d 4dbe f0bd 8e0d 59bd 5d5a 413e
00000100: db78 ebbd d64a 8dbe a5a3 fa3d c143 943d
00000110: 33fe 493d 5ffd ebbc 988a 86bd 862a 0f3d
00000120: 35fc dd3c 9eb5 1bbc 52d1 233e f9be 103d
00000130: cc7b 4dbd 248d 253e 7dcb 09be ea8a 27be
00000140: a597 9e3c bfe9 053c 42d0 343d bcda 9c3d
00000150: d865 d0bd 4b1c 36bd 59e4 dcbc bb9e ebbc
00000160: 983b 623d 1309 553c 1e7b ce3c 02b4 a33b
00000170: ca85 fa3d e19e f83c 801e db3d d7d5 7b3d
00000180: 506e ec3c a9b6 6a3c bad2 c33d 519d 68be
00000190: 586f 1ebe bcb9 13bd acad 6cbe 3024 44be
000001a0: 5717 98be cf80 58be cda9 f5bd 7edd 56be
000001b0: c58f 8e3d 5f33 d53d f5df 213d 4ea8 bbbb
000001c0: 73b6 9d3c bbc9 21bc f92d 2dbd f514 2d3d
000001d0: 99c1 583c e708 c73c a792 4a3e aa9f 2b3e
000001e0: f2d4 213e fe4b a13e 1fb7 1e3e 958c 8b3d
000001f0: 1977 2bbc 9f47 b7bd e8fb 2f3e bcbb 67be
00000200: 54e2 92be 5e8c 2ebd 2fc0 44be a2bf 7bbe
00000210: 3488 a63c 3009 dd39 bebf 023d 0b19 b23c
00000220: 8175 72bc 01b8 69bd 19e1 8b3d 9cb2 82bd
00000230: e306 a9bd 674f 9a3e 751f 013e 835a 193e
00000240: 0bcf 8abd c59d 16be 46a8 40bc cce9 33bd
00000250: a884 d9bc 45e6 e4bd 48ff 95bd 2d16 d1bd
00000260: d640 0dbe 1734 47be 7b2b e0bd 53d3 afbd
00000270: e436 cabd b20d a43c 4aa2 783d 62f5 41be
00000280: 24cd 80bd eb19 0d3c 7c7f cdbc 6e8d 743c
00000290: 5e16 2e3e 0527 8f3b f5b9 a73d 4dee 65bc
000002a0: 2054 d0bd 911f 35be 7cf7 61be d1aa fc3d
000002b0: 4ce8 2fbe 11bd 093d 233e babd 4e00 0fbe
000002c0: 6823 d4bd 24b9 ff3d 84c6 74bd 2e28 e9bc
000002d0: d65f b73c 5611 3f3c 3cf7 913e 4c9b a1bd
000002e0: a428 183c b40a d73d fe8a 98ba 09d0 7dbd
000002f0: 52c5 9c3d 1123 87bd 6870 9eba 24ec 3e3e
00000300: 9467 1f3e 9c3e e2bd 5171 833e adaf 123e
00000310: a33b 3bbd 3978 913c 0b03 1bbe 8647 9abd
00000320: 59a5 ad3d 4a15 c1bd eabf adbd b73f 133e
00000330: b9dc ce3d 1eaf 1ebc 7b63 a13d 84af 7dbd
00000340: f8bb eebd 8f74 82bd 4acf 00be af14 4ebe
00000350: 0b22 56be 8691 e1bd c80f a1bd f731 4abd
00000360: 3fdd 463c f16f 59bb 8d07 703b f9d0 e63b
00000370: a557 0e3b 8589 c53d c0ec ad3d b8c4 9bba
00000380: 3e29 13bb 828f 9ebd 1792 c1bd 7025 85bd
00000390: b9ee c73c cf90 6abb e9d1 9abd 78bb 813e
000003a0: 7a2b 003e 4412 103e 4115 a83e a589 aa3d
000003b0: e7b2 cbbd 8810 e93d a87e ad3d 19c3 b6bd
000003c0: a0e9 19bc 1126 59bd c287 3abd c828 c63d
000003d0: 5742 e2bd 40a6 19be 27d7 b1bd 607d 1ebe
000003e0: d62f 36be d667 c9bd c349 f3bd fd95 52bd
000003f0: 9de5 573d 208e 67bd 3bf2 2f3c 3d34 47bc

layer2.0.bn2.weight f4 [32]
1.165753 0.91408944 0.9925804 1.1592778 1.1970241 1.1683617 0.9969154 1.0156808
1.1069597 1.2934151 1.1622596 0.96397924 1.2541234 1.0498456 1.1864607 0.8734492
1.0128925 1.1778069 1.1715715 0.91521305 1.0047876 0.8847153 1.2284464 0.9748193
0.9219581 1.3083725 0.88232476 1.1705942 1.2560494 1.086243 1.1352972 1.1847836
00000000: 6537 953f c401 6a3f c019 7e3f 3763 943f
00000010: 1638 993f e08c 953f d935 7f3f d401 823f
00000020: dbb0 8d3f a08e a53f ecc4 943f 58c7 763f
00000030: 1e87 a03f 5761 863f f2dd 973f 5e9a 5f3f
00000040: 76a6 813f 60c2 963f 0ef6 953f 674b 6a3f
00000050: e19c 803f b47c 623f bb3d 9d3f c28d 793f
00000060: 7205 6c3f c078 a73f 09e0 613f 08d6 953f
00000070: 3ac6 a03f 030a 8b3f 6b51 913f fda6 973f

layer2.0.bn2.bias f4 [32]
-0.23702882 0.0025200879 -0.07896502 -0.08338717 -0.08248874 -0.057506822 -0.0012104546 0.0009935374
-0.030617988 -0.26758125 -0.15080707 -0.10636462 0.04565975 -0.07290363 -0.16965035 -0.07553644
-0.027855216 -0.14511618 -0.0319561 -0.13249308 -0.07119086 -0.06183298 -0.069185056 0.042800933
0.05805573 -0.23429124 0.082868256 -0.09498375 -0.21119288 -0.12859692 -0.18610185 -0.06447916
00000000: afb7 72be 0f28 253b 6ab8 a1bd e5c6 aabd
00000010: dbef a8bd 468c 6bbd 1ea8 9eba 9539 823a
00000020: 93d2 fabc 6900 89be 2b6d 1abe b2d5 d9bd
00000030: b805 3b3d 804e 95bd d2b8 2dbe d9b2 9abd
00000040: 9f30 e4bc 5699 14be 66e4 02bd 44ac 07be
00000050: 83cc 91bd 9444 7dbd e5b0 8dbd 0850 2f3d
00000060: d8cb 6d3d 0bea 6fbe d5b6 a93d d786 c2bd
00000070: f242 58be e9ae 03be 7c91 3ebe a60d 84bd

layer2.0.bn2.running_mean f4 [32]
-1.7097713 -0.62871945 0.9587174 -0.3524761 0.23438837 -1.9965646 0.46891916 0.97523266
-0.74247414 -1.8298665 -1.3281776 -0.690402 -1.6131711 -2.3887389 -1.4647518 -0.34434918
-1.0910116 -0.84707284 -1.5729935 -0.09947416 1.1270187 -0.7965055 -1.0408031 0.019873409
-2.420273 -0.98322856 0.3004518 -1.020456 -3.023644 -0.37807587 -0.95045984 -0.38499033
00000000: c9d9 dabf c2f3 20bf 816e 753f bf77 b4be
00000010: 8103 703e 6e8f ffbf 2c16 f03e d9a8 793f
00000020: c912 3ebf 1139 eabf b901 aabf 2fbe 30bf
00000030: 647c cebf 19e1 18c0 fd7c bbbf 894e b0be
00000040: 45a6 8bbf c4d9 58bf da57 c9bf 1cb9 cbbd
00000050: 2642 903f c9e7 4bbf 0939 85bf 8fcd a23c
00000060: c1e5 1ac0 deb4 7bbf d1d4 993e 4d9e 82bf
00000070: 6283 41c0 2993 c1be 5651 73bf 741d c5be

layer2.0.bn2.running_var f4 [32]
1.5912898 1.4564257 0.94511837 1.0724947 1.3308245 1.7346603 1.344657 0.9334836
1.4924028 1.200982 1.1312748 0.94450045 1.2750485 1.816067 1.5179161 0.9453434
1.3677089 1.4877582 1.0745999 0.7691763 0.85373515 1.1243415 1.2205043 1.0788343
1.6520355 1.4587891 1.0052533 1.3579392 1.5049216 1.1506664 1.2155691 1.7425394
00000000: 62af cb3f 286c ba3f 47f3 713f 8247 893f
00000010: 7558 aa3f 5909 de3f b81d ac3f c8f8 6e3f
00000020: 0e07 bf3f c7b9 993f 9dcd 903f c8ca 713f
00000030: ca34 a33f e274 e83f 134b c23f 0602 723f
00000040: 1611 af3f dc6e be3f 7d8c 893f bde8 443f
00000050: 638e 5a3f 6cea 8f3f 7c39 9c3f 3e17 8a3f
00000060: e675 d33f 9ab9 ba3f 24ac 803f f4d0 ad3f
00000070: 45a1 c03f 0949 933f c597 9b3f 880b df3f

layer2.0.downsample.0.weight f4 [32, 16, 1, 1]
-0.083276644 0.19752027 -0.1359435 -0.2479685 -0.28615043 -0.20814788 -0.11441133 -0.16990669
-0.26521382 -0.0015039669 -0.17885292 0.15882891 0.00058391714 -0.3348134 -0.10094434 -0.1909031
-0.07909521 -0.17630342 0.022533597 -0.09996985 0.07091465 0.09971108 -0.035825536 -0.124200955
-0.54637504 0.06671762 -0.1058668 0.14325097 -0.0642096 -0.52291924 0.023914853 -0.002468384
0.046205968 -0.038281266 0.2121498 -0.121757306 -0.15335247 -0.13597137 0.47169146 -0.13512394
-0.0503423 0.42821243 0.19808814 -0.45481747 0.04335355 0.24117716 0.20439054 0.07564782
0.14917834 0.15819903 -0.043282755 0.14345363 0.40922603 0.3160352 0.35538644 -0.21907137
0.13729493 0.23216692 0.14755271 -0.023360495 -0.11691115 0.16387136 -0.3091629 -0.2942913
-0.10265751 0.16615853 -0.16421382 -0.1547282 0.2728357 0.31089103 -0.31118435 -0.00058501546
-0.17071491 0.027257914 -0.105148494 -0.14206816 -0.15822707 -0.23115437 -0.2322835 0.21998242
0.1869081 -0.051370773 0.14965312 0.35419923 -0.0671433 -0.03817403 0.4612726 0.06961128
-0.001375821 0.06558766 0.17708068 -0.28550282 0.13540888 -0.026897851 -5.005386e-05 -0.30261856
-0.21251844 0.12784053 0.22729078 -0.03993206 -0.27654162 -0.2655661 0.35979605 0.1246209
0.28818467 0.085694976 -0.4112061 -0.08156601 0.0998895 0.160427 -0.101791285 0.1668385
-0.31452906 -0.011560003 0.011849254 -0.20508227 0.20118773 -0.08676207 0.011261713 -0.05341525
-0.17832497 -0.10284404 -0.068443276 0.3693979 -0.4190865 0.12556636 0.11773774 0.15573357
-0.14426136 0.401454 -0.017591713 0.24448122 0.048373096 0.050865043 -0.23834015 -0.35831264
0.16984347 -0.30507752 -0.11237779 0.10315937 0.1803944 0.04579934 -0.4068233 -0.025536248
0.052543633 -0.08217575 -0.06935127 0.37123322 0.12901463 0.2661844 -0.06775013 0.26599956
-0.37598538 -0.19004299 0.03680564 0.15358868 -0.25166425 0.25683802 0.04441369 0.23113772
0.025758961 -0.2937271 0.088700555 0.2302084 0.0010555338 -0.20045179 0.013907759 -0.09681982
0.28273332 0.22067182 -0.47036615 0.066260956 0.17248632 -0.10489407 -0.2865818 -0.31307212
-0.065235086 0.004866101 0.035911646 -0.22039774 0.35976928 0.4726868 -0.2921519 -0.11686704
-0.10869467 0.017835459 -0.10660943 0.2798318 0.23450483 -0.17493357 -0.36114708 0.4089999
0.14933592 -0.13735098 -0.07960091 0.13022938 0.07748069 0.15008569 -0.20320503 -0.12972096
-0.10053326 -0.15954526 -0.13102706 0.009079998 -0.40795857 0.058084447 -0.2347703 0.4471112
-0.074895725 -0.0871168 -0.04543387 -0.11100919 0.22706066 -0.16970673 -0.103224315 -0.16577362
0.22282724 -0.06630749 0.05864066 -0.019088257 0.11236265 -0.3601629 -0.06607137 0.058794264
-0.08898783 -0.17411278 0.21424599 0.065681644 -0.08075106 -0.35696086 0.2675545 0.00787528
-0.028756455 0.22191378 -0.04400661 0.15069641 -0.36841267 -0.038197175 0.17289361 0.06341718
-0.3186878 0.049096897 0.20729661 0.4325483 0.1255121 0.15640727 0.106411085 0.12427841
0.19295378 0.017783908 -0.20934638 0.19135202 0.13556862 0.33898714 0.014403852 0.08357343
00000000: f28c aabd c142 4a3e c634 0bbe 74eb 7dbe
00000010: 4f82 92be b824 55be 7d50 eabd 05fc 2dbe
00000020: 1bca 87be c120 c5ba 3825 37be 0ca4 223e
00000030: 0412 193a a96c abbe e8bb cebd 1a7c 43be
00000040: abfc a1bd e288 34be 6198 b83c febc ccbd
00000050: b33b 913d 5335 cc3d ccbd 12bd 125d febd
00000060: 3cdf 0bbf 3fa3 883d b1d0 d8bd 62b0 123e
00000070: 5380 83bd 09de 05bf 15e9 c33c 9dc4 21bb
00000080: 7842 3d3d d1cc 1cbd cc3d 593e e55b f9bd
00000090: 6e08 1dbe 143c 0bbe 8b81 f13e ee5d 0abe
000000a0: ba33 4ebd a93e db3e 9ed7 4a3e d6dd e8be
000000b0: 7e93 313d 25f7 763e c14b 513e 3fed 9a3d
000000c0: 35c2 183e edfe 213e 4249 31bd 82e5 123e
000000d0: 1386 d13e 5ecf a13e 36f5 b53e 3f54 60be
000000e0: 0b97 0c3e 2abd 6d3e 0f18 173e 825e bfbc
000000f0: 1d6f efbd e5cd 273e 9a4a 9ebe 59ad 96be
00000100: 1a3e d2bd 7625 2a3e ab27 28be 1271 1ebe
00000110: 1fb1 8b3e 1c2d 9f3e 8e53 9fbe b95b 19ba
00000120: e4cf 2ebe fd4b df3c 1858 d7bd 517a 11be
00000130: 4706 22be bbb3 6cbe badb 6dbe 1243 613e
00000140: d664 3f3e 296a 52bd ab3e 193e 9a59 b53e
00000150: 6d82 89bd 5f5c 1cbd ec2b ec3e 5c90 8e3d
00000160: e454 b4ba d352 863d a354 353e 6d2d 92be
00000170: a0a8 0a3e e258 dcbc ecf0 51b8 d2f0 9abe
00000180: 6f9e 59be a1e8 023e eabe 683e cd8f 23bd
00000190: dd96 8dbe 48f8 87be 3037 b83e 3e39 ff3d
000001a0: f18c 933e d980 af3d 9b89 d2be 150c a7bd
000001b0: de92 cc3d fa46 243e f377 d0bd b6d7 2a3e
000001c0: f409 a1be 2b66 3dbc 6023 423c 1601 52be
000001d0: 2804 4e3e 50b0 b1bd 0c83 383c f3c9 5abd
000001e0: d29a 36be e59f d2bd fd2b 8cbd b921 bd3e
000001f0: 8192 d6be 7894 003e 7c20 f13d 9f78 1f3e
00000200: 40b9 13be 618b cd3e 7f1c 90bc 4959 7a3e
00000210: de22 463d dd57 503d 710f 74be c174 b7be
00000220: 72eb 2d3e 1f33 9cbe 5426 e6bd 3845 d33d
00000230: 4fb9 383e 1798 3b3d 254b d0be 6531 d1bc
00000240: fe37 573d c24b a8bd 0a08 8ebd 4812 be3e
00000250: 691c 043e 5249 883e 95c0 8abd 1831 883e
00000260: 2881 c0be a19a 42be 83c1 163d 5a46 1d3e
00000270: 23da 80be 4680 833e 21eb 353d 5eaf 6c3e
00000280: 7504 d33c 6663 96be a3a8 b53d c0bb 6b3e
00000290: d659 8a3a 3c43 4dbe 5fdd 633c 7849 c6bd
000002a0: 6cc2 903e cbf7 613e d5d3 f0be d3b3 873d
000002b0: 41a0 303e b4d2 d6bd daba 92be fd4a a0be
000002c0: f999 85bd d073 9f3b 1718 133d f2af 61be
000002d0: ae33 b83e 0104 f23e ef94 95be fd57 efbd
000002e0: 509b debd ab1b 923c 0b56 dabd 1d46 8f3e
000002f0: 0922 703e c921 33be 45e8 b8be 6f68 d13e
00000300: 84eb 183e bca5 0cbe cd05 a3bd da5a 053e
00000310: 32ae 9e3d 10b0 193e fb14 50be 92d5 04be
00000320: 62e4 cdbd d55f 23be f52b 06be 46c4 143c
00000330: f2df d0be f5e9 6d3d a067 70be c2eb e43e
00000340: ee62 99bd 4b6a b2bd de18 3abd c958 e3bd
00000350: 9782 683e 9ac7 2dbe 4567 d3bd 8fc0 29be
00000360: d32c 643e 39cc 87bd 3031 703d fa5e 9cbc
00000370: 641e e63d 4667 b8be 6d50 87bd 41d2 703d
00000380: 403f b6bd 9f4a 32be 4d63 5b3e 1984 863d
00000390: d060 a5bd 93c3 b6be e7fc 883e 5207 013c
000003a0: a892 ebbc 5e3d 633e 4640 34bd 2950 1a3e
000003b0: 96a0 bcbe a474 1cbd 060b 313e dee0 813d
000003c0: 0c2b a3be d419 493d 9045 543e f976 dd3e
000003d0: 3e86 003e 3a29 203e 0eee d93d ae85 fe3d
000003e0: ad95 453e 8faf 913c e65e 56be c9f1 433e
000003f0: 80d2 0a3e b98f ad3e 22fe 6b3c 8c28 ab3d

layer2.0.downsample.1.weight f4 [32]
0.2834773 0.4810652 0.50539726 0.3333762 0.39964423 0.33323032 0.41026208 0.3545405
0.34569138 0.54499245 0.34803036 0.5375773 0.34167287 0.14863704 0.42785755 0.46575466
0.39079642 0.09797727 0.5485644 0.54034585 0.39621657 0.53563625 0.30173677 0.36583635
0.48172334 0.30215785 0.46214628 0.3674896 0.3037839 0.29923964 0.2628328 0.42742208
00000000: f023 913e 2e4e f63e b761 013f 49b0 aa3e
00000010: 2b9e cc3e 2a9d aa3e df0d d23e 5586 b53e
00000020: 76fe b03e a084 0b3f 0931 b23e aa9e 093f
00000030: bfef ae3e 4f34 183e 2510 db3e 6577 ee3e
00000040: 7816 c83e 4fa8 c83d b76e 0c3f 1b54 0a3f
00000050: e6dc ca3e 751f 093f 3e7d 9a3e e74e bb3e
00000060: 71a4 f63e 6fb4 9a3e 709e ec3e 9927 bc3e
00000070: 9089 9b3e f035 993e 0592 863e 11d7 da3e

layer2.0.downsample.1.bias f4 [32]
-0.23702882 0.0025200879 -0.07896502 -0.08338717 -0.08248874 -0.057506822 -0.0012104546 0.0009935374
-0.030617988 -0.26758125 -0.15080707 -0.10636462 0.04565975 -0.07290363 -0.16965035 -0.07553644
-0.027855216 -0.14511618 -0.0319561 -0.13249308 -0.07119086 -0.06183298 -0.069185056 0.042800933
0.05805573 -0.23429124 0.082868256 -0.09498375 -0.21119288 -0.12859692 -0.18610185 -0.06447916
00000000: afb7 72be 0f28 253b 6ab8 a1bd e5c6 aabd
00000010: dbef a8bd 468c 6bbd 1ea8 9eba 9539 823a
00000020: 93d2 fabc 6900 89be 2b6d 1abe b2d5 d9bd
00000030: b805 3b3d 804e 95bd d2b8 2dbe d9b2 9abd
00000040: 9f30 e4bc 5699 14be 66e4 02bd 44ac 07be
00000050: 83cc 91bd 9444 7dbd e5b0 8dbd 0850 2f3d
00000060: d8cb 6d3d 0bea 6fbe d5b6 a93d d786 c2bd
00000070: f242 58be e9ae 03be 7c91 3ebe a60d 84bd

layer2.0.downsample.1.running_mean f4 [32]
-1.2469469 -0.86836576 0.6446028 0.9833162 -0.5450054 0.67310864 0.18449338 -0.36121342
-0.21206295 0.38274986 -0.39324555 0.15301372 -0.540121 -0.40310493 -0.13161251 1.0728284
0.6842928 0.123961106 -0.87893456 -1.1926074 0.21353231 -0.3343646 -0.2917611 0.4606302
-0.91822535 -1.0596366 0.37742028 -0.482552 -0.6231203 -0.43782952 -1.075861 -0.6110766
00000000: f59b 9fbf 384d 5ebf b004 253f 9cba 7b3f
00000010: 7985 0bbf d950 2c3f d5eb 3c3e f7f0 b8be
00000020: 0827 59be caf7 c33e 7b57 c9be a1af 1c3e
00000030: 5f45 0abf c563 cebe 6ec5 06be 7152 893f
00000040: d02d 2f3f 52df fd3d db01 61bf 5ca7 98bf
00000050: 37a8 5a3e d631 abbe b661 95be b9d7 eb3e
00000060: d110 6bbf 2ca2 87bf 3b3d c13e 0e11 f7be
00000070: d084 1fbf 312b e0be d0b5 89bf 846f 1cbf
